ctpro/Drishti/layers_weights/101_layer.npy (npy, 20864 bytes, 1 tensors)

array f4 [1, 3, 3, 576, 1]
00000000: bd6e d23e e9b3 1fbd 7373 dc3c eb26 58bd
00000010: ce5b 04bf c07a 9bbe ae30 fbbd c249 ecbd
00000020: de91 a73e df7b 03bf 82be 753f 57fa 97be
00000030: 4e35 b5be 1887 033e 08e4 313f 4e68 9d3e
00000040: f5c8 203d ba85 bbbe ba32 bf3e be00 9cbe
00000050: 14e1 9ebd 1a77 24be 08ac 79be 8a0e a43e
00000060: b700 abbe 89b6 a13e c7ac c2be 5b69 50be
00000070: b5a5 38be 45e1 d53d 9d32 01bf a0a7 7f3d
00000080: 1ae7 be3e 59b9 2cbe 8a7f db3e 5e35 e4be
00000090: 418b 0abe 9f5a 103e 8498 0d3e 647f 9dbe
000000a0: 5e95 563f 2941 0fbe 9919 c23f 787f fa3b
000000b0: b50b 373e 8cef 463e 16ae 57bd 9bc3 01bf
000000c0: f167 09bf 9058 21bf 0231 2cba de83 83bd
000000d0: 0575 733e cd1e 8f3d d08d 80be b4ef 8fbe
000000e0: 756e 6abe a04a a4bf 8908 61be 481b 423f
000000f0: 620c 08be 2484 af3e 0059 183e 7768 983e
00000100: 7ea8 8a3d 113f f43d b831 ae3e e8b6 7b3e
00000110: f1b4 22be 5cdb 02bf 3a91 7cbe 7017 8abe
00000120: 30ee 743d 1cfe 8dbe c9ea febe 66dc 26be
00000130: 3894 943f 3648 023e cff6 2fbd 012d a63e
00000140: 2e4b 993e 2b71 26bf 932d cbbe 3677 2cbd
00000150: 044d d83e c6ab 97be 8609 0ebf 851e 17bf
00000160: 5b44 b1bd 49e5 c63c 5bcc 02be a6f6 eb3e
00000170: cb06 7cbf 43b8 89be 1091 653f 8bea 2abe
00000180: 7f58 ba3e 0df0 123e dd7e 613d 961f 47be
00000190: c397 bd3e 6ca8 883e 2da8 ab3d 7c6e 3fbd
000001a0: 665c 12bf f6d2 3d3f 692d 5cbe f276 a2be
000001b0: ac9a 18bf a37e 943c bd40 fabd 3884 a43b
000001c0: 6ffc d63d 6f50 c6be d579 1abe 2799 06bf
000001d0: ebff 06bf 86eb 183e d76f da3c c8d2 003e
000001e0: c67d cdbe 978c 003e 344e e93e 457e 7dbe
000001f0: f266 e23d e76b 133f 79e5 7ebf e24b 983e
00000200: 9378 1d3f ba17 a23e 455a 8cbd cfd6 78be
00000210: 7af0 1ebd 28d1 683e 51de 2a3f 1882 aa3e
00000220: d01a fdbe 300c c93f 1eae 2cbf 7103 e63e
00000230: c13f 303d e979 ab3d 038b be3e c22d 003e
00000240: 06e1 ecbe 5b3b 2ebe 9fd8 65be 8967 aebe
00000250: 39d7 0fbf 7ab5 ed3c 936c c13e c770 5fbe
00000260: d383 4d3f a3d1 933e bf4d 9b3c 292a 173f
00000270: 7586 e9be 7fdb a5be 557c bbbe bfa7 10bf
00000280: 3696 f8bc cd3b e53e 5406 1ebe 1082 98be
00000290: 25ba 8e3f 3559 143e 97c6 47be 2792 c0be
000002a0: 9c2c 0bbe f224 59be 642e a93d 7d52 d83c
000002b0: 92d3 ab3c 0882 66be f56f bebc dc94 793e
000002c0: 2897 9d3c b477 01bf 0ee1 603e 5850 ad3e
000002d0: 98ad 063e c7b5 003f 38bc 6abe e352 d83e
000002e0: 8ab3 9bbe f7b2 7e3f f03e d43d 7a53 34bf
000002f0: 859f 76be 4c27 1b3f cafc c43c 24d5 423e
00000300: 24d4 8ebe 02f2 d93d 1268 9b3c 3ee4 bf3d
00000310: cdf8 2f3e a380 473e 2d4b 59bf d7b8 ba3e
00000320: 33f2 c03e 078f 50bc c212 06bf 680f dcbe
00000330: aa62 a3be 8130 4a3f f275 e3be 9d9e ea3e
00000340: dea1 bd3e 23c7 ad3d 4297 b23e d178 00bf
00000350: 5a8a 63be bfdd 423f ad32 c8be 9e31 0f3e
00000360: 229a 893d c94b 5abf e972 84be bc90 dc3e
00000370: 4685 51bf 3d9b 1b3e 60e5 d23e 4efc 9fbe
00000380: 3e4a c6be 6005 6a3e 9341 73be 0169 9abe
00000390: 65ee d83e d8ff 823e aa04 98be d56d 833e
000003a0: c874 18bf 367d 873d bf74 c33d f05a 353e
000003b0: 6462 b9be af50 26bd e371 4bbe 1604 553f
000003c0: 7460 103e 800a 7abe 025d 8d3e 6179 123e
000003d0: 64b0 2f3d 1353 44be d8da 53be 3dd3 d13f
000003e0: cc3c 08bf e600 4cbe 423d 2ebe ebd5 873e
000003f0: 51ed 3e3f 6ae0 613e 3043 3cbe 069a 743e
0.41100112 -0.038989935 0.02691052 -0.05277149 -0.5170258 -0.30367088 -0.12265144 -0.11537506
0.32728475 -0.5136089 0.95993817 -0.29683182 -0.3539223 0.12844503 0.69488573 0.3074364
0.039254148 -0.36625463 0.3734339 -0.30469316 -0.07757774 -0.16061059 -0.24382031 0.32042342
-0.33398983 0.31584576 -0.38022444 -0.2035269 -0.18031962 0.104433574 -0.50467855 0.06241572
0.37285691 -0.1686758 0.42870742 -0.44571966 -0.13529684 0.14097069 0.13827711 -0.30761254
0.83821666 -0.139897 1.5164062 0.00764459 0.1787556 0.19427317 -0.052656256 -0.50689095
-0.53674227 -0.6302576 -0.0006568582 -0.06421636 0.23775108 0.06988297 -0.25108194 -0.28112566
-0.22893699 -1.2835274 -0.21975912 0.7582288 -0.13285974 0.34280503 0.14877701 0.297672
0.067704186 0.119260915 0.34022307 0.24581492 -0.15889336 -0.51115966 -0.24664775 -0.26971006
0.059797466 -0.27732933 -0.49788502 -0.16295013 1.1607733 0.12722859 -0.042959984 0.3245621
0.2994017 -0.6501643 -0.39683208 -0.042105876 0.42246258 -0.2962324 -0.5548328 -0.59030944
-0.08655616 0.024279254 -0.12773268 0.46086615 -0.98447865 -0.26898393 0.8967447 -0.16691034
0.36395642 0.14349385 0.055052627 -0.19445643 0.37029848 0.26690996 0.08381686 -0.046736225
-0.5717224 0.74150026 -0.21501698 -0.31731373 -0.5961101 0.018126791 -0.12219379 0.0050206445
0.10497367 -0.3873324 -0.15085538 -0.5257744 -0.5273425 0.14933595 0.026664658 0.12580407
-0.4013502 0.12553631 0.45567477 -0.24755199 0.110547915 0.5758652 -0.995689 0.29745394
0.61512107 0.31658727 -0.06853155 -0.24300693 -0.038803555 0.22736037 0.6674548 0.3330238
-0.4943452 1.5706844 -0.6745318 0.449245 0.04302955 0.08372862 0.37215433 0.12517455
-0.4626543 -0.1701483 -0.22445916 -0.34063366 -0.5618778 0.029017199 0.37778148 -0.21820365
0.8027927 0.28870878 0.01895797 0.59048706 -0.45610395 -0.32394025 -0.36618295 -0.5650596
-0.030345064 0.44772187 -0.15432101 -0.2978673 1.1150557 0.14487155 -0.1950935 -0.37611505
-0.13591236 -0.212055 0.082608014 0.026406521 0.020974908 -0.2251054 -0.023246745 0.24373192
0.019237116 -0.5057328 0.21960852 0.3385036 0.13152158 0.5027737 -0.22923362 0.42250738
-0.30410415 0.9949183 0.10363567 -0.70439875 -0.2408429 0.6060684 0.02404632 0.19026619
-0.27896225 0.106418625 0.018970523 0.093697056 0.17184754 0.19482665 -0.84880334 0.36469147
0.37684783 -0.012729413 -0.5237237 -0.42980504 -0.31911212 0.7898026 -0.44425923 0.45824137
0.37037557 0.08485248 0.34881026 -0.5018435 -0.22220746 0.7611961 -0.39101163 0.13983771
0.067188516 -0.8527189 -0.2586892 0.43079174 -0.81843984 0.15195937 0.41190624 -0.3124718
-0.38728517 0.22853613 -0.23755483 -0.30158237 0.4236938 0.25585818 -0.29691058 0.25669733
-0.59553194 0.06615679 0.09543752 0.17710471 -0.3620788 -0.04060429 -0.19867663 0.8320936
0.14099294 -0.24418068 0.27610022 0.14304115 0.04289283 -0.19172315 -0.20688951 1.639259
-0.5321777 -0.19922218 -0.17015556 0.26530394 0.74580866 0.22058263 -0.18385005 0.2388688
