ctpro/Drishti/layers_weights/10_layer.npy (npy, 1664 bytes, 1 tensors)

array f4 [4, 96]
000000 6c 2d 9d 3f 6d 4c 18 3f bb 19 cc 3f 57 98 f6 3f
       1.2279487 0.59491616 1.5945352 1.926524
000010 a8 75 d3 3f a8 39 d0 3e 2d 9d 43 3f 9a a9 26 3f
       1.6520281 0.40668988 0.76411706 0.6510254
000020 3d a6 1c 3f 97 06 1c 3f a8 07 e8 3e 72 db bb 3e
       0.6119116 0.60947555 0.4531834 0.3669086
000030 72 2a a3 3f 8e 98 21 3f 63 26 81 3e d3 05 61 3f
       1.2747328 0.63123405 0.252246 0.8789951
000040 d9 13 42 3f d4 7b cc 3e 4a 39 e4 3f 18 45 bc 40
       0.75811535 0.39938223 1.7829983 5.8834343
000050 4e e1 8b 3f d4 06 81 3f f2 ea 01 41 fd ea cd 3f
       1.0928133 1.0080209 8.11986 1.6087338
000060 97 81 03 3f c1 67 d0 3e b0 ab 3e 3f 6f e5 52 3e
       0.51369613 0.40704158 0.74480724 0.20595334
000070 a4 0a 4a 3f fa 6c 1c 41 02 c9 55 3f cc f2 7f 3f
       0.78922486 9.776606 0.8350984 0.99979854
000080 05 54 af 40 ef 12 46 3f cd a2 00 3f 17 0d 53 3f
       5.4790063 0.7737264 0.50248414 0.8244185
000090 1f f5 73 40 5e ee 4c 3f 00 91 df 40 9b 99 c4 40
       3.811836 0.8005122 6.98645 6.1437507
0000a0 64 0a 9f 40 20 7b 11 40 66 9e aa 3e 75 b9 3d 3f
       4.9700184 2.27314 0.33323973 0.7411111
0000b0 ff a1 a1 3e 7a 2c 0b 40 1e 00 6b 3f c8 0a 9a 40
       0.31568906 2.1745896 0.91797054 4.813816
0000c0 67 e3 86 3f ac 64 89 3f d7 82 e4 3e 9d b2 c5 3f
       1.0538148 1.0733848 0.44631073 1.5445133
0000d0 39 8b 91 3f 49 1e c6 3e e6 65 47 3f 4a 7b 28 3f
       1.1370612 0.3869498 0.7788986 0.65813124
0000e0 c8 c1 38 3f 2c 71 1d 40 15 79 fa 3f d5 f2 12 40
       0.72170687 2.4600325 1.9568201 2.2960713
0000f0 75 48 89 3f d3 58 98 40 ee 14 de 3f 90 3f fa 3f
       1.0725237 4.760843 1.7350137 1.9550648
000100 dc c7 75 3f 9e 30 75 3f 46 d0 30 3f 6f 3a 2e 40
       0.96008086 0.9577731 0.690678 2.7223165
000110 85 17 1e 3f dc e5 94 3f 59 a8 af 40 1e 11 34 3f
       0.6175464 1.1632648 5.4893003 0.7033862
000120 ad 4e a9 3e 65 4a f3 3e d2 4b a3 40 63 cf a3 3e
       0.33067837 0.47517696 5.1030054 0.3199416
000130 c8 50 62 3f 26 e6 9f 3f 3e c9 2a 3f 3c 49 13 41
       0.8840451 1.2492111 0.6671332 9.2053795
000140 e2 8e 39 3f d5 ac 5a 3f ab cd 16 41 52 16 d8 40
       0.72483647 0.8541997 9.425212 6.7527246
000150 f8 a4 00 3f 27 3f a7 40 90 7c aa 40 92 eb a3 40
       0.5025172 5.226459 5.3277054 5.122506
000160 db ff 83 3e f0 a2 44 3f 97 ad 2d 3f 03 bd db 3f
       0.2578114 0.7681112 0.67843 1.7167057
000170 d8 78 29 40 61 4e f3 3e 65 89 68 40 b8 2a d7 3e
       2.6480007 0.47520736 3.633386 0.4202478
000180 f6 82 4a 3f d4 8f b6 bb 09 f5 83 3c 97 02 22 40
       0.7910608 -0.005571345 0.016108053 2.531408
000190 ad 30 05 be 2f 46 f7 3f 5d 2e 54 bc ce ad d2 3f
       -0.1300685 1.9318293 -0.012950507 1.6459291
0001a0 1b 09 22 40 fb 89 53 3e cd 25 14 40 d5 9f f2 3f
       2.5318058 0.20658104 2.3148072 1.8955027
0001b0 aa 7a 0e 3e 9a a5 1a 40 c0 55 c1 3f bf aa 17 bd
       0.1391398 2.4163575 1.5104294 -0.03702807
0001c0 c7 03 62 3d 2b d6 10 40 67 30 02 3f 0c e5 8c be
       0.055179384 2.2630718 0.50855106 -0.275185
0001d0 66 cf 1f bd f7 b5 2d bd e2 1f 60 3f b1 d2 8e 3f
       -0.03901615 -0.042409863 0.8754865 1.1158048
0001e0 9d c4 aa 3f 2b e3 0e 40 c3 94 0f c0 c0 98 d7 3f
       1.3341252 2.2326152 -2.2434547 1.6843491
0001f0 0a 1f 4c 40 11 95 d8 3e 66 a1 22 3f ca 66 13 40
       3.1893945 0.4230123 0.63527524 2.3031487
000200 f4 be bc be 1f e2 9c 40 9a e4 1a 40 08 f1 bf 3f
       -0.36864436 4.9026027 2.4202027 1.4995432
000210 49 17 15 40 b0 71 22 40 d8 ef 4b 3e f1 d0 43 bf
       2.3295462 2.538189 0.19915712 -0.76490694
000220 f2 30 90 be de b9 c2 3e ab 96 83 40 1b 2d 41 bd
       -0.28162342 0.3803243 4.112142 -0.047162157
000230 f4 a3 e9 3f 58 db 4f be 80 7a 63 3c 21 c2 49 40
       1.825316 -0.20298517 0.013884187 3.1524737
000240 4c bf 75 3d 74 61 e5 3c 07 1d 12 40 08 18 30 bc
       0.059996888 0.02800057 2.2830217 -0.010747917
000250 ba 9a 11 3e 17 64 03 40 bf e3 09 3d 01 9a 8c 3f
       0.1421918 2.052984 0.03366446 1.0984498
000260 71 f6 bf 3f 6d 14 10 3e 6d ae 24 40 9a f1 45 3e
       1.4997083 0.14070292 2.573146 0.19330445
000270 c3 e5 88 3e 26 a9 a3 be ab f2 73 40 3b f4 0a 40
       0.26737794 -0.31964988 3.8116863 2.1711566
000280 d5 9d 86 3f 8d d5 de 3c bc 6f f5 3f ac 40 a8 3e
       1.0516917 0.027201438 1.9174724 0.3286184
000290 d1 d6 3d 40 ff 71 2c bd 89 6c db 3d 4c 4e a0 3f
       2.9662364 -0.042100903 0.10714061 1.2523894
0002a0 49 b9 00 40 19 eb 1f 40 d9 28 62 be 8c 9a b7 3f
       2.011309 2.4987242 -0.22085895 1.4344039
0002b0 33 ab 93 bc 8a 37 be 3f 3e 61 c2 3f 98 1b 69 3e
       -0.01802597 1.4860699 1.5185926 0.22764432
0002c0 eb df e4 3f d6 fa bf 3d da 78 7a 3d ed 4c 17 3f
       1.7880834 0.09374015 0.06115041 0.59101754
0002d0 8b cd fd 3f 14 84 f1 3f f8 7c 81 3d 7b 73 80 3e
       1.9828352 1.8868432 0.06322664 0.25088105
0002e0 01 a9 9e 3f d2 ce ec 3f 66 ee f5 bf 0a 8e a6 3d
       1.2395326 1.8500617 -1.9213378 0.081325606
0002f0 ab 94 fe bd 35 a9 21 40 11 57 99 3f e2 ce 07 40
       -0.124307 2.5259526 1.1979696 2.1220021
000300 bd 53 8a bc 77 3c 4f bb d9 8c e7 3c f0 f4 e3 bc
       -0.016885633 -0.0031621733 0.028265404 -0.027826756
000310 3c f5 a1 3b c0 86 c3 3c 1e 41 0d 3c 5f 65 cd 3c
       0.0049425643 0.023867965 0.008621482 0.025072752
000320 42 67 23 3d 88 37 ad 3b 5e ae 0d bb 39 77 63 3c
       0.039893396 0.005286161 -0.0021618824 0.013883405
000330 02 39 ca bc 89 a1 be bc 18 8f 39 bc 75 61 03 bc
       -0.024685387 -0.023270385 -0.01132562 -0.008018841
000340 d5 77 24 3d 41 b4 57 bb 6c 7a a8 3c df 08 cb 3c
       0.040153343 -0.0032913836 0.020566188 0.024784504
000350 d5 cb 5b bd a1 a1 8f bb 63 a3 ea bc 64 42 ba bc
       -0.053661186 -0.0043832813 -0.028642362 -0.022736736
000360 15 2d 71 3b 19 8e 98 bb 46 0a 26 bc 6f 56 96 3b
       0.0036800553 -0.0046556112 -0.010134285 0.0045879404
000370 9a 96 4a bb bf 84 f4 bc 1a df d7 3b a3 b0 bc 3c
       -0.003091252 -0.029848455 0.006587875 0.023033446
000380 85 ed f2 bb 61 49 ea 3c 3f 1d 25 3c 25 32 e1 ba
       -0.0074135684 0.028599443 0.010077774 -0.0017181082
000390 f9 3a 5f 3c 69 80 bd 3c 14 27 88 3a d0 de fd bb
       0.0136249 0.02313252 0.0010387623 -0.0077475086
0003a0 34 c6 e2 3c 45 96 e4 3c 52 a3 0c bc 19 12 85 ba
       0.027682401 0.027903685 -0.0085838605 -0.0010152488
0003b0 f3 fd 87 bc d2 24 b4 3a f9 fb 43 3b 55 fd e7 3c
       -0.016600585 0.0013743883 0.0029904826 0.02831904
0003c0 e5 b0 8a bc 9e 7a ec 3c 6d 9e fc 39 4d bc 07 bd
       -0.016930053 0.028867062 0.00048183222 -0.033138562
0003d0 9b 31 19 bc 86 25 2c 3b 12 bf 03 3c 5e 3d 0c bb
       -0.009350206 0.0026267483 0.00804116 -0.0021398882
0003e0 bf 15 14 bb 7d 36 fc bc 1c a8 c1 bc fe c4 be bc
       -0.002259597 -0.0307877 -0.023639731 -0.023287293
0003f0 ee 33 4f bb fc 74 0d 3c a1 b8 f9 bb 4f 2a 89 ba
       -0.0031616646 0.008633848 -0.0076208864 -0.001046488
