ctpro/Drishti/layers_weights/126_layer.npy (npy, 2176 bytes, 1 tensors)

array f4 [4, 128]
0	0x3f800fe3	1.0004848
1	0x3f800c29	1.0003711
2	0x3f8031c0	1.0015182
3	0x3f801156	1.000529
4	0x3f80082d	1.0002495
5	0x3f7fed19	0.9997116
6	0x3f7fffa3	0.99999446
7	0x3f801a3a	1.0008004
8	0x3f7ff8fa	0.99989283
9	0x3f800555	1.0001627
10	0x3f7fe59f	0.9995975
11	0x3f7fe8c8	0.9996457
12	0x3f7fe190	0.99953556
13	0x3f8015af	1.0006617
14	0x3f7ffff7	0.99999946
15	0x3f800c33	1.0003723
16	0x3f803273	1.0015396
17	0x3f7fc827	0.99914783
18	0x3f7ffdc9	0.9999662
19	0x3f7fc24d	0.99905854
20	0x3f80048c	1.0001388
21	0x3f7ffd0f	0.9999551
22	0x3f7fc72b	0.9991328
23	0x3f7ffc2f	0.99994177
24	0x3f7ff6b2	0.999858
25	0x3f80031e	1.0000951
26	0x3f7feee5	0.999739
27	0x3f800eb5	1.0004488
28	0x3f7fdcd6	0.99946344
29	0x3f802abd	1.0013043
30	0x3f7fc68f	0.9991235
31	0x3f801179	1.0005332
32	0x3f7ffc7f	0.99994653
33	0x3f80198f	1.00078
34	0x3f8005c5	1.0001761
35	0x3f7ffad7	0.99992126
36	0x3f7fc6e9	0.9991289
37	0x3f800b7d	1.0003506
38	0x3f801a5e	1.0008047
39	0x3f7ff3b5	0.9998124
40	0x3f7ff22e	0.9997891
41	0x3f802064	1.0009885
42	0x3f80298a	1.0012677
43	0x3f800599	1.0001708
44	0x3f80068f	1.0002002
45	0x3f7feb24	0.9996817
46	0x3f7ff894	0.99988675
47	0x3f8000d4	1.0000253
48	0x3f7fcca0	0.9992161
49	0x3f802c79	1.0013572
50	0x3f8018aa	1.0007527
51	0x3f7ff5ed	0.9998463
52	0x3f800299	1.0000793
53	0x3f8010aa	1.0005085
54	0x3f7fdf84	0.9995043
55	0x3f8008f0	1.0002728
56	0x3f800417	1.0001248
57	0x3f802aec	1.0013099
58	0x3f7ffff6	0.9999994
59	0x3f800713	1.0002159
60	0x3f8007ca	1.0002377
61	0x3f801465	1.0006224
62	0x3f800bce	1.0003603
63	0x3f7fd50e	0.9993447
64	0x3f801b16	1.0008266
65	0x3f801085	1.0005041
66	0x3f7fe916	0.99965036
67	0x3f8002b2	1.0000823
68	0x3f7febb4	0.9996903
69	0x3f7fca31	0.99917895
70	0x3f8000a4	1.0000196
71	0x3f7ffd2d	0.9999569
72	0x3f800bbc	1.0003581
73	0x3f8005f7	1.000182
74	0x3f7fe767	0.99962467
75	0x3f8016e5	1.0006987
76	0x3f7ff6fc	0.99986243
77	0x3f800958	1.0002851
78	0x3f7fc99c	0.99917006
79	0x3f8006b0	1.0002041
80	0x3f801879	1.0007468
81	0x3f800666	1.0001953
82	0x3f80007b	1.0000147
83	0x3f801b15	1.0008265
84	0x3f801d0c	1.0008864
85	0x3f8017b7	1.0007237
86	0x3f800c9a	1.0003846
87	0x3f7fe361	0.9995633
88	0x3f801234	1.0005555
89	0x3f80043a	1.000129
90	0x3f8011c4	1.0005422
91	0x3f8014c0	1.0006332
92	0x3f7fe596	0.99959695
93	0x3f7ffa2d	0.9999111
94	0x3f7ffdcd	0.99996644
95	0x3f7fd7df	0.9993877
96	0x3f801ac8	1.0008173
97	0x3f7fe0d6	0.9995245
98	0x3f801f5b	1.0009569
99	0x3f801527	1.0006455
100	0x3f7ff76d	0.99986917
101	0x3f80089b	1.0002626
102	0x3f7fe177	0.9995341
103	0x3f801184	1.0005345
104	0x3f7fbb3c	0.9989507
105	0x3f8019f5	1.0007921
106	0x3f8006d7	1.0002087
107	0x3f800439	1.0001289
108	0x3f802c4f	1.0013522
109	0x3f801f51	1.0009557
110	0x3f7fd7f1	0.99938875
111	0x3f802cbb	1.0013651
112	0x3f80057d	1.0001675
113	0x3f801d32	1.000891
114	0x3f7ff5d5	0.99984485
115	0x3f801fb7	1.0009679
116	0x3f8008ad	1.0002648
117	0x3f80047e	1.0001371
118	0x3f802b5a	1.001323
119	0x3f8021a1	1.0010263
120	0x3f8002fb	1.000091
121	0x3f801e08	1.0009165
122	0x3f801e25	1.0009199
123	0x3f8018fb	1.0007623
124	0x3f7fe061	0.9995175
125	0x3f800212	1.0000632
126	0x3f801392	1.0005972
127	0x3f8004ee	1.0001504
128	0x3985faed	0.0002555469
129	0xb985bf59	-0.00025510302
130	0xb986ddba	-0.0002572367
131	0x3985daa7	0.00025530646
132	0x39852ee2	0.00025402667
133	0x398550ef	0.00025428037
134	0xb985d4d4	-0.00025526306
135	0x3985fc54	0.00025555736
136	0x3985d1e6	0.00025524123
137	0x3985f6f2	0.00025551725
138	0x398023f2	0.00024440844
139	0x39858a0c	0.0002547059
140	0x3985a5ed	0.0002549136
141	0x39894178	0.00026179454
142	0xb985a4ef	-0.00025490622
143	0x3985bc34	0.0002550796
144	0x398611a4	0.00025571615
145	0x394e93fd	0.00019700821
146	0xb985bf6b	-0.00025510354
147	0xb984c1df	-0.00025321447
148	0x3985b45a	0.0002550211
149	0xb9853c80	-0.00025412813
150	0xb9856b56	-0.00025447708
151	0x3985d204	0.0002552421
152	0x3985b3f4	0.00025501812
153	0xb9851f3f	-0.00025391017
154	0x39859afe	0.00025483215
155	0xb985d93b	-0.00025529586
156	0x3985741b	0.00025454242
157	0x398604b5	0.0002556198
158	0x398539d8	0.00025410834
159	0x39881bcf	0.0002596066
160	0x3985bee4	0.0002550996
161	0x39863a40	0.0002560187
162	0x3985f865	0.00025552805
163	0x3985af07	0.00025498142
164	0x39858e05	0.0002547355
165	0xb9866011	-0.00025630047
166	0x3986179c	0.00025576062
167	0xb98587df	-0.0002546897
168	0x39859ffd	0.00025486937
169	0x3985feaa	0.00025557476
170	0x3985fe63	0.0002555727
171	0x3985bdac	0.00025509053
172	0xb985aa98	-0.0002549484
173	0xb985a1e1	-0.00025488346
174	0x39848933	0.00025279223
175	0x3985cf43	0.0002552216
176	0xb9844987	-0.00025231784
177	0xb989be36	-0.00026272394
178	0xb985cb2b	-0.0002551911
179	0xb985cd95	-0.00025520907
180	0xb985d0a0	-0.00025523175
181	0x3985b42b	0.00025501972
182	0x3984a40c	0.00025299226
183	0xb985a869	-0.00025493212
184	0xb985b964	-0.00025505864
185	0xb98956e0	-0.00026195403
186	0x3985e02e	0.00025534764
187	0xb985c1d4	-0.0002551215
188	0xb986a66f	-0.00025682474
189	0xb985e3bb	-0.0002553741
190	0xb986006a	-0.0002555878
191	0xb985a5f6	-0.00025491387
192	0xb985e018	-0.000255347
193	0xb985be44	-0.00025509496
194	0xb985a237	-0.00025488596
195	0x3985b565	0.00025502886
196	0x3985b40d	0.00025501885
197	0x39838160	0.0002508266
198	0xb9848219	-0.00025273932
199	0xb9856475	-0.00025442583
200	0x39848fab	0.00025284043
201	0x3985cdc4	0.00025521044
202	0x398565b9	0.00025443526
203	0x3985f545	0.00025550477
204	0x3985ad11	0.0002549668
205	0xb985c34c	-0.00025513244
206	0x39853780	0.00025409088
207	0x3985c970	0.0002551782
208	0x3985ec1f	0.0002554366
209	0xb9862dc9	-0.00025592584
210	0x3985c611	0.00025515308
211	0xb985fc99	-0.00025555937
212	0x3985f78e	0.0002555218
213	0xb985c98d	-0.00025517904
214	0x3985ce91	0.0002552164
215	0x3985490b	0.00025422158
216	0xb985d95f	-0.0002552969
217	0xb9859c69	-0.00025484271
218	0x3985e21b	0.00025536199
219	0xb985dd85	-0.00025532782
220	0xb985418c	-0.00025416573
221	0xb985929b	-0.00025476966
222	0xb985b53b	-0.00025502764
223	0x398532c7	0.0002540557
224	0x39868912	0.00025660597
225	0xb9855783	-0.00025432938
226	0xb985e6e5	-0.00025539767
227	0x3985fc42	0.00025555684
228	0x39855580	0.0002543144
229	0xb985e8f4	-0.000255413
230	0x3984806f	0.00025272692
231	0xb985e63d	-0.00025539278
232	0xb98519f9	-0.00025387088
233	0x3985f277	0.00025548387
234	0x3985b9bc	0.0002550612
235	0x3985e559	0.00025538614
236	0xb9862f85	-0.00025593876
237	0xb986319a	-0.00025595428
238	0x39851885	0.00025386005
239	0xb986cb39	-0.00025709884
240	0xb985c156	-0.00025511783
241	0xb985f017	-0.00025546618
242	0x3985a8da	0.0002549354
243	0x3985f4c4	0.000255501
244	0xb985cd73	-0.00025520808
245	0x3985a3ec	0.00025489868
246	0xb985fd9d	-0.00025556693
247	0xb985f0b0	-0.00025547063
248	0xb9858fa2	-0.00025474752
249	0x3985ec18	0.0002554364
250	0xb99b9b6e	-0.00029679708
251	0xb985e55c	-0.00025538623
252	0xb98595ee	-0.00025479443
253	0x3985aa5b	0.00025494662
254	0xb985d456	-0.0002552594
255	0xb985c655	-0.00025515506
