ctpro/Drishti/layers_weights/13_layer.npy (npy, 3584 bytes, 1 tensors)

array f4 [1, 3, 3, 96, 1]
000000 b8 06 b6 bf 18 6f af 3f cc 36 07 3f c7 4b cf 3f
       -1.42208 1.3705778 0.5281799 1.6195
000010 c4 31 4e 3f 5c 90 cb 3f ae 36 46 3f 8c 5e 36 3f
       0.80544686 1.590343 0.77427185 0.7123802
000020 a7 41 59 3f 51 0e 76 3f 79 3c 28 be e2 81 5a bf
       0.848658 0.96115595 -0.16429318 -0.85354435
000030 d3 5f 55 3f 1d a7 e7 be 4c c3 9c 3f 80 2f b5 be
       0.8334934 -0.45244685 1.22471 -0.35387802
000040 f4 98 af 3f ff 49 cd 3f 95 bf 76 bf c5 0c c2 be
       1.3718553 1.6038207 -0.9638608 -0.37900367
000050 db 5b 48 3f 81 3d db 3e 0d 10 57 bf 9f 71 4b bf
       0.7826516 0.4282036 -0.84008867 -0.7947025
000060 61 1e 72 be 1e 05 16 40 2b 67 93 be c8 a1 e0 bf
       -0.23644401 2.3440623 -0.28789648 -1.7549372
000070 5e 8e 13 3f 0c c6 49 bf d2 18 e4 3f 3c 68 05 3f
       0.5763911 -0.7881782 1.7820075 0.52112174
000080 04 23 1f bf db ba 66 3f 85 ca 0e 3f a3 e4 59 be
       -0.62162805 0.9012887 0.5577777 -0.21278624
000090 6c ba b4 bf 9a 5e 82 3f 91 d6 6c bf 7d 9f e4 be
       -1.4119391 1.018512 -0.925149 -0.4465293
0000a0 59 46 d0 be db c7 0f bf fb e0 03 3e ec 34 d3 3f
       -0.4067867 -0.5616433 0.12878792 1.6500525
0000b0 3e db b7 3e 22 70 b7 bf 00 fe ac 3f c1 79 3c bf
       0.35909456 -1.4331095 1.3515015 -0.7362328
0000c0 3b a6 3a bf d1 22 a2 be bd 40 67 bf 0f 9e 53 3f
       -0.729099 -0.31667188 -0.9033316 0.82663053
0000d0 ba 71 a2 3f 2f 41 cf bf dc 55 23 3f fd 8f 4b 3c
       1.2690957 -1.6191767 0.63802886 0.012424466
0000e0 53 79 02 c0 69 b8 1b bf fb 93 93 3f 26 ce ca be
       -2.038655 -0.6082826 1.1529535 -0.39610404
0000f0 29 c1 2d bf 99 ca 46 bf cb 1f 03 bf bb 61 8c bf
       -0.67872864 -0.7765289 -0.5122039 -1.0967325
000100 b7 9f 82 bf 60 d7 c4 3f 9f 86 b9 3f 38 47 ef be
       -1.0204991 1.5378227 1.4494208 -0.46734023
000110 4e ff 15 3f a6 49 7f 3f 70 7f 62 bf a6 fd fd 3f
       0.5859269 0.99721754 -0.88475704 1.9843032
000120 50 33 a3 3f 57 94 bb 3f ab 76 1b bf fb cf 0f 3f
       1.2750034 1.4654645 -0.6072795 0.5617673
000130 9d f8 84 3f bd b9 02 3e e7 0c d8 bf c2 56 6d bf
       1.0388371 0.12766166 -1.6878937 -0.92710507
000140 c0 0a 57 bf 6e fa a5 bf 60 d4 5a bf 0b dd 6d bf
       -0.8400078 -1.296705 -0.8548031 -0.9291541
000150 c2 b3 5f bf fa a0 b5 bf fd 01 f3 be ab 9a 1a bf
       -0.87383664 -1.4189751 -0.47462454 -0.60392255
000160 10 63 36 3f c4 07 87 3f 78 46 13 3f 3b b4 08 be
       0.7124491 1.0549245 0.575294 -0.13350002
000170 aa 14 c7 bf 8c ca d0 3e 82 da 3b bf 1b 4c 30 3f
       -1.5553181 0.4077953 -0.7338029 0.6886613
000180 00 23 30 be e6 da b3 3f 39 0e ad 3f db 8e db be
       -0.17200851 1.4051178 1.3519965 -0.42882428
000190 98 df d4 3f 91 8b 10 c0 ef 01 fb 3f 55 8b 51 3f
       1.6630735 -2.2585185 1.9609965 0.8185323
0001a0 00 37 b0 3f 5f cf ac 3f fe 4d 3d 3e c1 71 09 bf
       1.3766785 1.3500785 0.18486783 -0.536892
0001b0 ff 1a 07 3f d9 5c e3 3f 12 a2 a1 3f 56 90 ac bf
       0.5277557 1.776271 1.2627585 -1.3481548
0001c0 dd 73 a7 3f 2d 41 e6 bf 61 8c 38 bf 41 0f 31 bf
       1.3082234 -1.798864 -0.720892 -0.691639
0001d0 29 ac d6 3f b2 27 fe 3f c6 ed a7 bf 8f 71 8e bf
       1.6771289 1.9855864 -1.3119438 -1.1128405
0001e0 b2 ac cd bf ff 04 b5 bf 3d 06 55 3f 89 f3 8e bd
       -1.6068327 -1.414215 0.83212644 -0.069800444
0001f0 ba 39 50 3f c5 3a 8a bf 46 44 8e bf d0 ba ca 3f
       0.81338084 -1.0799185 -1.1114585 1.5838261
000200 fe bf a5 bf c6 c9 f6 bf d2 9f 4e 3f 59 b9 e8 3f
       -1.2949216 -1.9280326 0.80712616 1.8181564
000210 0e d3 e6 3e d3 7c d7 3f 02 02 a0 bf 00 77 81 bf
       0.45082897 1.6834968 -1.2500613 -1.0114441
000220 d7 7c 85 bf 65 32 5f bf 74 29 1a 3f e5 7c 1d 40
       -1.0428723 -0.8718627 0.602195 2.460748
000230 d5 92 35 bf 83 bb bf bf d0 7c cf 3f bb b1 9b bf
       -0.7092717 -1.4979099 1.6209965 -1.2163614
000240 3b 40 bb bf 4a 42 e6 3f 11 6d 23 c0 05 9c 92 3f
       -1.4628977 1.798898 -2.553532 1.1453863
000250 16 8b c2 3f 95 7f f4 3f 01 85 d1 3f 40 43 fc be
       1.5198696 1.9101435 1.6368715 -0.49270058
000260 11 c5 6c 3f a0 f0 69 bf 23 20 f5 bf 2a d4 e3 bf
       0.924882 -0.9138279 -1.9150432 -1.7799122
000270 5c 20 5e bf 37 e4 a5 bf b6 6d a1 3f d5 88 f9 bf
       -0.86768126 -1.2960271 1.2611606 -1.9494883
000280 70 87 19 40 58 94 ab 3f ae de c8 3f b5 c0 91 bf
       2.3988914 1.3404646 1.5692956 -1.1386935
000290 c2 8d 5f 3f 53 c4 db 3f c3 63 98 3d b6 ec 6e 3f
       0.8732568 1.7169288 0.07440903 0.9332994
0002a0 cf 45 27 c0 a2 06 18 c0 5b 87 8e bf 1d 66 93 bf
       -2.6136358 -2.3754048 -1.1135057 -1.1515538
0002b0 c8 53 0a 40 0e 86 8b bf a0 34 a5 3f 5b b1 b7 bf
       2.1613636 -1.0900285 1.2906685 -1.4351
0002c0 ca 23 99 3f 72 bd d4 bf 88 ed 8c bf 2f 82 8e bf
       1.1964047 -1.6620314 -1.1009989 -1.1133479
0002d0 61 c8 c0 bf 4d 32 25 c0 de 4c 3a bf 01 18 9f bf
       -1.5061151 -2.581195 -0.7277354 -1.24292
0002e0 aa da a3 be be e1 2c c0 bf 20 57 3f 45 bd e8 be
       -0.32002765 -2.7012782 0.8403434 -0.454569
0002f0 88 38 ea bf 2d c3 96 3f 7b c9 95 bf a6 c5 fc bf
       -1.8298502 1.1778313 -1.1702112 -1.9747818
000300 91 00 a4 3f 07 94 95 3e 88 b8 ac 3f b7 d7 39 bf
       1.2812673 0.29214498 1.3493814 -0.7259478
000310 b6 c4 6e 3f 78 17 32 3f 4c 66 bf 3f 6d 33 d1 bf
       0.9326891 0.6956706 1.4953094 -1.6343819
000320 c9 10 42 3f 96 0d 23 3f 8e 96 4c 3f e5 4d 9b be
       0.7580686 0.63692605 0.7991723 -0.30332866
000330 c1 f8 1b be b2 48 6c bf cf 0c 98 be 73 d5 62 bf
       -0.15231611 -0.92298424 -0.29697272 -0.8860695
000340 82 7f a0 3e b6 87 97 3e dc 16 80 be 66 d1 b5 be
       0.3134728 0.29595727 -0.2501744 -0.3551132
000350 44 f8 6b 3f d5 38 c8 3f 20 50 5d bf d2 c4 84 be
       0.921757 1.5642344 -0.86450386 -0.25931412
000360 71 ac 59 3f 07 03 83 bf 5f 92 06 bf 40 9d be 3f
       0.8502875 -1.0235299 -0.52567095 1.4891739
000370 5c 31 be 3e 89 06 0e bf df 60 f7 bd df 47 08 40
       0.37147033 -0.5547872 -0.120790236 2.1293867
000380 a6 d6 37 bf ee 0a d8 3e 84 85 0a 3e 06 a7 b7 3f
       -0.718119 0.4219584 0.13527495 1.4347847
000390 b7 18 a5 3f 60 e1 4c 3e 70 fc 22 bf 8e 02 0b bf
       1.2898167 0.20007849 -0.6366644 -0.54300773
0003a0 18 51 44 bf 63 3c 46 bf 5f a0 10 3f 85 ec 9e 3f
       -0.7668624 -0.7743589 0.56494707 1.241593
0003b0 f5 12 ca 3e 1d 2d e5 be 8d 20 2f 3f ac a8 10 bf
       0.39467588 -0.4476098 0.68409044 -0.5650737
0003c0 8d b6 88 bf 62 a5 c3 3f 9b 63 bc bf f4 28 e5 3e
       -1.068071 1.5284846 -1.4717897 0.44757807
0003d0 9e 61 b6 3e 9a 74 e6 be 7a d3 8a 3f 6c 34 4b 3c
       0.3562135 -0.45010835 1.0845788 0.012402635
0003e0 ca ac 11 3f 88 5d 19 bf 3e 0f 18 c0 d5 dc a5 bf
       0.5690428 -0.5990834 -2.3759303 -1.2958018
0003f0 ab 47 3b bf a0 07 f9 be 8a f5 25 bf 6a 3b 30 bf
       -0.7315623 -0.4863863 -0.6482779 -0.6884066
