ctpro/Drishti/layers_weights/1_layer.npy (npy, 3584 bytes, 1 tensors)

array f4 [1, 3, 3, 3, 32]
-0.17167383 -0.33365464 0.052852433 -5.9323297e-21 0.20874329 -0.12115839 0.017460579 -3.107082e-22
-0.009260881 0.19079848 -0.36722332 3.9599798e-22 -2.3623663e-22 3.3670638e-22 0.08880569 -0.07794425
0.00026748554 -0.036183905 0.059914943 5.5373647e-21 -0.00019408225 -0.122897685 -0.13421513 0.0085583255
-0.2480002 0.015443009 -0.00029694996 -0.10936899 5.5512664e-22 -0.0020331917 0.28331897 0.07646231
-0.31888333 -0.609773 -0.17082551 -6.7670563e-21 -0.58219653 -0.25635204 -0.042309117 1.324273e-22
0.00037445975 0.33003932 -0.4017722 3.6303442e-22 1.647336e-22 1.9764892e-22 0.09966952 -0.11806821
0.0002702274 -0.05292057 -0.2153061 3.1601165e-21 0.081178576 0.07926423 -0.28414902 0.0013734605
-0.3661088 0.050130952 -0.00046310693 -0.18922085 -1.6116295e-22 0.002059437 0.48655328 0.025173072
-0.10637693 -0.1845914 0.09746533 -8.815197e-22 0.3806823 -0.06842922 0.08649179 1.8613544e-23
0.017373392 0.07815403 -0.15720715 3.5159195e-22 4.4411556e-22 8.284261e-23 0.0032889063 -0.01893462
0.00024396733 -0.01887823 -0.3724474 4.249754e-21 -0.047795426 0.054033525 -0.080599934 0.05291301
-0.1334009 0.00857824 -0.0005902668 -0.071545206 -4.444179e-22 0.011701757 0.17253935 -0.04424329
-0.2874468 0.35110605 -0.117575996 -4.6135377e-21 0.13829353 -0.01759918 -0.056974392 -4.437506e-22
0.080949165 0.31994256 0.013118934 3.3578578e-22 2.0598338e-22 1.8924757e-22 0.061411303 0.13879298
0.00026653378 -0.11217366 -0.051174965 3.9069784e-21 -0.046625458 -0.51788527 0.26964074 0.06461474
-0.23210008 0.040888254 -0.00029299257 0.38820344 6.6887347e-22 -0.050204195 0.078178026 0.012401303
-0.47014517 0.64112675 0.01259355 -5.1606954e-21 -0.5435572 -0.039607584 -0.08851373 -2.5765288e-22
0.1851639 0.5266131 0.024366716 2.414772e-22 5.1334403e-22 3.166814e-22 0.2631991 0.2033831
0.0002676103 -0.21729726 -0.061899055 1.5824094e-22 0.067310326 0.4101891 0.37948507 -0.011844834
-0.3750435 0.075874716 -0.00043420223 0.68312514 -1.083378e-22 -0.0089133335 0.00015316297 0.1647222
-0.13139431 0.21403848 0.10401394 6.3363504e-22 0.4329554 -0.011159386 -0.018093798 -3.0477875e-22
0.053134162 0.14095795 0.051240247 2.7116325e-22 4.8140453e-22 3.1072502e-22 0.034121264 0.043665223
0.00024179868 -0.059185006 -0.30812654 2.9191493e-21 0.003171242 0.12402107 0.05545488 0.13390811
-0.11345656 0.017669756 -0.00055573194 0.24777931 -4.0226507e-22 0.070745684 -0.054917462 0.0467141
-0.07177555 -0.054378137 -0.15319602 -3.4675476e-21 -0.029811412 -0.004466431 0.006983693 1.2517463e-22
-0.043273333 0.13151053 0.065782 3.2197e-22 5.301867e-22 -1.408792e-22 0.029459976 0.021300362
0.00026571366 0.12464252 0.0015188799 7.01061e-22 -0.06832588 -0.44161135 -0.16701953 0.12948968
-0.020887243 0.008056744 -0.00025309343 -0.28250238 4.928785e-22 0.1510946 -0.02946928 -0.15996668
-0.1050495 -0.084645025 0.09306485 -3.8599725e-21 0.0066123847 -0.001363677 0.022962902 7.6094754e-23
-0.077691324 0.17883307 -0.011571992 1.5174087e-22 6.9082036e-22 3.4128132e-22 0.20064232 0.01666763
0.00026441753 0.24358143 0.22515301 -4.071467e-21 0.05876026 0.29493666 -0.13013656 -0.0056716152
-0.007788748 0.032869264 -0.000311461 -0.47840625 -1.7708903e-23 -0.16992371 -0.071886025 0.06834074
00000000: 44cb 2fbe c8d4 aabe cb7b 583d f91d e09d
00000010: cdc0 553e e421 f8bd 7d09 8f3c c4cf bb9b
00000020: f3ba 17bc ad60 433e b204 bcbe b85d ef1b
00000030: d9cb 8e9b ca86 cb1b c2df b53d 3ca1 9fbd
00000040: 4d3d 8c39 9335 14bd 5f69 753d 1b32 d11d
00000050: 8f82 4bb9 c8b1 fbbd b16f 09be 3838 0c3c
00000060: c4f3 7dbe ad04 7d3c f3af 9bb9 d9fc dfbd
00000070: d8c6 271c 4c3f 05bb 2f0f 913e 4698 9c3d
00000080: ad44 a3be 151a 1cbf e2ec 2ebe f4a6 ff9d
00000090: d50a 15bf 9340 83be 534c 2dbd 4418 201b
000000a0: 2353 c439 eafa a83e 16b5 cdbe db70 db1b
000000b0: 9426 471b 61f1 6e1b 891f cc3d bfcd f1bd
000000c0: 4fad 8d39 3dc3 58bd 3479 5cbe 8bc5 6e1d
000000d0: f440 a63d 4955 a23d fb7b 91be b005 b43a
000000e0: 9d72 bbbe 1d56 4d3d 29cd f2b9 1cc3 41be
000000f0: 84d5 429b 9ff7 063b 831d f93e c237 ce3c
00000100: 26dc d9bd 8705 3dbe e79b c73d 2436 859c
00000110: cae8 c23e 9e24 8cbd 9c22 b13d e704 b419
00000120: a552 8e3c 380f a03d e9fa 20be 3886 d41b
00000130: c739 061c 184d c81a b18a 573b c71c 9bbc
00000140: 7bd1 7f39 85a6 9abc 6db1 bebe 198d a01d
00000150: 23c5 43bd 4252 5d3d 9411 a5bd 50bb 583d
00000160: 3f9a 08be bf8b 0c3c 22bc 1aba 4b86 92bd
00000170: 2b51 069c bab8 3f3c 28ae 303e 7438 35bd
00000180: 3a2c 93be 2cc4 b33e afcb f0bd 664b ae9d
00000190: d29c 0d3e 282c 90bc fb5d 69bd 8a1d 069c
000001a0: adc8 a53d 83cf a33e ccf0 563c 55f8 ca1b
000001b0: c504 791b 49c9 641b 6b8a 7b3d bf1f 0e3e
000001c0: 8fbd 8b39 4ebb e5bd d79c 51bd fa99 931d
000001d0: 56fa 3ebd 2194 04bf 5a0e 8a3e bc54 843d
000001e0: a5ab 6dbe 717a 273d cc9c 99b9 9ac2 c63e
000001f0: 9427 4a1c eaa2 4dbd cd1b a03d d62e 4b3c
00000200: deb6 f0be e220 243f 2d55 4e3c 2ff7 c29d
00000210: 9126 0bbf 903b 22bd b046 b5bd dabd 9b9b
00000220: 9b9b 3d3e 1ed0 063f b59c c73c c9f6 911b
00000230: 1226 1b1c 136c bf1b 08c2 863e a943 503e
00000240: 0c4e 8c39 2c83 5ebe dd89 7dbd 334d 3f1b
00000250: ffd9 893d 4e04 d23e de4b c23e d610 42bc
00000260: b405 c0be 3464 9b3d a3a5 e3b9 4ae1 2e3f
00000270: edf8 029b 3b09 12bc 5f9a 2039 f0ac 283e
00000280: 3b8c 06be e72c 5b3e 4305 d53d 2381 3f1c
00000290: 55ac dd3e dbd5 36bc 7239 94bc 3a3a b89b
000002a0: 35a3 593d 4857 103e 4be1 513d 7be8 a31b
000002b0: df7e 111c 5ed2 bb1b bdc2 0b3d 4eda 323d
000002c0: 578b 7d39 fa6b 72bd c3c2 9dbe 8f90 5c1d
000002d0: 9dd4 4f3b c2fe fd3d a824 633d 351f 093e
000002e0: ea5b e8bd 2ac0 903c 8aae 11ba dcb9 7d3e
000002f0: 8127 f39b 1de3 903d 22f1 60bd 4957 3f3d
00000300: 0fff 92bd 9cbb 5ebd 6bdf 1cbe 1000 839d
00000310: 1037 f4bc 245b 92bb 77d7 e43b ac53 171b
00000320: 613f 31bd b2aa 063e b7b8 863d 729e c21b
00000330: 363d 201c 0050 2a9b 0c56 f13c 197e ae3c
00000340: 7c4f 8b39 9444 ff3d 2715 c73a f8e1 531c
00000350: 70ee 8bbd e21a e2be 2b07 2bbe f198 043e
00000360: b91b abbc 6f00 043c a0b1 84b9 27a4 90be
00000370: a0f6 141c 8bb8 1a3e 8f69 f1bc 4ece 23be
00000380: 3124 d7bd 5f5a adbd c998 be3d 5dd3 919d
00000390: b4ac d83b 68bd b2ba b21c bc3c 5ffc b71a
000003a0: a11c 9fbd 0420 373e 7498 3dbc 8671 371b
000003b0: a3c9 501c ba4a ce1b 2e75 4d3e 8e8a 883c
000003c0: 85a1 8a39 696d 793e 838e 663e d0d0 999d
000003d0: 99ae 703d f001 973e 8542 05be f5d8 b9bb
000003e0: c138 ffbb eca1 063d 964b a3b9 aaf1 f4be
000003f0: 1f45 ab99 7b00 2ebe fb38 93bd 3bf6 8b3d
