ctpro/Drishti/layers_weights/22_layer.npy (npy, 2432 bytes, 1 tensors)

array f4 [4, 144]
000000 3b 00 60 3f 59 24 48 3f ac 65 90 3f e1 b6 8c 3f
       0.8750035 0.7818046 1.1281028 1.099331
000010 44 aa 5c 3f 4c 7a 8f 3f 7c 9f 7f 3f ea c9 19 3f
       0.86197305 1.1209197 0.9985273 0.6007372
000020 22 6a 5c 3f c6 18 78 3f 91 a5 7d 3f 6c fc 15 3f
       0.86099446 0.969128 0.9908076 0.5858829
000030 8b 44 6d 3f ae ed 5f 3f 89 e7 94 3f c1 f7 7e 3f
       0.92682713 0.87472045 1.1633159 0.9959679
000040 88 90 57 3f a2 13 46 3f f9 fa 93 3f b5 05 4c 3f
       0.8420491 0.7737371 1.1560966 0.7969621
000050 53 36 7f 3f a5 e2 40 3f 0d a9 8c 3f 95 2d 80 3f
       0.9969227 0.7534583 1.098909 1.001391
000060 ce 9c 4f 3f fa f9 06 3f c2 94 1f 3f ee bd 8c 3f
       0.8109864 0.52725184 0.6233636 1.0995462
000070 83 cd 81 3f 72 84 31 3f 57 9b 9f 3f 47 fe 1c 40
       1.0140842 0.6934272 1.2469281 2.4530199
000080 78 fe 9a 3f 83 4c 0a 3f 46 af 91 3f 2d 46 9f 3f
       1.2108908 0.54023 1.1381614 1.2443291
000090 53 bd 39 3f 8f a6 14 3f c9 0c 2a 3f 3f 27 49 3f
       0.7255451 0.5806665 0.6642576 0.7857551
0000a0 b9 ca d1 3f fa b9 8e 3f 1f bc 1c 3f db 01 62 3f
       1.6389991 1.1150506 0.6122455 0.8828408
0000b0 02 63 fa 3e f4 7b 80 3f 9e 59 42 3f 63 bc 41 3f
       0.48903662 1.0037827 0.75917995 0.7567808
0000c0 5b 54 39 3f fe 80 4c 3f 59 60 4e 3f 23 50 7f 3f
       0.7239434 0.79884326 0.80615765 0.99731654
0000d0 bc 7c 09 3f 2b 41 63 3f e4 df 79 3f 64 45 68 3f
       0.53705955 0.88771313 0.97607255 0.9073088
0000e0 0e ec 7f 3f 7e c4 67 3f 9a b0 66 3f 1e a3 7a 3f
       0.99969566 0.905342 0.9011322 0.9790515
0000f0 e7 25 90 3f 5a 72 82 3f 5a 5e 6d 3f f0 17 81 3f
       1.1261567 1.0191147 0.92722094 1.008543
000100 3b 2b 85 3f 1d 27 87 3f 77 56 7a 3f 5d f4 73 3f
       1.0403818 1.0558811 0.97788185 0.95294744
000110 e5 8c 46 3f 28 f8 5f 3f 61 f9 bf 3f 85 c7 15 3f
       0.7755874 0.8748803 1.4997979 0.5850757
000120 57 34 84 3f 0b 13 12 3f e8 49 01 3f 87 e0 75 3f
       1.0328473 0.5706031 0.50503397 0.96045727
000130 2a d8 1b 40 84 59 63 3f c2 47 a3 3f 46 3f 59 3f
       2.4350686 0.88808465 1.2756274 0.8486217
000140 0c bd 6e 3f 7a 85 5d 3f 89 7f 6f 3f bd 3b 65 3f
       0.9325721 0.86531794 0.9355398 0.8954428
000150 5c e5 c4 3f 6c 3f d3 3e 46 e9 84 3f fd 57 75 3f
       1.5382495 0.41259325 1.0383689 0.95837384
000160 70 a6 63 3f f5 10 5e 3f 8f c9 e3 3f 34 28 57 3f
       0.8892584 0.86744624 1.7795886 0.8404572
000170 d0 ea ec 3f 05 2d 0c 3f 0d 9e 13 3f f4 e3 36 3f
       1.8509159 0.54756194 0.5766304 0.7144158
000180 80 c0 79 3f 0d 2d de 3f c4 ed a8 3f d4 62 80 3f
       0.97559357 1.7357498 1.319756 1.003016
000190 f5 3c 43 3f a9 38 98 3f b4 dc 6b 3f f6 40 81 3f
       0.7626489 1.1892291 0.9213364 1.009795
0001a0 1e ff 01 3f 64 a5 33 3f 96 f8 f5 3e 0c 01 81 3f
       0.507799 0.7017424 0.4804122 1.0078444
0001b0 83 9a 82 3f 8c 31 f9 3e 06 29 54 3f e2 1d 2a 3f
       1.0203403 0.48670614 0.82875097 0.6645185
0001c0 51 47 7f 3f 5a 36 50 3f 42 2b 51 3f 48 7a 84 3f
       0.99718195 0.81332934 0.8170663 1.0349817
0001d0 7e 6c 84 3f 71 72 21 40 a8 47 83 3f 39 df 84 3f
       1.0345609 2.52261 1.0256243 1.0380622
0001e0 99 71 84 3f b1 77 b6 3f c6 67 82 3f 20 bc c3 3f
       1.0347167 1.4255277 1.0187919 1.5291786
0001f0 dd b4 69 3f 94 7e 6b 3f 22 d6 6c 3f 21 d3 25 3f
       0.912916 0.9199002 0.9251424 0.6477528
000200 ad 8f 44 3f 0f cf 8e 3f 86 62 3b 3f 03 24 af 3f
       0.7678173 1.1156939 0.7319721 1.3682865
000210 a2 d3 32 3f d3 15 86 3f 59 bd 7f 3f 52 63 93 3f
       0.69854176 1.047541 0.99898297 1.1514685
000220 59 fb 85 3f 93 ae 10 3f 4e 7b 74 3f 48 d0 6b 3f
       1.046733 0.5651638 0.9550065 0.92114687
000230 80 07 11 3f 28 94 6e 3f eb b4 ef 3e 07 4f 21 3f
       0.5665207 0.9319482 0.46817717 0.6301121
000240 a6 f5 85 3e 0e 61 7c bf e6 c2 9b be 89 5b fc be
       0.26163977 -0.98585594 -0.30422133 -0.49288586
000250 a5 a6 b6 3e 5e c8 21 bc 49 82 a6 3e a5 18 45 be
       0.35674015 -0.009874431 0.32521275 -0.19247682
000260 82 70 5b bf 37 da 85 3e 11 92 6c 3d b5 ee 6e 40
       -0.8571855 0.26143047 0.057756487 3.7333195
000270 4f 12 05 bd 06 00 ce bd c5 12 01 be db 42 77 be
       -0.032488164 -0.10058598 -0.12604816 -0.24146597
000280 f7 a5 10 40 01 70 15 40 b7 df a6 be 25 1f fb bf
       2.2601297 2.3349612 -0.32592556 -1.961888
000290 7f e5 2d 3e b6 6d 48 40 ac 43 ae 40 97 70 d4 3a
       0.16982077 3.1316962 5.4457607 0.0016207871
0002a0 f1 6d 9e 3e 3d 7f 9e 3e 4f 90 52 3e b2 57 cc be
       0.30943254 0.3095645 0.20562862 -0.39910656
0002b0 96 bc d8 3c b7 d5 3c 40 86 3e 3e be 91 c8 4d 40
       0.026457112 2.950544 -0.18578538 3.2153666
0002c0 26 dc 04 c0 d3 f6 1d 40 73 4d 38 be 48 80 12 bf
       -2.0759368 2.46819 -0.17998295 -0.5722699
0002d0 cb 3c 32 3f ae d8 53 40 a5 ff 6e 40 48 29 2f 40
       0.6962401 3.3101 3.7343533 2.7368946
0002e0 c4 04 39 3e c5 5b a0 3b ab 2c 0e 40 67 23 fa 3f
       0.18068224 0.0048937523 2.2214763 1.9542054
0002f0 ef 6f 90 3f b4 59 28 3e e8 73 ef 3c 53 fa 63 3c
       1.128416 0.16440469 0.029230073 0.013914662
000300 a7 d4 9e bc 82 40 a0 bd ee d6 05 3f b6 98 e2 bc
       -0.01938851 -0.07824804 0.5228108 -0.027660709
000310 63 12 1f 3f bb 53 2c 3e e1 bc 97 3c ed 41 b8 bf
       0.6213743 0.16828816 0.018522682 -1.4395119
000320 97 8d 89 3e 89 56 e9 be 6a fb 49 3d 28 46 81 3d
       0.26865837 -0.45573834 0.049312033 0.06312209
000330 f7 31 fb be 88 bb f8 3c 4d 71 c4 bc 55 e0 5c be
       -0.49061558 0.03036286 -0.023979807 -0.21569951
000340 35 03 ca 3e b4 45 f1 bd f7 a8 e5 3d 1f 7b 1f bd
       0.39455572 -0.11780873 0.11213868 -0.038935777
000350 d9 09 22 40 42 7b 3c 3d ea 6b e3 3d 3a da 08 40
       2.531851 0.046015985 0.11104567 2.1383195
000360 33 a8 58 bc ea f4 0f 40 e0 0c b7 3f d2 f8 7d 3c
       -0.013223696 2.2493234 1.4300804 0.015501218
000370 4d 2b 84 bf 9b 2b 28 3d 04 d9 1c be 9c fc ba 3c
       -1.0325714 0.04105721 -0.1531716 0.022825532
000380 9f 7e 19 3f d1 57 d4 3e 64 0b 2a 3f 1e 81 18 3f
       0.59958833 0.4147325 0.6642363 0.5957202
000390 ba fd 52 c0 1b d8 85 3f b6 b6 82 3d b9 b8 f7 be
       -3.2967362 1.0456575 0.063825056 -0.4838312
0003a0 89 fd 72 40 0b bc de bd 14 c4 e3 bf 7e fc 33 be
       3.7967246 -0.1087571 -1.7794213 -0.17576787
0003b0 7f db 89 bf 76 50 8c bf 96 90 d9 bb 21 45 9f 3e
       -1.077011 -1.0962055 -0.0066395504 0.3110743
0003c0 db 0a 8d be 76 3b 0a bf b0 e4 82 be 71 d1 2b be
       -0.27547345 -0.5399698 -0.255651 -0.16779114
0003d0 63 8a 51 bd 97 f7 c1 bd be fb 5b bd f4 08 a8 bd
       -0.051157366 -0.09471052 -0.053706877 -0.08204833
0003e0 93 c7 38 40 e4 ae 45 3d 15 89 c8 3d 00 3a 80 bd
       2.887181 0.04826249 0.09791771 -0.062610626
0003f0 1e ca c9 3a 92 f2 5d 40 10 23 89 bd 78 82 8d 40
       0.0015395319 3.4679303 -0.06696141 4.4221764
