ctpro/Drishti/layers_weights/24_layer.npy (npy, 13952 bytes, 1 tensors)

array f4 [1, 1, 1, 144, 24]
-0.16363169 -0.10627285 -0.013500159 -0.07184539 0.11927311 -0.08728286 0.091859505 0.0025875163
0.0020198582 -0.077937186 -0.116513394 0.06516427 0.04540951 0.0024381184 0.04460229 0.074348316
0.1195769 0.027098648 0.14902592 0.07143505 -0.009429814 0.010099573 -0.06690465 0.19190547
0.021617565 -0.04755927 -0.004647588 0.057253882 0.043962188 -0.053502727 -0.0034564668 0.0088923825
0.05802931 0.08459987 0.09111082 -0.11583267 0.011380435 -0.103363596 -0.0018601425 -0.012923936
-0.080496885 -0.03141514 -0.04733721 0.14305024 0.029874513 -0.0020497243 -0.018092167 -0.0217253
0.049030866 0.026150035 0.09387758 0.058970593 0.059371065 4.0496565e-05 -0.032458097 -0.0022242784
-0.03263849 -0.0196311 -0.09658012 -0.16546582 -0.07980927 0.15733257 0.008775485 0.054756578
-0.074614964 0.03742299 -0.06904246 -0.021820774 0.10374555 0.08628658 -0.16774867 -0.015878353
-0.044018812 -0.12642798 -0.029490992 0.14138179 -0.3808136 -0.052006323 -0.0599075 0.05978932
0.029558754 -0.06590467 0.036633547 -0.120299086 0.2977581 0.19627896 0.027866427 -0.0401388
0.12787145 0.37439305 -0.06596897 0.0011200358 0.05910111 0.071522325 0.115761995 -0.019654606
-0.079817265 0.012608661 0.110431366 -0.032708626 -0.008088755 -0.21952343 0.017934224 0.052636404
-0.016436342 -0.09952964 -0.11066914 0.0035255565 -0.021073107 0.07137826 0.15294284 -0.009706478
0.047868934 -0.005235741 0.109627046 -0.0075086965 0.031016003 0.04256122 0.060720377 0.040803958
0.010953666 0.12865585 -0.011618727 0.12080049 0.037744768 0.040712643 0.0819063 0.14059016
-0.05302131 0.004662665 0.09920646 -0.03586252 0.06504739 0.15218495 -0.028695976 -0.2193263
0.014067233 0.07979776 0.010322923 0.032831967 -0.0067099337 0.112855196 -0.011268415 0.035243355
0.016305946 0.03131944 0.03349398 0.003085198 0.15046963 0.0015898375 -0.0042932257 -0.054994922
-0.008779772 -0.14040932 -0.029877417 -0.15883617 -0.07374893 0.14117596 0.0031802354 0.04081533
0.04348272 -0.15266109 -0.1277313 -0.06921386 0.02470946 -0.10619178 -0.033396784 0.018629404
-0.0034762083 -0.07140663 0.043144807 0.099470176 0.086846486 0.15301646 0.0037442117 -0.043916937
0.027797526 -0.26367575 0.0732479 -0.10534201 -0.04599068 0.11894207 -0.075007476 -0.06076625
-0.009114001 -0.15740968 0.11468261 0.07499441 -0.04151572 0.19895637 0.078731075 0.07774243
0.0035496168 0.0356612 -0.08439103 -0.04620417 0.02250588 -0.058407526 0.07255627 0.08655512
-0.0048373113 0.16662209 -0.031748086 0.20883425 0.0026608554 -0.15530333 -0.023903815 -0.06303758
-0.045548882 -0.016377285 0.019966517 0.1372648 -0.023012381 0.07909038 -0.010365219 -0.02889458
0.032704413 -0.058764003 0.13287777 0.050690893 -0.013452568 -0.23353277 0.018743984 -0.0858302
0.10561575 -0.022580603 -3.227137e-05 0.07782249 0.12052244 0.06207895 -0.25918826 -0.0048256977
-0.11167866 -0.061401483 -0.001538079 -0.07120574 0.0014481574 0.041962605 0.015204768 0.003783488
-0.04277091 -0.043354273 0.19015537 0.056260012 0.15936951 0.0019699992 0.09310444 0.059626065
-0.0062314593 0.03936892 0.022677999 -0.09310913 -0.1637412 0.09114163 0.20150773 -0.09213782
00000000: 118f 27be 94a5 d9bd c52f 5dbc ad23 93bd
00000010: 7645 f43d 5bc1 b2bd d620 bc3d 5293 293b
00000020: 995f 043b 889d 9fbd 939e eebd d874 853d
00000030: 53ff 393d d7c8 1f3b e4b0 363d ee43 983d
00000040: bce4 f43d fcfd dd3c 409a 183e 8a4c 923d
00000050: 827f 1abc ae78 253c 4e05 89bd de82 443e
00000060: 5217 b13c 82cd 42bd cb4a 98bb 0c83 6a3d
00000070: b211 343d ad25 5bbd e485 62bb 5bb1 113c
00000080: 24b0 6d3d b242 ad3d 4f98 ba3d ae39 edbd
00000090: 0175 3a3c 4bb0 d3bd 06d0 f3ba ebbe 53bc
000000a0: 8ddb a4bd 29ad 00bd aae4 41bd c37b 123e
000000b0: 65bb f43c ab54 06bb 0636 94bc 42f9 b1bc
000000c0: 97d4 483d 9938 d63c e342 c03d 268b 713d
000000d0: 132f 733d dbda 2938 c8f2 04bd 33c5 11bb
000000e0: f0af 05bd 67d1 a0bc cccb c5bd df6f 29be
000000f0: 0b73 a3bd ca1b 213e 0dc7 0f3c 6f48 603d
00000100: bbcf 98bd d948 193d 2266 8dbd 7bc1 b2bc
00000110: 8c78 d43d 05b7 b03d 4fc6 2bbe 5213 82bc
00000120: 124d 34bd 5676 01be 1897 f1bc 63c6 103e
00000130: 00fa c2be 9504 55bd 9161 75bd a5e5 743d
00000140: 3325 f23c 07f9 86bd 0f0d 163d 5e5f f6bd
00000150: c073 983e 5afd 483e 2248 e43c 9568 24bd
00000160: bcf0 023e 72b0 bf3e bd1a 87bd 2ace 923a
00000170: 0114 723d 4c7a 923d a014 ed3d b202 a1bc
00000180: 3c77 a3bd 8f94 4e3c d729 e23d 7bf9 05bd
00000190: b386 04bc c0ca 60be cbea 923c 4599 573d
000001a0: 82a5 86bc 32d6 cbbd 81a6 e2bd 060d 673b
000001b0: 82a1 acbc c42e 923d 0c9d 1c3e eb07 1fbc
000001c0: 3712 443d 9490 abbb 2584 e03d 830b f6bb
000001d0: 4615 fe3c ac54 2e3d eeb5 783d 0d22 273d
000001e0: 0177 333c 5cbe 033e 795c 3ebc 3f66 f73d
000001f0: 429a 1a3d 4dc2 263d 7dbe a73d def6 0f3e
00000200: e02c 59bd 45c9 983b c22c cb3d 94e4 12bd
00000210: 9137 853d 5fd6 1b3e d313 ebbc 1397 60be
00000220: 407a 663c 026d a33d 7a21 293c d07a 063d
00000230: 01df dbbb a020 e73d 289f 38bc 565b 103d
00000240: 0c94 853c d048 003d fc30 093d 0931 4a3b
00000250: b614 1a3e 1862 d03a 30ae 8cbb 5b42 61bd
00000260: 08d9 0fbc 76c7 0fbe 7cc1 f4bc f3a5 22be
00000270: ae09 97bd 6e90 103e 7f6b 503b fa2d 273d
00000280: f01a 323d 3053 1cbe fecb 02be ffbf 8dbd
00000290: 7e6b ca3c 137b d9bd 11cb 08bd b19c 983c
000002a0: 19d1 63bb a43d 92bd 9cb8 303d 05b7 cb3d
000002b0: 92dc b13d 59b0 1c3e 7361 753b 3fe2 33bd
000002c0: a3b7 e33c 8200 87be ff02 963d 8dbd d7bd
000002d0: b960 3cbd e697 f33d 859d 99bd 08e6 78bd
000002e0: e452 15bc 0130 21be b7de ea3d ab96 993d
000002f0: 630c 2abd 38bb 4b3e c23d a13d 6c37 9f3d
00000300: b0a0 683b 7a11 123d 34d5 acbd 9540 3dbd
00000310: 405e b83c bb3c 6fbd 6298 943d d043 b13d
00000320: 4f82 9ebb fb9e 2a3e 480a 02bd a5d8 553e
00000330: bf61 2e3b d607 1fbe efd1 c3bc d919 81bd
00000340: 7791 3abd a829 86bc d290 a33c 258f 0c3e
00000350: 7684 bcbc 23fa a13d e1d2 29bc 54b4 ecbc
00000360: 10f5 053d 86b2 70bd 1c11 083e 41a1 4f3d
00000370: 2968 5cbc 3723 6fbe fc8c 993c bec7 afbd
00000380: 124d d83d f5fa b8bc 1f5b 07b8 6661 9f3d
00000390: 78d4 f63d 7f46 7e3d 53b4 84be e320 9ebb
000003a0: c8b7 e4bd 1f80 7bbd 5e99 c9ba 51d4 91bd
000003b0: 19d0 bd3a fbe0 2b3d 6b1d 793c 65f4 773b
000003c0: 8d30 2fbd 4094 31bd 17b8 423e e670 663d
000003d0: c331 233e 1a1b 013b 8aad be3d 763a 743d
000003e0: 4531 ccbb 4e41 213d 36c7 b93c 00b0 bebd
000003f0: c6ab 27be 77a8 ba3d 0b58 4e3e c1b2 bcbd
