ctpro/Drishti/layers_weights/28_layer.npy (npy, 2432 bytes, 1 tensors)

array f4 [4, 144]
0	0x3fa9f62c	1.3278251
1	0x3ff10990	1.8831043
2	0x3fd91700	1.6960144
3	0x40085982	2.1304631
4	0x40695595	3.6458485
5	0x3fae3ab0	1.361166
6	0x3f801312	1.000582
7	0x3fc267fc	1.5187984
8	0x3ff3f8a2	1.9060252
9	0x4036ab8e	2.8542209
10	0x400a723f	2.163223
11	0x3ff7189e	1.9304388
12	0x3fe650b0	1.7993374
13	0x3f8c546d	1.0963265
14	0x3f4a10f3	0.7893211
15	0x3ec608b3	0.38678512
16	0x3f67134d	0.90263826
17	0x3f8f5078	1.1196432
18	0x3f8c928b	1.0982221
19	0x3ed00403	0.4062806
20	0x3fcf3fc1	1.6191331
21	0x3f625be8	0.8842149
22	0x3fade798	1.3586302
23	0x3f795cd3	0.97407264
24	0x405671e2	3.3507009
25	0x3f3574fe	0.7088164
26	0x3f6b9838	0.9202914
27	0x403b1b48	2.92354
28	0x3fa3f732	1.2809813
29	0x3ead95d5	0.33903375
30	0x3f834eea	1.0258458
31	0x40001ecb	2.0018795
32	0x3f76fc8a	0.96479094
33	0x3fc8c78f	1.56859
34	0x3fe1ed00	1.7650452
35	0x3f9d871f	1.2306861
36	0x3f8e6a7d	1.1126248
37	0x40249d87	2.5721147
38	0x3f823dba	1.0175087
39	0x3fdc44fa	1.720855
40	0x3f5db634	0.86606145
41	0x3e90f7d5	0.2831408
42	0x3fbcb310	1.4742146
43	0x4020b86e	2.5112567
44	0x3fbb794f	1.4646395
45	0x3f56d346	0.8391613
46	0x3ffdccfe	1.9828184
47	0x3f9dfc90	1.2342701
48	0x3fe3b056	1.7788188
49	0x3ee6bf36	0.45067757
50	0x40079581	2.1185
51	0x4076dabe	3.857101
52	0x3f5d3e0f	0.8642282
53	0x3f65479a	0.8956238
54	0x3f028373	0.50981826
55	0x3fbe31c7	1.4858941
56	0x3f5db22d	0.866
57	0x3fa669c2	1.3001025
58	0x3fc339c2	1.5252001
59	0x3fcf39d1	1.6189519
60	0x3f87c72b	1.0607656
61	0x3feec783	1.8654636
62	0x3fdf7218	1.7456694
63	0x3fb48e40	1.4105911
64	0x3f955c66	1.1668823
65	0x400d3409	2.206301
66	0x3fa1aef1	1.2631513
67	0x4067dfaf	3.6230276
68	0x3fdb8aae	1.7151697
69	0x3fcf3f2a	1.6191151
70	0x3f93b59d	1.1539799
71	0x3fc342a5	1.5254713
72	0x3f93ad94	1.1537347
73	0x3fdc1bb3	1.7195953
74	0x3f0711c2	0.5276147
75	0x3fe66c5a	1.8001816
76	0x3fc235e3	1.5172695
77	0x3faf15d4	1.3678536
78	0x3f699bf6	0.912536
79	0x3f9ab355	1.2085978
80	0x3f9c3ef1	1.2206708
81	0x3f9133a3	1.1343883
82	0x3fd5cf24	1.6703839
83	0x3f41eab5	0.7574876
84	0x3fa3615a	1.2764084
85	0x3f5d8bc0	0.86541367
86	0x40052d21	2.0808794
87	0x404f65c2	3.2405858
88	0x3f81b562	1.0133479
89	0x3f014dc1	0.5050927
90	0x3fd5dcb4	1.6707978
91	0x3ff3bf0b	1.9042677
92	0x40494b82	3.1452336
93	0x3f6cf298	0.9255767
94	0x4008fad0	2.1403084
95	0x4042e24a	3.0450616
96	0x400d25ea	2.205439
97	0x401ffff0	2.4999962
98	0x3fbf0c4e	1.492563
99	0x3f239b7a	0.63909113
100	0x3f618368	0.88091135
101	0x3fb51cb9	1.414939
102	0x3fcaa8f0	1.5832806
103	0x3f24c41f	0.6436176
104	0x3feb39a8	1.837697
105	0x3fb71fd1	1.4306585
106	0x3fea9000	1.8325195
107	0x3ff14bbe	1.885124
108	0x3fe322b9	1.7744972
109	0x3edb3bd3	0.4281908
110	0x3f86e20d	1.0537735
111	0x3f39a056	0.7251028
112	0x3f3a52ea	0.72782767
113	0x3ff05716	1.8776577
114	0x3e93a31c	0.2883538
115	0x3fc15698	1.5104551
116	0x3ede17a9	0.43377426
117	0x3f41587b	0.75525635
118	0x3ed77a49	0.42085484
119	0x3f70c6b9	0.94053227
120	0x402bee53	2.6864212
121	0x3fc3d61b	1.5299715
122	0x40310a6d	2.7662613
123	0x4018aa6c	2.3854017
124	0x3f80a401	1.005005
125	0x3f821f31	1.0165769
126	0x3ffd575d	1.9792286
127	0x3fe24e52	1.7680151
128	0x3f182cf2	0.5944358
129	0x3f7f376a	0.9969393
130	0x40603af4	3.5035982
131	0x3f79c02f	0.97558874
132	0x3e996863	0.29962453
133	0x400d3018	2.2060604
134	0x400c10aa	2.188517
135	0x401773f0	2.3664513
136	0x4024b105	2.5733044
137	0x3fd4fc07	1.6639413
138	0x3f9ce727	1.2258042
139	0x3fcee116	1.6162441
140	0x3f926666	1.14375
141	0x3f44c0c7	0.76856655
142	0x3f77bb1d	0.9676989
143	0x3f709929	0.93983704
144	0xbf29e703	-0.6636812
145	0x3e0e3734	0.13888246
146	0xbc825c92	-0.015913282
147	0xbe3ee443	-0.18641762
148	0x3ee0a92f	0.43879077
149	0x3e89e506	0.26932544
150	0x3f30dce5	0.6908706
151	0xbf6fca09	-0.93667656
152	0x3e9a2a0f	0.30110213
153	0x405d1039	3.4541152
154	0x3fe09870	1.754652
155	0x3d959d47	0.07305389
156	0xbf5c7efc	-0.8613126
157	0xbfd2094e	-1.640909
158	0xbec4bdd7	-0.38426086
159	0x3f987e35	1.1913515
160	0x3dd8928a	0.10574825
161	0xbe37b818	-0.1794132
162	0x3f4f0e29	0.8088098
163	0x3fe3f16a	1.7808049
164	0xc00af55b	-2.1712253
165	0x3ee50c25	0.44735828
166	0x3e31d885	0.17367752
167	0xbf0fd1a5	-0.5617927
168	0x3f804cf0	1.002348
169	0x3efde6ae	0.49590057
170	0x3f7081a0	0.9394779
171	0x3d850bb5	0.064963736
172	0x3ecc9a11	0.39961293
173	0x3f83c3fe	1.0294187
174	0x3fce3dfa	1.6112664
175	0x3ef087f9	0.4697874
176	0x3f23f3e2	0.6404401
177	0x4016bdc2	2.355332
178	0xbf55c92f	-0.83510107
179	0xbf073a3c	-0.52823234
180	0xbe0e5a59	-0.13901652
181	0x406146e1	3.519951
182	0x3fb34dbb	1.4008096
183	0xbf8e0f02	-1.109833
184	0x3f86376d	1.0485665
185	0x3fb52df4	1.4154649
186	0xbf451b02	-0.76994336
187	0x3f42e6ea	0.76133597
188	0x3f5d7764	0.865103
189	0x3e3c2033	0.18371658
190	0x3d8a2018	0.06744403
191	0xbe873bc7	-0.26412794
192	0xbe3be03d	-0.18347259
193	0x3f62ac83	0.8854448
194	0x401a1644	2.407609
195	0xbf2cab02	-0.6744844
196	0xbc66ce41	-0.014087261
197	0x3e8b9d3f	0.27268407
198	0x40017b04	2.0231333
199	0x3df0507c	0.11734101
200	0x3f59ca35	0.8507417
201	0xbf7223cb	-0.94585866
202	0xbd6304ae	-0.055424385
203	0x3f2f1b22	0.68400776
204	0xbff04182	-1.8769991
205	0xbd51f31e	-0.051257245
206	0x3fb96d38	1.4486456
207	0x3ff576f9	1.9176933
208	0x3faea737	1.364478
209	0x3d131b8f	0.035914954
210	0x3cc9e738	0.024646387
211	0xbf2842c8	-0.657269
212	0x4080bd08	4.023075
213	0x3fbf916f	1.4966258
214	0xbed688cb	-0.4190124
215	0xbf1efaab	-0.6210124
216	0x3e9dc9d4	0.30818045
217	0xbc742ec0	-0.014903724
218	0x40054f56	2.0829673
219	0xbcfb550c	-0.030680202
220	0xbe8f62f9	-0.28005198
221	0xbf5cab11	-0.86198527
222	0x3b33df60	0.0027446374
223	0xbfaaa677	-1.3332051
224	0x3dc08d6f	0.09401976
225	0xbe89b03b	-0.26892266
226	0xbf0263b0	-0.5093336
227	0x3f5078e9	0.81434494
228	0xbfc93bda	-1.572139
229	0x402fcaef	2.746761
230	0x3ebe0321	0.37111762
231	0xbeb0aadf	-0.34505364
232	0xbf790cd6	-0.9728521
233	0x3fbeb1b3	1.489798
234	0xbdafdf09	-0.085874625
235	0xbfdd9808	-1.7312021
236	0x3eb48890	0.3526044
237	0xbea95579	-0.33073023
238	0xbbc5c3b3	-0.006035292
239	0x3eca3951	0.39496854
240	0x3fd223e3	1.6417202
241	0xbfe7588b	-1.8073896
242	0x3f8664c6	1.0499504
243	0x40008a26	2.008432
244	0x3f9b92f9	1.2154227
245	0x3edb2c89	0.42807415
246	0xbf9dce1b	-1.2328523
247	0x400472c8	2.0695057
248	0x3f2d812a	0.67775214
249	0xbee7ce87	-0.45274755
250	0xbf0c4cbb	-0.5480458
251	0x3fb6e1a0	1.4287605
252	0x3da91b49	0.08257157
253	0x3fcea432	1.6143858
254	0x3e322756	0.17397818
255	0x3ff02391	1.8760854
