ctpro/Drishti/layers_weights/2_layer.npy (npy, 640 bytes, 1 tensors)

array f4 [4, 32]
0	0x3f1c8905	0.61146575
1	0x3fc35b7b	1.5262293
2	0x3fd5d12c	1.6704459
3	0x3f30d7df	0.69079393
4	0x3f0d054f	0.55086225
5	0x3f9bd550	1.2174473
6	0x40896362	4.2933817
7	0x3efef215	0.4979407
8	0x3fbc1411	1.4693624
9	0x3f25d143	0.64772433
10	0x40249c1f	2.5720289
11	0x3f79daae	0.97599304
12	0x3f72de36	0.94870317
13	0x3e6aaef7	0.22918306
14	0x3fb609e7	1.4221772
15	0x3f628dbe	0.8849753
16	0x3f858d4e	1.0433748
17	0x3f225a3b	0.6341893
18	0x4033de78	2.8104534
19	0x3e2267a7	0.15859853
20	0x3f26b1a6	0.6511482
21	0x3f17c27c	0.59281135
22	0x3eb1f8ca	0.34760123
23	0x3f783597	0.9695677
24	0x3fad5be8	1.3543673
25	0x3faedea2	1.3661692
26	0x3f7867df	0.97033495
27	0x3fd8e5ec	1.6945167
28	0x3f84dc3c	1.037971
29	0x3f12e748	0.5738416
30	0x4032f4bc	2.7961874
31	0x3e338d25	0.17534311
32	0x4010667b	2.256255
33	0x403afdf7	2.9217508
34	0xbfd4e97b	-1.6633753
35	0xbf9b9a84	-1.215653
36	0x4055382f	3.3315542
37	0x406c447b	3.6916797
38	0xc0c520c4	-6.1602497
39	0xc022bcf8	-2.5427837
40	0x40320433	2.7815063
41	0x400ff25a	2.249167
42	0xc008dfca	-2.138659
43	0xbe98f3d3	-0.29873523
44	0xbe481301	-0.195385
45	0xbfabfcf7	-1.3436574
46	0x402dc453	2.7151077
47	0x403c578d	2.9428437
48	0x3bdff928	0.0068351217
49	0x40267ccd	2.6013672
50	0xc069b384	-3.6515818
51	0xbfa77cb8	-1.3084936
52	0x401bdbce	2.4352908
53	0x4057f4e8	3.374323
54	0x400a91a2	2.1651387
55	0xbed140d1	-0.40869763
56	0x405abd93	3.4178207
57	0x40526e8a	3.2879968
58	0x3e5ae3e6	0.21375999
59	0x40326f43	2.7880409
60	0x3db36b95	0.08760754
61	0x401a04dc	2.4065466
62	0xc04d7c56	-3.2107139
63	0x409862ad	4.7620454
64	0xbca3df70	-0.020004004
65	0x3af19fe5	0.0018434493
66	0xbd16a1a5	-0.03677525
67	0x1d7dbf6b	3.3583232e-21
68	0xbe2fd15a	-0.17169705
69	0x3dba316c	0.09091458
70	0x3d60c346	0.054873727
71	0x1bf7fd09	4.1026242e-22
72	0x3bea428a	0.0071490454
73	0xbc27ce19	-0.010242009
74	0x3d0b9e0e	0.03408628
75	0x9c4f3d02	-6.8569405e-22
76	0x9c83596a	-8.691966e-22
77	0x9bb0d026	-2.925127e-22
78	0xbdae180b	-0.085006796
79	0xbd289f03	-0.04116727
80	0x388f3a7f	6.829667e-05
81	0xba66b1d7	-0.0008800304
82	0x3e82d3d3	0.25552234
83	0x9d535a60	-2.797234e-21
84	0xbcfa94e9	-0.030588584
85	0xbe402c47	-0.1876689
86	0x3a96e354	0.0011511841
87	0xbc64c063	-0.013961884
88	0x3df887f1	0.12135304
89	0x3d2e448a	0.042545833
90	0x3a891c65	0.0010460733
91	0xbab37ec0	-0.0013694391
92	0x1c3555a3	5.999856e-22
93	0xbe72d4d1	-0.23713996
94	0xbd2b0b2c	-0.0417587
95	0x3c98fded	0.018675769
96	0x3de5d94f	0.11223089
97	0x3ddba35e	0.10724519
98	0x3c99067e	0.018679854
99	0x0499b55d	3.6136683e-36
100	0x3f081045	0.53149825
101	0x3f60db23	0.87834376
102	0x3e8ee0f0	0.2790599
103	0x04999bbc	3.6113147e-36
104	0x3d8e4c1d	0.06948111
105	0x3d83c43e	0.064339146
106	0x3e0e86b3	0.13918571
107	0x049997a4	3.6109387e-36
108	0x049981af	3.6089223e-36
109	0x04999565	3.6107324e-36
110	0x3f432f5b	0.76244134
111	0x3e26482c	0.16238469
112	0x34e0d2f4	4.187674e-07
113	0x3d31bdc9	0.043393884
114	0x3f6ca6e7	0.9244217
115	0x0499b8a0	3.613968e-36
116	0x3ca55ba6	0.020185303
117	0x3f26ae33	0.65109557
118	0x3c1c8cdf	0.009555071
119	0x3cff287a	0.03114723
120	0x3fab943c	1.3404613
121	0x3e685364	0.22688061
122	0x3808ff22	3.2662538e-05
123	0x3de3b44f	0.111183755
124	0x049969f3	3.6067426e-36
125	0x3f0b34a6	0.5437721
126	0x3e073d4c	0.13206977
127	0x3c95eba3	0.018300837
