ctpro/Drishti/layers_weights/31_layer.npy (npy, 5312 bytes, 1 tensors)

array f4 [1, 3, 3, 144, 1]
0.86513376 -0.48589304 -0.75459397 -0.59270006 -0.93800914 -0.76925355 0.8373172 0.5925027
-0.57973224 -0.6862079 -0.6647875 -0.87567544 0.8065159 0.7511165 0.72055787 -0.84962094
0.54090405 0.9069313 -0.6476443 -0.55667603 0.7735116 0.80240923 0.6449419 0.69948125
-0.83520496 -1.1150703 0.7093493 -0.6528941 0.5851621 1.0943806 1.221573 -0.5464392
-1.2024741 -1.2031407 0.69889057 0.8934321 0.95781213 -0.75252295 1.4160395 -0.6780558
0.62177557 -1.1061009 0.7008614 -0.48281392 0.7937493 0.773537 -0.66934335 0.988291
0.8342113 1.012429 -0.5641933 -0.48898837 0.734899 0.9477072 0.82274646 -0.83631194
1.0269402 0.9310852 -0.579062 -0.9350265 0.80089384 -0.77632344 -0.5925928 1.0412074
1.0298924 -0.5958686 0.7629043 -1.288677 -0.6488012 -0.77302945 0.8871155 0.7199302
0.8236303 -0.7853364 -0.50894326 -0.668002 -0.6813003 -0.6117172 0.5949478 0.75855654
0.5999664 -0.85069674 -0.7437653 -1.158744 0.7017845 -0.9562839 -0.5979469 -0.6638258
-0.62355375 -0.951988 -0.6744361 0.48664328 -0.6459115 0.79488295 -0.5593751 -0.6923896
-0.71786135 0.6566054 -0.5558298 0.83815706 0.83305174 0.7562664 -0.66155237 -1.4329941
0.7055035 -0.77149194 -0.74756724 -0.7953274 -0.6927958 0.36200345 0.5325329 -1.2178146
-1.2699592 0.84693795 0.56225574 -0.4666491 -1.2639796 0.7494544 -0.89374954 0.78670883
-0.657923 0.65930814 -0.5958532 1.5198615 1.0269336 -1.2178051 -0.6443714 0.63768226
0.44860387 0.8279148 -0.8234223 1.2750165 -1.0985439 -0.8251946 -0.6430699 -0.7074623
0.632738 0.6053353 0.8402271 0.5841739 0.8085045 0.40852106 -1.0285091 0.39957038
1.2564918 -0.9305748 -1.0766186 -0.85606164 -1.021813 -1.2026427 1.140382 1.1988987
-0.8823101 -1.0401418 -0.99291563 -0.96436346 1.1916453 1.0999737 1.1447302 0.854759
0.81357044 1.3310311 -1.0732378 1.3448569 1.0613232 1.1430529 1.0504708 1.1863081
-1.0631888 0.41946393 -0.6487817 -0.9335414 1.0454321 0.016778158 1.497348 -0.85137385
-1.61601 -0.99767417 0.99502003 1.2032913 1.4351017 -1.0698767 0.12940188 -0.95973665
-0.9244942 -1.4365984 1.1706859 -1.1436216 1.1319455 1.2958734 -0.96786416 1.4092605
1.1786962 1.1222085 -0.80054516 -1.3165919 1.1131154 1.3920321 1.0365611 1.0652331
1.2168527 1.1692467 -0.91709745 -1.2385011 0.8910479 -1.0346038 -0.78248346 -0.547673
-0.31376266 -0.8817116 1.0880045 -1.0724962 -1.0324708 -1.2666494 1.0302773 1.1134958
1.2880359 -0.96353096 -0.99037886 -0.9921624 -0.9671414 -0.8515246 0.8292914 0.9776466
1.0159339 -1.3261414 -1.066172 -1.3901501 1.0631144 -1.0531076 -0.94890314 -1.0826169
-0.9630345 -0.18132882 -0.88021255 0.79807657 -0.85177505 1.2373914 -0.98449904 -1.0131338
-1.1068292 1.0234914 -0.7947858 1.2530673 1.181211 1.145822 -0.8606453 -1.276474
1.1069496 -1.0325286 -1.0573955 -0.92212105 -1.0283101 -1.0412512 1.1391494 -1.0283035
00000000: 6879 5d3f f9c6 f8be 122d 41bf 31bb 17bf
00000010: 5e21 70bf cded 44bf 6c5a 563f 42ae 173f
00000020: 5569 14bf 52ab 2fbf 832f 2abf 442c 60bf
00000030: d377 4e3f 2c49 403f 7b76 383f c280 59bf
00000040: b078 0a3f a62c 683f 04cc 25bf 5282 0ebf
00000050: db04 463f b16a 4d3f ea1a 253f 3411 333f
00000060: fecf 55bf a0ba 8ebf ea97 353f 1124 27bf
00000070: 2fcd 153f aa14 8c3f 815c 9c3f 70e3 0bbf
00000080: acea 99bf 8400 9abf 7eea 323f f7b7 643f
00000090: 2d33 753f 58a5 40bf c840 b53f 1195 2dbf
000000a0: af2c 1f3f b794 8dbf a76b 333f 6333 f7be
000000b0: 2733 4b3f 8506 463f 165a 2bbf a400 7d3f
000000c0: df8e 553f 4697 813f f96e 10bf af5c fabe
000000d0: 5722 3c3f f09c 723f 839f 523f 8a18 56bf
000000e0: c772 833f 9a5b 6e3f 683d 14bf e65d 6fbf
000000f0: 6107 4d3f 22bd 46bf 29b4 17bf 4946 853f
00000100: 84d3 833f d88a 18bf b24d 433f 5ef3 a4bf
00000110: d617 26bf 42e5 45bf 001a 633f 584d 383f
00000120: 6fd9 523f ce0b 49bf 1b4a 02bf 2e02 2bbf
00000130: b269 2ebf 8099 1cbf 804e 183f c330 423f
00000140: 6697 193f 43c7 59bf 6767 3ebf b951 94bf
00000150: 26a8 333f 06cf 74bf 0c13 19bf 7df0 29bf
00000160: 38a1 1fbf 7cb5 73bf d8a7 2cbf 4f29 f93e
00000170: 755a 25bf 737d 4b3f 3533 0fbf 7240 31bf
00000180: c3c5 37bf 4b17 283f dd4a 0ebf 7691 563f
00000190: e142 553f ad9a 413f 7f5b 29bf 5a6c b7bf
000001a0: e19b 343f 7f80 45bf 9160 3fbf 949a 4bbf
000001b0: 115b 31bf 8458 b93e 1354 083f 59e1 9bbf
000001c0: 068e a2bf edd0 583f feef 0f3f a1ec eebe
000001d0: 15ca a1bf 3edc 3f3f c5cc 64bf c065 493f
000001e0: a46d 28bf 6bc8 283f d689 18bf d28a c23f
000001f0: 8f72 833f 0ae1 9bbf 86f5 24bf 253f 233f
00000200: 68af e53e 39f2 533f cecb 52bf be33 a33f
00000210: 169d 8cbf f43f 53bf 3ba0 24bf 401c 35bf
00000220: 1efb 213f 41f7 1a3f 2019 573f 6c8c 153f
00000230: 27fa 4e3f ac29 d13e 30a6 83bf 7d94 cc3e
00000240: b9d4 a03f 263a 6ebf a3ce 89bf db26 5bbf
00000250: c5ca 82bf 32f0 99bf 0af8 913f 8375 993f
00000260: 13df 61bf 5e23 85bf b82f 7ebf 86e0 76bf
00000270: d587 983f f0cb 8c3f 8586 923f 7cd1 5a3f
00000280: 2746 503f 3a5f aa3f db5f 89bf 4524 ac3f
00000290: 70d9 873f 8f4f 923f d475 863f f2d8 973f
000002a0: 9216 88bf fac3 d63e 8f16 26bf 92fc 6ebf
000002b0: b8d0 853f 5972 893c 19a9 bf3f a3f3 59bf
000002c0: 6ad9 cebf 9367 7fbf a2b9 7e3f 7305 9a3f
000002d0: 6ab1 b73f b8f1 88bf ed81 043e 4db1 75bf
000002e0: a7ab 6cbf 75e2 b7bf 09d9 953f 3162 92bf
000002f0: 97e3 903f 2edf a53f f2c5 77bf a662 b43f
00000300: 84df 963f 87a4 8f3f 87f0 4cbf 1586 a8bf
00000310: 917a 8e3f 1c2e b23f 09ae 843f 8f59 883f
00000320: d4c1 9b3f e0a9 953f e6c6 6abf 3487 9ebf
00000330: b71b 643f e66d 84bf d650 48bf 4c34 0cbf
00000340: 80a5 a0be dab7 61bf bb43 8b3f 8e47 89bf
00000350: 0128 84bf 9121 a2bf 20e0 833f 0887 8e3f
00000360: 5cde a43f f7a9 76bf 7889 7dbf 5bfe 7dbf
00000370: 9496 77bf 84fd 59bf 714c 543f 0c47 7a3f
00000380: 1f0a 823f 00bf a9bf 5378 88bf 70f0 b1bf
00000390: 2214 883f 3bcc 86bf 51eb 72bf 3193 8abf
000003a0: 6e89 76bf 43ae 39be 9c55 61bf bf4e 4c3f
000003b0: ee0d 5abf d762 9e3f 2108 7cbf 5eae 81bf
000003c0: 94ac 8dbf c401 833f 1577 4bbf 8264 a03f
000003d0: ec31 973f 4caa 923f 4053 5cbf 8063 a3bf
000003e0: 86b0 8d3f e629 84bf bc58 87bf 2010 6cbf
000003f0: aa9f 83bf b847 85bf a6cf 913f 739f 83bf
