ctpro/Drishti/layers_weights/42_layer.npy (npy, 24704 bytes, 1 tensors)

array f4 [1, 1, 1, 192, 32]
00000000: 0f53 013d 3cd5 c6bb 61bf 973c 6705 fb3c
00000010: 78e8 acbd c4e1 57bd 3504 5e3d ce2c 3d3c
00000020: 3eaf 50bd eb35 42bb e06b c53d 5074 ebbc
00000030: 972c c1bd 1160 493d 6cd2 073d 4fd6 573c
00000040: 7d3b 273c 1413 59bd c41e 33bc fde9 533c
00000050: 714a a6bc 37e2 b7bb fe11 0bbc 44e7 103c
00000060: 6c52 86bd d641 b6bd 801e 18bd b9d4 2e3c
00000070: df6e a3bd 8216 8e3c 9723 90bc 2d3e 7fbd
00000080: b921 72bd dd06 ccbc 23b6 533c b36e 723c
00000090: d559 32bd 0c66 65bd 546a fa3c a461 6bbd
000000a0: 46a2 d63c d79a babc f982 803d aeab 073d
000000b0: c502 e9bc 21dd d03c 9b5e 833c 7d35 423d
000000c0: 03a9 09be 04a8 453d bf71 4d3d b135 983d
000000d0: 226c 89bd f07c 503d ca40 563d def2 8fbc
000000e0: 8898 a0bd 3ac7 febd 762f 47bd 14d4 8bbc
000000f0: 53b8 443d 0fb1 3bbd fd03 eb3d 2f81 a33c
00000100: caa2 2d3d 8d46 aabb 9296 823d 6c81 93bb
00000110: d45b d53c 4bab be3a 0f03 54bd 3b40 c53d
00000120: 21aa f73d 9819 7ebd e532 debc b89b be3c
00000130: 50ab a3bc 51dc 293c e6c1 bb3a 8f24 983d
00000140: 76f1 bdbd 7ce5 73bc cba5 dfbc 85a4 80bc
00000150: bd75 77bd 4ade f93d d693 8f3c 6420 49bc
00000160: 3c40 c13c b103 77bd 7099 28bc 8557 04bd
00000170: 24ba 8d3d 6a24 823d 591d f6bd d3d3 793d
00000180: d551 4fbd fa48 a63c 0a8a b43d 3694 4ebc
00000190: f81c 6cbe 4c64 b1bd 4609 973b 434a 68bb
000001a0: 4056 6b3d 2c5f 26bd 7418 44bc 2eea 413c
000001b0: d9ba 4cbd 8b60 c93b 2d92 1a3c 97ab 59bd
000001c0: 6365 f63d 30b2 40bd abed 4e3d de8e d63a
000001d0: 13c2 b4bd 2693 e73d 20b6 adbc c4e9 8dbd
000001e0: 8495 4e3d 166b 5b3d 2240 563d 174b 603d
000001f0: a95d 4bbe 6952 d83c 5116 113d 1c63 7f3d
00000200: f339 1f3c da18 7b3d 81bc 6e3d c65e 193c
00000210: 92cd babc 23f3 84bd 406b ab3d ff99 5abd
00000220: e663 febc c7e2 c03d 0518 5b3c e33b 9a3d
00000230: bf76 b63c 72a8 1dbe 4753 883c d4b4 43bd
00000240: dae9 673c 9691 b13d 07ec 8e3b d2b7 803d
00000250: adb9 2abc a9c4 4dba 6b21 d9bd 0cd4 b6bc
00000260: 3571 7e3d a3ee 08bd 59f6 febc 60d6 a43b
00000270: b33c f2bb 736a cfbc a7e8 153d 3c40 32bd
00000280: 5955 38ba 773a 94bd 96d3 44bb 7673 bebd
00000290: 666e 523d e71d 263d ecfd a0bd 5417 85bd
000002a0: 29e0 99bc 325d ccbc fdf8 59bd e0f3 223d
000002b0: 2e16 263c 56d5 93bd f26b bbbb 82e0 d43c
000002c0: f1a4 eabc 24bf 6cbd 248c 9d3c 8d78 8b3d
000002d0: 9546 ee3c 021e d83d eca7 0ebd 1cf4 0dbd
000002e0: 7798 663c 7831 333c 4314 7738 78d1 08bc
000002f0: f750 34bd 80d0 3a3d 010e 663d 1f44 903c
00000300: 9a86 e7bb d43d febc 061f e8bd 3ecf 47bd
00000310: ba83 49be aa84 3a3c 03fe d13a 9772 48bd
00000320: 3146 833d 778b 78bd 3d1d a2bc 7c97 d9bd
00000330: 67a9 c1bc d29a 353d 3a07 4fbd ce08 703c
00000340: 4eda ef3c 1e7c 9cbd b654 443d baf6 ec3d
00000350: 607c 2c3c 659b 9fbc 4a2c a43d 0ac7 55bc
00000360: 07be 5c3b de77 8e3d 8980 bd3c 80db 93bc
00000370: b141 48be 47e9 3fbc 4caa 113c f640 903d
00000380: babe a6bc fcd9 f5bd ab2d 26bd f094 263d
00000390: b7ba 7d3b 97ed 18be d4de bd3d 5106 abbc
000003a0: be7f a13d ff33 f5bc 2009 24bd 9436 0b3d
000003b0: 7b29 37bd 1f41 08bc b955 d7bd 18ee 6dbc
000003c0: dcf2 35bb 1c03 1abd 8612 5e3e 30ae a8bd
000003d0: ed6f e03d c6d0 6abd 9cb8 3f3d 3a5f dfbd
000003e0: ed46 70bd cd4a e63b 289b 7a3d 00f3 d5bc
000003f0: bad8 b3bc f5ad ff3d 2697 b6bc 136b f6bb
0.03157335 -0.0060679 0.018523874 0.030642224 -0.084427774 -0.05270554 0.05420323 0.011546327
-0.050948374 -0.0029634188 0.09639716 -0.028741986 -0.09432333 0.04916388 0.03315966 0.013173654
0.010207054 -0.05299671 -0.010932628 0.012934205 -0.020299168 -0.0056116837 -0.008488176 0.0088442005
-0.065586895 -0.08899276 -0.037138462 0.010670834 -0.07980131 0.017344717 -0.017595096 -0.062315155
-0.05911419 -0.024905616 0.012921843 0.014796901 -0.0435427 -0.056005523 0.03056828 -0.057466164
0.026200425 -0.022778912 0.06274981 0.03312271 -0.028443703 0.025496067 0.016036322 0.04741429
-0.13443379 0.048255935 0.050157305 0.07432116 -0.06710078 0.0509004 0.05230788 -0.017571863
-0.07841593 -0.12440343 -0.048629247 -0.0170689 0.048027348 -0.045823153 0.1147537 0.01995906
0.042391576 -0.0051963986 0.06376375 -0.0045015123 0.026044764 0.0014546899 -0.05176073 0.096313916
0.120929964 -0.062036127 -0.027123878 0.023267612 -0.01997915 0.010367469 0.0014324754 0.07428848
-0.09274571 -0.014886256 -0.027300736 -0.015703449 -0.06041502 0.122006014 0.017526548 -0.012275789
0.0235902 -0.060306255 -0.010290489 -0.032310028 0.06920269 0.06354602 -0.12017316 0.060993027
-0.05061515 0.02029847 0.08815391 -0.012608578 -0.23057926 -0.08661708 0.00460926 -0.0035444654
0.0574553 -0.040618107 -0.011968721 0.011835618 -0.04998288 0.006145542 0.009434265 -0.053142156
0.12031057 -0.047044933 0.050519627 0.0016369482 -0.08826079 0.11307363 -0.021205008 -0.06929353
0.050435558 0.053568922 0.052307256 0.05475911 -0.19859947 0.026406484 0.035421673 0.062350377
0.009718406 0.061302997 0.05828524 0.009360975 -0.022803102 -0.06491687 0.08370066 -0.05336952
-0.031053495 0.09418254 0.013372426 0.07530954 0.02227342 -0.15396288 0.016641272 -0.047779873
0.014154876 0.086703464 0.0043616327 0.06285061 -0.010420245 -0.0007849434 -0.10602077 -0.022317909
0.06211968 -0.033430707 -0.031123327 0.0050304383 -0.00739249 -0.025319314 0.036598828 -0.04351829
-0.0007031761 -0.07237714 -0.0030033342 -0.09299366 0.051374815 0.04055586 -0.07860932 -0.0649859
-0.018783646 -0.024946783 -0.05321597 0.03978336 0.010137124 -0.07218425 -0.005719655 0.02598596
-0.028643103 -0.057799473 0.019231863 0.068101026 0.02908639 0.105525985 -0.03482811 -0.03465663
0.014074436 0.010937087 5.890826e-05 -0.0083507225 -0.044022527 0.045608997 0.0561657 0.017610608
-0.0070656063 -0.031035341 -0.11334042 -0.048781626 -0.19679156 0.011384169 0.0016021136 -0.048937406
0.06409872 -0.06067988 -0.019789333 -0.106245965 -0.023640348 0.0443371 -0.050544 0.014650537
0.0292789 -0.07640861 0.04793235 0.11570497 0.0105277 -0.019483278 0.0801626 -0.013047943
0.00336826 0.069564566 0.02313258 -0.018049002 -0.1955631 -0.0117133325 0.0088907 0.0704364
-0.020354617 -0.12004468 -0.040570896 0.04066938 0.0038716027 -0.14934383 0.09271017 -0.020877035
0.07885693 -0.02993202 -0.040047765 0.033987597 -0.044717293 -0.008316307 -0.10514397 -0.014522098
-0.0027763164 -0.03760062 0.21686754 -0.08236349 0.10958848 -0.057328008 0.046806917 -0.10906835
-0.05866139 0.00702796 0.061183125 -0.026116848 -0.02195393 0.124843515 -0.02228887 -0.0075200885
