ctpro/Drishti/layers_weights/48_layer.npy (npy, 7040 bytes, 1 tensors)

array f4 [1, 3, 3, 192, 1]
0	0x3f0e2dba	0.55538523
1	0xbf1ffe53	-0.6249744
2	0x3f9e2026	1.2353561
3	0x3f008866	0.5020813
4	0x3cacd84b	0.02109923
5	0xbecf15b3	-0.40446243
6	0xbc6a5c2a	-0.0143042
7	0x3a638809	0.00086796336
8	0x3c74b45c	0.014935579
9	0x3f5a168f	0.8519067
10	0x3c9e1c16	0.019300502
11	0x3e6819ba	0.22666064
12	0x3ba62038	0.0050697587
13	0xbeb88999	-0.3604248
14	0x3e99e296	0.30055684
15	0xbde07af4	-0.109609514
16	0x3e24084f	0.16018794
17	0xbf10da79	-0.5658336
18	0xbcff6645	-0.031176696
19	0x3e801d37	0.2502229
20	0x3eed612d	0.46363202
21	0xbdfb2f20	-0.12264848
22	0x3ef8ca92	0.4859205
23	0x3ebab89b	0.36468968
24	0xbf0fdc20	-0.5619526
25	0xbf56595d	-0.8373011
26	0x3f091929	0.53554016
27	0x3f5d02f7	0.8633265
28	0xbdb1753d	-0.086649396
29	0x3ed8248c	0.42215383
30	0x3f8acaea	1.0843174
31	0x3e9719e5	0.29511943
32	0xbe26b8f9	-0.16281499
33	0xbf0a25f8	-0.53964186
34	0x3e90a9a9	0.2825444
35	0x3cb91824	0.022594519
36	0x3e644f41	0.22295858
37	0x3f043e49	0.5165754
38	0xbf160be8	-0.5861192
39	0x3bcaaa28	0.006184835
40	0x3f2ca8ec	0.67445254
41	0x3e9e8adc	0.30965316
42	0x3eed759f	0.463788
43	0xbf16dbfd	-0.58929425
44	0xbe814ab1	-0.25252298
45	0xb9caf62a	-0.0003871185
46	0x3ea9b183	0.33143243
47	0x3cdf22af	0.027238218
48	0x3ee8ef30	0.45494986
49	0x3f239fa5	0.63915473
50	0xbe8921e0	-0.26783657
51	0x3f235e23	0.63815516
52	0x3efab627	0.48967096
53	0x3cdf9fb4	0.027297832
54	0xbc41714c	-0.011806797
55	0xbf42087d	-0.757942
56	0x3f4ed686	0.80796087
57	0xbead9f17	-0.33910438
58	0x3eefc78b	0.46831927
59	0xbf9b47d6	-1.2131298
60	0x3ed53c27	0.41647455
61	0x3e8a6296	0.2702834
62	0x3dce94a0	0.10086942
63	0xbe8a1ea7	-0.2697651
64	0x3dbe7cee	0.09301172
65	0x3ec26b4d	0.3797249
66	0xbdec924a	-0.1155134
67	0xbf1e3afb	-0.6180875
68	0x3f04887b	0.5177075
69	0x3c25f801	0.0101299295
70	0xbf3d395c	-0.7391565
71	0xbec59224	-0.3858806
72	0xbf9b0342	-1.2110369
73	0x3c833a75	0.016019085
74	0xbe440a04	-0.19144446
75	0x3d516a4d	0.051126767
76	0xbf88b19a	-1.06792
77	0xbf03bb17	-0.5145735
78	0x3d8d4fdf	0.069
79	0x3e6e0346	0.23243436
80	0xbe99f91c	-0.30072868
81	0xbf4e28b0	-0.80530834
82	0x3fa5b9d5	1.2947336
83	0x3dde0514	0.10840812
84	0xbed930cb	-0.4242004
85	0xbebbf2ad	-0.36708584
86	0x3e322386	0.17396364
87	0xbebadbeb	-0.3649591
88	0xbf1f09a6	-0.621241
89	0x3e0de427	0.13856564
90	0x3ee28432	0.44241482
91	0xbd7d4379	-0.061831925
92	0x3f34294d	0.7037552
93	0x3f134e76	0.57541597
94	0xbebf4e06	-0.37364215
95	0x3ebde7f1	0.3709102
96	0x3ec19908	0.37812066
97	0x3e52f624	0.20601708
98	0xbf9a2a5f	-1.2044181
99	0xbda79d6f	-0.08184325
100	0x40053c69	2.0818121
101	0x3e5bbc68	0.2145859
102	0x3e1927da	0.14956608
103	0x3dd6d4b0	0.10489786
104	0xbf3a1c19	-0.72699124
105	0x3dccbb35	0.099966444
106	0x3d588443	0.05286051
107	0xbe104d7a	-0.14092055
108	0xbee960c3	-0.45581636
109	0xbf3ba3fc	-0.73297095
110	0xbee96e29	-0.45591858
111	0x3ea29ba6	0.31759375
112	0x3f5300d5	0.82423145
113	0x3ed9669e	0.42461103
114	0xbe164b9c	-0.1467728
115	0x3f205f88	0.6264577
116	0x3e10e99b	0.14151613
117	0xbe3101fb	-0.17285912
118	0xbeb5c6b6	-0.35503167
119	0x3f35d78b	0.7103202
120	0x3e9e80ab	0.3095754
121	0xbec969bd	-0.39338484
122	0xbe92295d	-0.28547183
123	0xbee5077b	-0.4473227
124	0x3fe70e6b	1.8051275
125	0xbe5760e0	-0.21033049
126	0xbd021a58	-0.031763405
127	0x3f07824e	0.52933204
128	0x3eef2e4e	0.46715015
129	0xbd8e2bb8	-0.069419324
130	0xbf0d4ee7	-0.5519852
131	0xbe689c0a	-0.22715774
132	0x3efd16ba	0.49431401
133	0x3c78025e	0.015137283
134	0x3fa21b71	1.2664624
135	0x3f6feb8e	0.937188
136	0x3f023e6f	0.50876516
137	0x3e8f877c	0.28033054
138	0xbbfbe383	-0.0076870336
139	0x3f2f31df	0.6843547
140	0xbedb41ac	-0.4282354
141	0xbd35ffb7	-0.04443332
142	0xbf7972be	-0.9744071
143	0xbecd36b5	-0.400808
144	0xbee8f4de	-0.4549932
145	0x3f06722d	0.5251797
146	0xbe545100	-0.20734024
147	0x3c7e562e	0.0155234765
148	0xbf83a469	-1.0284549
149	0xbf5eefae	-0.8708447
150	0x3f538bd6	0.8263525
151	0x3e8b9ec0	0.27269554
152	0xbdf959cc	-0.121753305
153	0xbf179ec3	-0.59226626
154	0x3f1776c2	0.59165585
155	0xbce5b75b	-0.028041532
156	0x3e184701	0.14870836
157	0xbd3ddfc9	-0.046355996
158	0xbdf7a54c	-0.12092075
159	0x3d946ac3	0.07246926
160	0xbf4fa240	-0.8110695
161	0x3e672b62	0.22575143
162	0xbc2ed456	-0.010670742
163	0x3db930bd	0.09042499
164	0xbe96c111	-0.29444173
165	0x3ef1621f	0.47145173
166	0x3e59f579	0.21285047
167	0x3e8a069d	0.2695817
168	0xbd65f517	-0.05614194
169	0xbd88a5a5	-0.06672219
170	0x3f107882	0.5643388
171	0xbc8efd62	-0.017454807
172	0x3ba7537b	0.005106387
173	0xbf7d4e55	-0.9894765
174	0x3eb38f75	0.35070387
175	0x3ee566d6	0.4480502
176	0xbf022fa5	-0.5085395
177	0x3ec250a7	0.37952158
178	0xbf8ec131	-1.1152707
179	0xbf09a596	-0.5376829
180	0x3e811567	0.2521164
181	0xbe285b4c	-0.16441077
182	0xbf0c7c66	-0.54877317
183	0x3ee9decd	0.45677796
184	0x3e63e7a1	0.22256328
185	0xbf745a52	-0.9545032
186	0xbe02f5fe	-0.12789151
187	0xbe2b8adf	-0.16752194
188	0x3e24f878	0.16110408
189	0xbd96cf81	-0.07363797
190	0x3ecd15d0	0.40055704
191	0xbef9b424	-0.4877025
192	0x3fa549d7	1.2913159
193	0xbed933b2	-0.42422253
194	0x3f759b6e	0.9594029
195	0x3f7708a8	0.96497583
196	0xbe257b1b	-0.16160242
197	0xbebe6f88	-0.37194467
198	0xbf12622e	-0.5718106
199	0xbfb456b2	-1.4088957
200	0x3e906e50	0.28209162
201	0x3f9b5fde	1.2138631
202	0x3f2f4a60	0.6847286
203	0x3e1f74a6	0.15571842
204	0x3ee24396	0.4419219
205	0xbf8d03c0	-1.101677
206	0x400388b7	2.0552194
207	0xbfc53314	-1.5406213
208	0x3eb7a5bc	0.35868633
209	0xbef73ffc	-0.48291004
210	0x3f3a03b7	0.7266192
211	0xbe5e08f3	-0.21683101
212	0x3f64933d	0.8928717
213	0x3f0d79aa	0.5526377
214	0x3f5cc65f	0.8624019
215	0x3f69e418	0.9136367
216	0xbeea9edd	-0.45824328
217	0xbe40ffe4	-0.18847615
218	0xbe21af39	-0.15789498
219	0xbf0a5bf8	-0.54046583
220	0xc007a5c9	-2.1194937
221	0x3e662391	0.22474505
222	0xbea384fc	-0.31937397
223	0x3f97a21c	1.1846347
224	0x3f2a5b31	0.665454
225	0xbe938bbf	-0.28817555
226	0xbf7f2683	-0.9966814
227	0x3fa93791	1.3220083
228	0xbebbc5b6	-0.3667428
229	0x3efb4c65	0.49081722
230	0xbeb3fb88	-0.3515284
231	0xbf8f515e	-1.1196706
232	0x3f91d2e4	1.1392484
233	0x3e8af40e	0.27139324
234	0xbf60ed9c	-0.87862563
235	0xbffc6a03	-1.9719852
236	0xbe5a74d8	-0.21333635
237	0x3fc082af	1.5039881
238	0x3f82f83f	1.0232009
239	0xbf80488f	-1.0022143
240	0x3f197bea	0.599547
241	0x3fe3bd39	1.7792121
242	0xbfa024b1	-1.2511197
243	0x3f9162c1	1.1358262
244	0x3fd6f826	1.6794479
245	0x3f07dcc7	0.53071254
246	0x3f8f4030	1.1191463
247	0xbe8df40b	-0.27725253
248	0x3db158c4	0.08659509
249	0xbe898484	-0.26858914
250	0x3de12623	0.10993602
251	0x3ee21e1f	0.44163606
252	0x3f5adadb	0.85490197
253	0x3fa1c614	1.2638574
254	0x3e4d04c9	0.20021357
255	0x3f66ddef	0.90182394
