ctpro/Drishti/layers_weights/49_layer.npy (npy, 3200 bytes, 1 tensors)

array f4 [4, 192]
0.6593359 0.94277215 1.12823 1.158873 1.9928021 0.8324082 1.4826562 1.0893582
1.0262997 1.0788409 0.47209895 1.2025805 0.96751815 1.6310565 1.1916502 1.5845107
0.79366374 1.9043063 1.5684067 1.310818 1.4566202 0.6290796 1.935623 2.1572576
0.7225754 1.8367803 1.3001038 1.4554273 0.6892216 0.7212244 1.8700984 1.1882206
0.7579816 2.59046 0.82837164 1.1391336 0.80641335 0.95224094 2.3673878 1.5900053
1.3187343 1.2381684 0.8042305 0.79801327 1.7690463 1.251232 1.2277243 1.2053078
0.49388912 1.2280475 1.2437814 1.1080654 1.096089 1.1209593 0.9853621 1.0138968
1.2851512 2.1289752 1.3969167 1.1137677 1.2351108 2.0845916 0.94455045 1.1942008
0.8132078 0.7174448 1.384973 1.4208354 2.319276 1.3298086 1.1827114 1.1058801
1.0819948 0.7077093 1.575453 0.89509106 1.2456768 0.5053873 0.96532243 1.0967015
2.0162473 0.6162608 1.103118 0.77381814 0.9186186 2.054539 1.3829862 1.9402106
1.0684973 1.1434364 1.3940086 1.2505369 0.9487415 1.4741299 1.223841 1.3161623
1.6620905 1.0940063 2.3450193 0.74872327 0.66360044 0.7300323 0.7399067 0.69759285
1.8853412 0.91170776 0.75478745 1.159867 1.819235 1.7193094 1.8693647 1.5563742
1.2020327 1.1534119 0.9989714 0.42907512 1.4834509 0.9531266 1.0618674 0.66838545
0.7544138 1.2557977 2.530861 1.9186358 0.678189 2.5123005 1.8578081 1.0265212
1.6445796 1.0837162 1.0656459 1.23865 2.148338 0.79819393 1.1338211 0.99684334
1.1770736 0.7648558 0.9648195 1.0370656 1.9210967 1.4231558 1.2492523 1.069717
0.79761505 1.2770772 1.0212162 1.1570413 0.89877456 1.0013722 1.3063742 0.95801103
0.8756332 0.8789038 1.4892682 1.90021 0.79367703 0.9403277 1.1238574 1.4372973
1.4441516 1.3084002 1.7430313 1.8285925 1.3478818 1.4698731 0.62599087 0.98708373
1.019515 2.0303633 1.191641 1.0836707 1.6930963 1.4108489 0.7916115 0.55907875
0.623859 1.4813449 1.0813985 1.2664006 1.0221556 1.0502886 1.5848238 1.2697296
1.3628516 1.117415 1.0564476 1.3472923 2.0710037 0.9255775 1.3346604 0.99148244
-0.33997265 -0.04080184 -1.2087996 -0.045027334 -1.9306606 -0.14688411 0.48099425 -0.1867058
-2.05221 -0.26461184 0.15332523 -2.0772054 -1.0066221 -0.9042929 0.5708943 -1.597813
-0.1789948 -0.9145614 -0.718837 -0.32002485 -0.56426656 0.34403446 -1.6824046 -2.6435208
1.135864 -2.7616777 -0.33230034 -0.28760883 2.7842386 -1.5140473 -2.7857065 -0.3427588
2.5629394 -2.1683939 1.272153 -0.54105335 2.0038123 -1.5600917 -1.689763 -0.99172467
-0.357444 -1.0939411 -0.021763576 2.5915387 -1.5176333 -0.38202438 -0.45999593 -0.4867468
-0.35290882 -0.35354578 -0.25746918 -0.1192263 -0.07039658 -1.2563398 -0.18992369 -0.21110763
-0.44402447 -0.87831056 -0.20011312 -0.2333976 -1.148371 -1.6534086 -0.40762582 -0.30495054
00000000: 3dca 283f 8459 713f d769 903f f355 943f
00000010: 2414 ff3f b418 553f aec7 bd3f 1770 8b3f
00000020: ca5d 833f 7517 8a3f f4b6 f13e 28ee 993f
00000030: 45af 773f 76c6 d03f fe87 983f 3fd1 ca3f
00000040: 8c2d 4b3f 4fc0 f33f 8dc1 c83f e2c8 a73f
00000050: 8872 ba3f 5c0b 213f 7fc2 f73f 8210 0a40
00000060: b4fa 383f 9e1b eb3f cd69 a63f 714b ba3f
00000070: d470 303f 2aa2 383f 625f ef3f 9d17 983f
00000080: 150b 423f 19ca 2540 2a10 543f 21cf 913f
00000090: 1b71 4e3f 10c6 733f 4883 1740 4b85 cb3f
000000a0: 49cc a83f 4d7c 9e3f 0de2 4d3f 994a 4c3f
000000b0: 1c70 e23f 5f28 a03f 1226 9d3f 8747 9a3f
000000c0: 09df fc3e a930 9d3f 3b34 9f3f 16d5 8d3f
000000d0: a54c 8c3f 987b 8f3f b140 7c3f 5fc7 813f
000000e0: d67f a43f 2141 0840 2bce b23f f18f 8e3f
000000f0: 1c18 9e3f f369 0540 0fce 713f 92db 983f
00000100: 632e 503f 76aa 373f cc46 b13f efdd b53f
00000110: 056f 1440 2b37 aa3f 1663 973f 7b8d 8d3f
00000120: ce7e 8a3f 702c 353f 72a8 c93f b024 653f
00000130: 5672 9f3f 1061 013f 5f1f 773f b760 8c3f
00000140: 320a 0140 45c3 1d3f f832 8d3f f218 463f
00000150: 972a 6b3f 917d 0340 b105 b13f d258 f83f
00000160: 85c4 883f 205c 923f e06e b23f 9811 a03f
00000170: b9e0 723f 4ab0 bc3f d2a6 9c3f 0278 a83f
00000180: 62bf d43f 6608 8c3f cc14 1640 54ac 3f3f
00000190: b8e1 293f 66e3 3a3f 876a 3d3f 7295 323f
000001a0: dc52 f13f ae65 693f c039 413f 8676 943f
000001b0: b1dc e83f 5512 dc3f 5847 ef3f 4537 c73f
000001c0: 35dc 993f 00a3 933f 97bc 7f3f bcaf db3e
000001d0: b8e1 bd3f 1b00 743f 45eb 873f 4f1b 2b3f
000001e0: 4321 413f fbbd a03f a0f9 2140 dc95 f53f
000001f0: cb9d 2d3f 88c9 2040 a8cc ed3f 0c65 833f
00000200: 9681 d23f 36b7 8a3f 1667 883f 158c 9e3f
00000210: 5f7e 0940 7056 4c3f 0d21 913f 2031 7f3f
00000220: 59aa 963f 97cd 433f 69fe 763f 91be 843f
00000230: 7fe6 f53f f829 b63f 80e7 9f3f 7dec 883f
00000240: 8030 4c3f 4477 a33f 36b7 823f ee19 943f
00000250: 1716 663f f72c 803f 4537 a73f 3640 753f
00000260: 7f29 603f d7ff 603f 57a0 be3f 153a f33f
00000270: 6b2e 4b3f 51b9 703f 8fda 8f3f 5cf9 b73f
00000280: f6d9 b83f a879 a73f a61b df3f 520f ea3f
00000290: 6487 ac3f cd24 bc3f f040 203f 85b1 7c3f
000002a0: 787f 823f 79f1 0140 b187 983f b9b5 8a3f
000002b0: 61b7 d83f b296 b43f 0da7 4a3f c91f 0f3f
000002c0: 39b5 1f3f b69c bd3f 446b 8a3f 6a19 a23f
000002d0: ffd5 823f db6f 863f 82db ca3f 8086 a23f
000002e0: ec71 ae3f 7407 8f3f ad39 873f 1374 ac3f
000002f0: 538b 0440 a6f2 6c3f 27d6 aa3f cbd1 7d3f
00000300: e510 aebe d51f 27bd f2b9 9abf 956e 38bd
00000310: e31f f7bf ca68 16be e144 f63e ce2f 3fbe
00000320: 6957 03c0 347b 87be 4a01 1d3e eff0 04c0
00000330: fed8 80bf bd7f 67bf 2126 123f 2385 ccbf
00000340: 6a4a 37be b220 6abf b405 38bf 4cda a3be
00000350: c673 10bf 4925 b03e 0959 d7bf 722f 29c0
00000360: fe63 913f 54bf 30c0 4523 aabe 7741 93be
00000370: f730 3240 4dcc c1bf 0449 32c0 157e afbe
00000380: 3307 2440 f7c6 0ac0 e9d5 a23f 7982 0abf
00000390: 763e 0040 16b1 c7bf 274a d8bf abe1 7dbf
000003a0: e602 b7be 4306 8cbf 8749 b2bc c5db 2540
000003b0: cf41 c2bf b398 c3be 9684 ebbe e036 f9be
000003c0: 77b0 b4be f403 b5be 00d3 83be eb2c f4bd
000003d0: 152c 90bd becf a0bf 5b7b 42be 992c 58be
000003e0: 2d57 e3be f6d8 60bf 74ea 4cbe c8ff 6ebe
000003f0: d2fd 92bf e5a2 d3bf 55b4 d0be 7a22 9cbe
