ctpro/Drishti/layers_weights/4_layer.npy (npy, 1280 bytes, 1 tensors)

array f4 [1, 3, 3, 32, 1]
0	0xbf6a5f65	-0.9155181
1	0x3f1c5a04	0.6107485
2	0xc088c4f2	-4.274041
3	0xc012c542	-2.2932897
4	0xc16685fa	-14.407709
5	0x3ecb4cda	0.3970707
6	0xbf4eb8c8	-0.80750704
7	0xbf9b9506	-1.2154853
8	0x3f8af198	1.0854979
9	0x3c65e834	0.014032412
10	0xbeb0ea27	-0.34553644
11	0x3e90b54e	0.28263324
12	0xbf37df0e	-0.7182473
13	0xbf079ebe	-0.52976596
14	0xbecac380	-0.3960228
15	0x3f907cf6	1.1288135
16	0xbf6391d6	-0.88894403
17	0x3e1bd24f	0.15216945
18	0xbfcc22e3	-1.5948147
19	0x3edf355a	0.43595392
20	0xbe40e1fb	-0.18836205
21	0xc03e3824	-2.9721766
22	0x3f56164d	0.8362778
23	0x4003b7cc	2.058093
24	0xbeba421b	-0.3637856
25	0x3e869e08	0.26292443
26	0x3ebc775a	0.36809808
27	0x401f0b9f	2.4850843
28	0x3e3d686e	0.18496868
29	0xc0256da5	-2.5848172
30	0xbf8e129a	-1.1099427
31	0xbd421a63	-0.047388446
32	0xc0e36c86	-7.1069975
33	0x40659518	3.587225
34	0xbf9ac9aa	-1.2092793
35	0xc03d1a25	-2.9547207
36	0xc017cf60	-2.3720322
37	0x3f092506	0.5357212
38	0xbf4aacbc	-0.7916982
39	0xbf778c03	-0.96698016
40	0x4073dbe9	3.8102973
41	0x3f957e52	1.1679175
42	0xbe2fde5a	-0.17174664
43	0x3ec29a37	0.38008282
44	0xbf1bff4a	-0.60936415
45	0xbf082b47	-0.53191036
46	0xbfa2bb06	-1.2713325
47	0xbf8510dc	-1.039577
48	0xbf9454bb	-1.1588358
49	0xbeb9738c	-0.36220968
50	0xbf5ce3f5	-0.86285335
51	0x3f7658ae	0.96229064
52	0xbf5f6a46	-0.87271535
53	0xc13c8584	-11.782597
54	0x3f8abaf2	1.0838301
55	0x3ff7ec14	1.936892
56	0xc1cd3f91	-25.656038
57	0xc0f78602	-7.7351084
58	0x3e45f2a8	0.19330847
59	0x407f48b4	3.9888124
60	0x3efdbfd0	0.49560404
61	0x4050748a	3.257113
62	0xbfaeec65	-1.3665892
63	0x3f471515	0.77766544
64	0xbe36af1f	-0.17840241
65	0x3f95fea8	1.171834
66	0x3ff57a9b	1.9178041
67	0xc03a8fe7	-2.915033
68	0xbf14eaa6	-0.58170545
69	0xbf96b661	-1.1774408
70	0xbf469fbf	-0.77587503
71	0xbf3b80fa	-0.7324368
72	0x3f8bbc99	1.091693
73	0xbe7b49c0	-0.24539852
74	0xc04e79eb	-3.2261913
75	0x3f43d3da	0.76495135
76	0xbf36c078	-0.71387434
77	0xbf701e2b	-0.9379603
78	0xbf73fadd	-0.9530466
79	0xbe9ba8bf	-0.3040218
80	0xbfbf362a	-1.4938405
81	0xbe75226a	-0.23938909
82	0xbf0d81c0	-0.5527611
83	0xbed4e469	-0.41580513
84	0xbf3d090b	-0.73841923
85	0x4150c2f8	13.0476
86	0x3f8d4994	1.1038079
87	0x3fa4bc71	1.2870008
88	0xbf808044	-1.0039144
89	0x40ddc243	6.9299636
90	0x3e44b16c	0.19208306
91	0x3e81e961	0.25373366
92	0x3d628af5	0.0553083
93	0xbe8e6420	-0.27810764
94	0xbfc9222d	-1.5713555
95	0x3ec2c2de	0.38039297
96	0xc00142d0	-2.019703
97	0x3db168f3	0.086625956
98	0xbf97e8ec	-1.1867957
99	0xc04360a5	-3.0527737
100	0x415190df	13.097869
101	0x41af83dc	21.939384
102	0xc03fc570	-2.9964256
103	0xbce0ea67	-0.027455522
104	0x3fd690d0	1.6762943
105	0xbf4d7bf7	-0.8026728
106	0xbfdf8397	-1.7462033
107	0x3f3282a4	0.6973059
108	0xbfb1396f	-1.3845652
109	0x3f463836	0.7742952
110	0xc02746aa	-2.613688
111	0x4150cf09	13.050546
112	0xbeb83555	-0.3597819
113	0x40e66392	7.1996546
114	0x3f923935	1.1423708
115	0x3f0897a9	0.53356415
116	0x3e67d64b	0.2264034
117	0xc16f18ba	-14.943537
118	0x3fe5aab0	1.7942715
119	0x4003fcec	2.0623121
120	0xbe81be59	-0.25340536
121	0x3ee5d048	0.44885468
122	0xbed16426	-0.4089672
123	0xc076d90f	-3.8569982
124	0x3f60c0b4	0.8779404
125	0xc087a4e7	-4.2388797
126	0xbfa8cad5	-1.31869
127	0x3f71fa10	0.9452219
128	0x416393bf	14.223571
129	0xc12808b1	-10.502122
130	0x3f07bb9a	0.5302063
131	0xc031f806	-2.7807631
132	0x41190e1c	9.565945
133	0x3f7f8ede	0.99827373
134	0x40f140b6	7.5391493
135	0x3fb2adb9	1.3959266
136	0xc122aaeb	-10.166728
137	0xc09937da	-4.788068
138	0x3eeda09a	0.46411592
139	0x3f649285	0.8928607
140	0xbf25f786	-0.64830816
141	0x3f78724c	0.97049403
142	0x414a4366	12.641455
143	0xc11042df	-9.016326
144	0xbf1eb45d	-0.6199396
145	0xc0d48d64	-6.6422596
146	0x3fb8d407	1.4439706
147	0x3f9d47b2	1.2287505
148	0xbe183de9	-0.14867367
149	0xc19389b8	-18.442245
150	0xc10b6c5c	-8.713955
151	0x3fe10093	1.75783
152	0x3f78900b	0.9709479
153	0x40e53877	7.1631427
154	0x3f37b6c2	0.7176324
155	0xc1119d94	-9.100971
156	0x3eeb3963	0.4594222
157	0x4075362d	3.8314316
158	0x40a04fe7	5.0097537
159	0x401d2b9b	2.4557865
160	0xc00e0bbf	-2.219467
161	0x3e32241a	0.17396584
162	0x3fada566	1.3566101
163	0xc029e64c	-2.6546812
164	0xc08784a2	-4.2349405
165	0xc1b56dde	-22.678646
166	0x3fae24a5	1.3604933
167	0x3f54e22d	0.83157617
168	0x3fe6bd85	1.8026587
169	0xbf07addf	-0.5299968
170	0x40f4b2e1	7.646836
171	0x3cea71d1	0.028618725
172	0xbfda93b1	-1.7076322
173	0xbea3c173	-0.31983528
174	0xc03f59c9	-2.989855
175	0xc04a26ad	-3.1586106
176	0xbf27874c	-0.6544082
177	0x3ee9ea7d	0.45686713
178	0xbe996693	-0.2996107
179	0xbdf51497	-0.11966818
180	0xbf942b4d	-1.1575714
181	0x40f0a426	7.5200377
182	0x3f634a07	0.8878483
183	0x3fcc9e3a	1.5985787
184	0x3f95e9ca	1.1711972
185	0xc0df8a9b	-6.9856696
186	0xbded4c82	-0.11586858
187	0x3ecca478	0.3996923
188	0xbe610751	-0.21975447
189	0x3fdb77a5	1.7145888
190	0x3e906ed8	0.28209567
191	0x3f8aad23	1.0834087
192	0xbf90a514	-1.1300378
193	0x3e380c90	0.17973542
194	0x40268ee9	2.6024725
195	0xc009fe07	-2.1561296
196	0x40f15a44	7.5422688
197	0xbf925f83	-1.1435398
198	0xbf701eae	-0.93796813
199	0xbecbe727	-0.39824793
200	0x3ee6f035	0.45105138
201	0xbf109259	-0.5647331
202	0xbf503d48	-0.8134351
203	0x3e66b878	0.22531307
204	0xbf56e1f2	-0.83938515
205	0x3f73d638	0.95248747
206	0xbeb66674	-0.3562504
207	0xbe58eec6	-0.21184835
208	0xbfa8ef94	-1.3198113
209	0xbe7e7d9c	-0.24852604
210	0x4002c5c0	2.0433197
211	0xbf419d4b	-0.75630635
212	0xbe63c42a	-0.222428
213	0x419c3d25	19.529856
214	0x3f59a32d	0.8501461
215	0x3fe13145	1.7593161
216	0x3f90dbd7	1.131709
217	0xbf1a30bb	-0.60230607
218	0x3ddb6570	0.10712707
219	0x3f86e429	1.0538379
220	0x3dec1b7a	0.11528678
221	0xbec00896	-0.3750655
222	0xbf0ebb81	-0.5575486
223	0xc0528032	-3.2890744
224	0x3f9a5672	1.2057631
225	0x3fd7469b	1.6818422
226	0x3f8e723b	1.112861
227	0xc010cd23	-2.2625206
228	0xbe91f534	-0.28507388
229	0x3f108705	0.56456023
230	0xbfa754e2	-1.3072779
231	0x3f88d6de	1.0690572
232	0xbf087e9b	-0.53318185
233	0x40fc8d72	7.8922663
234	0xbfcf1cd4	-1.6180673
235	0x3e675aa6	0.22593173
236	0xbf2a03f2	-0.6641227
237	0x3f27d0e7	0.65553135
238	0xc0289667	-2.6341798
239	0xbe55bf6b	-0.20873801
240	0xbf9fe521	-1.24918
241	0x3d4b9809	0.04970554
242	0x3ee621f4	0.4494778
243	0xbecca4a5	-0.39969364
244	0xbf7e1fc0	-0.99267197
245	0x40fcbc6d	7.898001
246	0x3fa608eb	1.2971472
247	0x3fba1739	1.4538337
248	0x41bd9a9a	23.700489
249	0x3f164eb7	0.5871386
250	0x3fb2f9cf	1.3982486
251	0x400a3539	2.1594985
252	0xbe9452ca	-0.28969413
253	0xbd212542	-0.039342172
254	0xbf0d90ec	-0.5529926
255	0xbe66bacd	-0.22532196
