ctpro/Drishti/layers_weights/51_layer.npy (npy, 24704 bytes, 1 tensors)

array f4 [1, 1, 1, 192, 32]
000000 4f 9b bc 3c cc bf f3 bb 56 73 7d bb 3b f1 fb bd
       0.023023276 -0.0074386355 -0.0038673482 -0.123018704
000010 db 7b 14 3c 18 26 81 3b 9f 98 76 bb 2e bf 54 3d
       0.009062733 0.0039413087 -0.003762759 0.051940136
000020 dd 36 ec bc 95 0f f9 bc ed f2 8d 3c d3 18 88 bd
       -0.028834755 -0.030402938 0.01732775 -0.0664536
000030 7a b4 19 3b fc aa a4 3d 59 5c 41 bd c2 28 a8 3c
       0.002345352 0.08040425 -0.04720721 0.020527247
000040 7f b5 43 bc 4e 2a 41 be 68 e5 59 bc f0 dc 89 3d
       -0.0119451275 -0.18863794 -0.013299324 0.067315936
000050 8a 5b 1e 3d 76 46 ac bb 0b d8 93 bb 8b a2 01 bc
       0.038661517 -0.005257423 -0.0045118383 -0.007912288
000060 0a 5b 50 3d a2 e5 ba 3c 45 4c ec 3d 5a 4a 89 3d
       0.05086807 0.022814576 0.11537985 0.067036346
000070 9e db 0b 3e 85 b1 2d bc 3c 11 21 bd c6 f7 f2 bb
       0.13657996 -0.010601406 -0.039323077 -0.007414791
000080 e0 db 86 bc 4e a7 93 3d 18 d5 a0 3d 9a 3b f9 bd
       -0.016462266 0.07209645 0.078531444 -0.12169571
000090 ee f8 3f be f9 12 7b 3d ca dc 56 bc 2e 87 4a 3c
       -0.18747303 0.06129739 -0.013114164 0.012361331
0000a0 8a be a5 3c 6c 92 be bc 59 7a b3 3d a7 4d 58 bc
       0.020232458 -0.023263179 0.0876357 -0.0132021075
0000b0 93 4a 8a 3d 3d db 80 bb ae 16 bc 3c 5b 66 0a bd
       0.06752505 -0.0039323852 0.022960033 -0.03378902
0000c0 b6 bf 18 3d 1b a6 a8 bc cb ca 4a 3d a1 ed 9e bd
       0.037292205 -0.020587018 0.049509805 -0.07760168
0000d0 d1 aa 45 bd 37 2f 17 3d ca 0d 2b bb 5f 91 d4 bd
       -0.048258606 0.036910262 -0.0026100748 -0.1037929
0000e0 9e 0a 3f bd 4e 19 04 bd ec f7 21 3b 95 9e ab 3c
       -0.046640985 -0.032250695 0.0024714423 0.020949641
0000f0 20 e1 d9 bd 70 af 44 ba 0f 79 80 bd f4 4b a0 3c
       -0.10638642 -0.0007502949 -0.0627309 0.019567467
000100 06 a2 ae bc 34 7a ed bc f5 5a 8d 3d c7 f1 fe bd
       -0.021317493 -0.028988935 0.06902114 -0.12448459
000110 39 b4 a1 3d 20 55 f2 3c 13 04 89 bd 3c 08 05 bd
       0.07895703 0.029581606 -0.0669023 -0.032478556
000120 f9 43 89 bc 3b 1e 13 3d c3 2e e4 bc 4b 6b ab 3d
       -0.016756045 0.035917502 -0.027854329 0.08370074
000130 17 02 47 3c b1 f2 bf 3b 79 a6 46 bd ba af 3c 3c
       0.012146494 0.0058577885 -0.048498604 0.011516506
000140 dd 5e f4 3b f0 b5 d9 3c 1b e1 5d bd c0 00 dd 3d
       0.0074575976 0.026576012 -0.054169755 0.10791159
000150 78 a1 d3 bc 25 43 66 3d 84 d1 a2 bc 25 fe 55 3d
       -0.02583383 0.056216378 -0.019875295 0.052244324
000160 75 d9 5c 3c a2 6a 32 bc 9e 6c 64 bb e4 7c 05 bd
       0.01347958 -0.010889681 -0.003485478 -0.032589808
000170 aa bf 88 bc 00 98 9e bd 65 a1 52 3d 0d b7 ac 3c
       -0.016692955 -0.077438354 0.05142345 0.02108338
000180 82 e7 a5 bd 27 5f 2d 3d 80 b2 c1 bd 0c ba df 3d
       -0.08100797 0.042327072 -0.09457874 0.109241575
000190 24 0f 01 3d 97 72 3c 3d 42 50 8b bd 65 e1 a7 3c
       0.03150858 0.04600772 -0.06802417 0.020493219
0001a0 0c 06 d3 3c 20 43 e0 bd e7 d1 05 3e 1e cb 19 3e
       0.02575972 -0.10950303 0.13068353 0.1501889
0001b0 b6 c4 10 bd bb 72 05 3d a5 8c a1 bd 5f 64 76 bc
       -0.03534385 0.03258012 -0.07888154 -0.015038579
0001c0 e8 0d d7 bc f6 1c 83 3a 8f ce 0c bd 1e 3e 4d 3d
       -0.026251748 0.0010003138 -0.034376677 0.050108068
0001d0 0c f5 1f bd 27 ad 3d bc a7 6d 04 be 53 d4 91 bd
       -0.039052054 -0.011576927 -0.12932454 -0.07120576
0001e0 4f 2c 59 bd 72 07 ac 3d f7 ea 21 3d c0 5d 29 bd
       -0.05302077 0.083998576 0.03953072 -0.041349173
0001f0 dc 31 21 ba 3c e0 07 bd 88 ac 72 3c 2b f7 04 bd
       -0.0006149092 -0.03317283 0.0148116425 -0.03246228
000200 b3 04 37 bc ae d0 d8 3b 13 79 87 3d 03 f2 22 3d
       -0.011170554 0.0066166734 0.0661489 0.03978158
000210 7d 45 b0 3c 06 cf 7d 3d c0 e6 a1 bc 8e 14 af 3d
       0.02151751 0.06196501 -0.01976335 0.08548842
000220 2d 3a 6b 3d 35 2c 6f bd eb cb 8f 3b ec ca f9 3d
       0.057428528 -0.05839177 0.0043883226 0.121969074
000230 4b 5f 80 bd 90 f3 4d bd 0d af 45 3d ac e1 90 3d
       -0.06268176 -0.050281107 0.048262645 0.070742935
000240 64 a0 6f bd 09 3d 79 3d c8 c3 53 3d c5 40 85 bc
       -0.05850257 0.060849223 0.051700383 -0.016266236
000250 27 c9 4b bc 8d b0 03 3d 49 77 06 bc d2 80 0d 3c
       -0.012438095 0.032150794 -0.008207151 0.00863667
000260 c4 1a 5c 3d 93 34 a5 bd 25 2a 99 bc 70 d1 45 bc
       0.053736463 -0.08066668 -0.018696854 -0.01207386
000270 3c 23 92 3d f7 cc ba 3d db 59 84 bc 5a 92 75 bc
       0.07135627 0.09121125 -0.016156128 -0.014988506
000280 36 4b d0 3d 6d 2a db ba 91 35 ff bc 18 38 cb 3c
       0.10170595 -0.0016721018 -0.031153472 0.024807021
000290 f5 61 4d 3d 53 e1 43 bd 2a 4c 74 bd 05 9a 8d 3b
       0.050142247 -0.047822308 -0.05964295 0.004321339
0002a0 42 94 26 bd 59 87 df 3d b4 7b ac bc d5 0e d1 bd
       -0.040668733 0.109144874 -0.02105508 -0.10207907
0002b0 35 45 ae 3c f9 3f 9b bc dd 58 9e 39 7f c2 0b bd
       0.021273235 -0.018951403 0.00030202317 -0.034121033
0002c0 6d dd a8 3c a7 5d 3c bc 84 ee af bc dc 2b 18 bc
       0.020613397 -0.011496938 -0.021476038 -0.009287801
0002d0 2c a6 85 bd 47 6b 58 3d 0c 9d bd 3c ec c5 8d bd
       -0.065258354 0.052836683 0.023146175 -0.06922516
0002e0 17 f6 ed 3c 6c eb ae 3d 1b 91 14 3d e7 45 31 ba
       0.029048009 0.08540997 0.036271196 -0.00067624304
0002f0 6f 83 16 bd 01 3c ca 3d c1 0d 64 bd 26 71 2f 3d
       -0.03674644 0.09874726 -0.05567718 0.042832516
000300 4e 37 6e 3d c2 dc 2b bd e2 f8 e1 bd 9c 7c a5 bd
       0.05815821 -0.041958578 -0.11033799 -0.08080408
000310 96 7b e2 bc 35 c4 3b 3a 53 90 5b 3d f7 90 5c 3d
       -0.027646821 0.0007162721 0.053604435 0.053849187
000320 10 77 f1 bc 83 88 50 be ce 54 40 3c 38 19 1f be
       -0.029475719 -0.20364575 0.011738969 -0.15536964
000330 40 68 96 bd 1e 2c 73 bd 48 4e bb 3d 88 ca da 3c
       -0.07344103 -0.059368245 0.0914579 0.026707903
000340 40 a1 89 3d 89 4f 30 3e e1 c5 6a 3d 44 25 98 bd
       0.06720209 0.1721784 0.05731762 -0.07428983
000350 c7 ce 9f bd 77 c7 21 bd 8f 5a 72 3d fc 79 ec bc
       -0.078031115 -0.039496865 0.059168395 -0.02886676
000360 94 f6 dd 3c a7 51 5c 3d 5a ce 98 bc a8 0a 7f 3d
       0.027095117 0.053788807 -0.018653084 0.062266022
000370 6b af a6 bd 44 a2 d5 bd 5c e9 f9 3c 5f ea e6 39
       -0.08138927 -0.1043134 0.030506782 0.0004404364
000380 83 df f2 bd 84 dc 1f 3c c7 f2 89 bd ef 8f 97 3d
       -0.11859038 0.009757165 -0.06735759 0.074005
000390 48 3a ba bb b0 eb 85 bc f4 46 de 3c 3e 11 9c 3a
       -0.005683217 -0.016347736 0.027133442 0.0011906994
0003a0 9d ae 0d 3c 68 7a 56 3d dd 01 28 3c 83 82 81 bb
       0.008647588 0.05236283 0.0102543505 -0.003952326
0003b0 3e 1c 05 be be ce 04 3d 62 e7 03 3d 4d e0 d3 bc
       -0.12999055 0.032423727 0.032203086 -0.02586379
0003c0 ab 90 08 3d 04 ba 55 bd 4e d9 36 bd 64 b5 9e 3c
       0.03334109 -0.05217935 -0.04464083 0.019373603
0003d0 38 96 9f bd 3e d1 82 bd 53 d8 0d be 6c 05 ea 3c
       -0.07792324 -0.06387566 -0.13852052 0.028567038
0003e0 d1 de 89 bd 31 08 dd bc d1 c4 07 bd fa 4e b3 3d
       -0.06731952 -0.026981445 -0.033146683 0.08755298
0003f0 61 52 44 bd b2 1d 78 bc cc 2e 92 ba 89 c9 90 bc
       -0.047930125 -0.015143799 -0.0011152863 -0.017674224
