ctpro/Drishti/layers_weights/52_layer.npy (npy, 640 bytes, 1 tensors)

array f4 [4, 32]
1.7787902 1.1831852 2.95674 3.4527867 2.691443 1.3897852 1.4475121 1.1081905
1.3061711 2.10292 1.7305039 2.051792 1.1186604 1.4846202 1.2116883 2.448436
1.3258874 4.314651 1.3649004 4.6670814 1.9639541 1.1566622 2.1399596 1.3127472
2.3597183 2.1378963 1.3804318 1.9203475 5.7281165 1.7703503 0.9189642 1.35754
0.0033136893 0.0027130751 -0.004722929 0.00012093162 -0.0023901076 -0.0010391786 0.0026888296 -0.0024921987
0.004687702 -0.0008610692 0.0001873594 0.0012963577 -0.002872258 0.005619876 -0.0055109197 0.0013088121
-0.00205742 0.0003746701 0.00012496371 -0.00056396314 -0.0011515797 -0.0024059315 0.005112279 -0.0016760913
-0.00075720454 -0.0030280752 -0.0039657606 0.0006083113 9.2153416e-05 -0.004364623 -0.0019451878 -0.0011046598
-0.5129679 -0.15233493 -0.8142289 0.33151814 -0.70682734 -0.10247385 0.60450184 0.38762534
0.40360364 -0.4985625 0.6199912 0.06742044 0.3109256 1.1479111 0.38963866 0.18287434
-1.9231586 -0.2357291 -1.2253892 1.0565312 0.115034305 0.97705096 1.7449579 -0.2207108
0.7528158 1.2235218 -0.79043806 0.9658216 2.4806364 -0.69654226 -0.043711465 -0.082474045
0.13462198 0.23323078 0.349804 0.38069835 0.35494152 0.1912281 0.2626325 0.18457961
0.1850063 0.22524473 0.18615651 0.24285711 0.1373389 0.36022133 0.26491213 0.25421518
0.29726937 0.4532376 0.33326125 0.64049256 0.23651177 0.26613766 0.29075578 0.20065099
0.2972946 0.24470097 0.17415935 0.23590167 0.72044045 0.2384361 0.17598145 0.13591307
00000000: 66af e33f 9d72 973f 3a3b 3d40 75fa 5c40
00000010: 9a40 2c40 7be4 b13f 1448 b93f 30d9 8d3f
00000020: 9d30 a73f 3e96 0640 2781 dd3f 8f50 0340
00000030: 4430 8f3f 0908 be3f 9a18 9b3f 2db3 1c40
00000040: aeb6 a93f 9f11 8a40 0eb5 ae3f bb58 9540
00000050: d962 fb3f 820d 943f 19f5 0840 1a08 a83f
00000060: a005 1740 4bd3 0840 fdb1 b03f f2cd f53f
00000070: bb4c b740 d79a e23f 3d41 6b3f dfc3 ad3f
00000080: 7b2a 593b d9cd 313b cdc2 9abb ab9c fd38
00000090: 5aa3 1cbb 0c35 88ba 1337 303b 2854 23bb
000000a0: 4b9b 993b 60b9 61ba e875 4439 8cea a93a
000000b0: 7e3c 3cbb f026 b83b f294 b4bb 728c ab3a
000000c0: c8d5 06bb 5f6f c439 b108 0339 edd6 13ba
000000d0: 9af0 96ba d5ac 1dbb e884 a73b 4bb0 dbba
000000e0: 237f 46ba ac72 46bb 36f3 81bb 1577 1f3a
000000f0: 7d42 c138 1d05 8fbb acf5 feba 3bca 90ba
00000100: dd51 03bf b0fd 1bbe 4e71 50bf bfbc a93e
00000110: a3f2 34bf cfdd d1bd a2c0 1a3f d476 c63e
00000120: 23a5 ce3e 9643 ffbe beb7 1e3f ba13 8a3d
00000130: a431 9f3e c0ee 923f b87e c73e 6943 3b3e
00000140: 102a f6bf f862 71be 8ed9 9cbf 6a3c 873f
00000150: 1b97 eb3d 0320 7a3f c85a df3f 0302 62be
00000160: 89b8 403f 5d9c 9c3f 265a 4abf 1640 773f
00000170: bfc2 1e40 9850 32bf cb0a 33bd 27e8 a8bd
00000180: 58da 093e 0dd4 6e3e 8319 b33e e5ea c23e
00000190: e5ba b53e 4dd1 433e c477 863e 7002 3d3e
000001a0: 4b72 3d3e 8ea6 663e d09f 3e3e 89af 783e
000001b0: 92a2 0c3e ee6e b83e 90a2 873e 7e28 823e
000001c0: b133 983e c20e e83e 38a1 aa3e 52f7 233f
000001d0: 2430 723e 3243 883e f1dd 943e 7477 4d3e
000001e0: ff36 983e e492 7a3e d456 323e 3590 713e
000001f0: c96e 383f 9828 743e 7b34 343e cc2c 0b3e
