ctpro/Drishti/layers_weights/58_layer.npy (npy, 7040 bytes, 1 tensors)

array f4 [1, 3, 3, 192, 1]
00000000: b4d7 36bf 86d1 89bf d8ac 1c3f 5ad7 e73e
00000010: 86ec 2a3f 051a 99bf 1aa8 3c3f c045 363f
00000020: 29a5 3e3f 53f2 1abf 163e 16bf 4483 6a3f
00000030: 5dfb 593f 54b1 26bf 8ede 43bf c843 34bf
00000040: 722a 3d3f 28be 333f 5e6b fdbe db77 763f
00000050: 79d5 12bf b83f 4cbf ce1a bcbe 4a13 a73f
00000060: 6cf5 55bf b097 33bf 72b0 6a3f 2204 683f
00000070: 3c51 2dbf 1bdc 73bf 72c3 543f c9c6 433f
00000080: 62ce 553f 81b2 543f 395c 373f 4125 493f
00000090: 788b 9a3f 90a2 a4bf e142 06bf 8050 73bf
000000a0: cfab 3fbf bdcc bbbf 2f99 213f f94c 6b3f
000000b0: 1ca7 1b3f df5f 443f ace9 c73f 79f6 433f
000000c0: 08ab 853f 8611 5d3f dadf 71bf 4e2e 453f
000000d0: 30fa 5c3f a89d 61bf 0c58 28bf 4c90 3bbf
000000e0: e6e2 423f beac 56bf ce9f 793f 6a04 033f
000000f0: 82c3 563f 81c4 34bf 521e 92bf 843b 3cbf
00000100: d1e0 36bf 2d7c 49bf 4158 593f 9e97 39bf
00000110: 2edc 4d3f 25bb 28bf 79a0 3b3f 0db4 8a3f
00000120: b3d7 3f3f dde9 5f3f c858 0abf a186 18bf
00000130: 3645 ca3f a0fc 2bbf f923 d63f a3bd 33bf
00000140: 1a7e 8abf bc49 1abf c69b 71bf 612f 623f
00000150: 4a39 5dbf fc81 3e3f 2088 95bf b424 36bf
00000160: 553b 73bf 90ca 28bf ae4b 22bf 20a9 883f
00000170: 0355 0b3e 8dc7 703f 44c4 423f f0e0 2dbf
00000180: 7619 1ebf 06cb 40bf 4c77 43bf 278f 21bf
00000190: bb18 4c3f 5315 573f fb8e 313f b677 41bf
000001a0: 32d2 29bf 89ab 633f 5bd0 61bf b079 333f
000001b0: bd3f 353f c835 663e f2c9 5b3f cefc 4b3f
000001c0: 08ab 4b3f 0159 273f f5d7 5d3f 00bc 26bf
000001d0: 70f2 553f 9393 353f b42c 35bf 842a 32bf
000001e0: fb50 7e3f f870 37bf 4e84 26bf ebd0 1ebf
000001f0: c057 593f 2bec d53e af98 683f b0e3 3fbf
00000200: f937 0bbf 3a9c 39bf 0471 593f 37ae c13f
00000210: e342 a0bf 852b 17bf 9d3b 42bf 3b24 24bf
00000220: 9e04 4dbf a82b 293f c00a a33e 53a5 4d3f
00000230: e7e2 733f 4f0c 4abf 780d 67bf 3b81 2a3f
00000240: 3998 28bf 5776 4c3f 1340 88bf 6f54 20bf
00000250: 8849 78bf d4b3 2bbf ddf6 3b3f bbe0 263f
00000260: e6db 4d3f 9287 4cbf 2a73 aebf e7ef 813f
00000270: c8a6 38bf 8208 a73f 3e77 5b3f 24ba 36bf
00000280: 57a6 32bf 05f9 50bf 7524 5ebf a563 203f
00000290: c667 633f 5f02 513f ecb0 3bbf 3930 593f
000002a0: ed8a c1be b059 8a3f 9198 25bf 39ad 85be
000002b0: 444f 92be 52de 38bf 8e8b 19bf f89c 89bf
000002c0: 3a72 2cbf 93b1 873f 0037 eabf d07a 5ebf
000002d0: 87bb f83e 3bed 0abf 74c7 3dbf d449 45bf
000002e0: af86 d03f f5ed 4a3f 8a48 6c3f 1bc5 3d3f
000002f0: 6b6e 27bf 72c8 533f 690d 1fbf eb13 30bf
00000300: c99e 61bf 727f b23e eb7a 863f a075 c4bf
00000310: 6bff 83be fa5c c7bf bc0a 7d3f 2b9c 6d3f
00000320: 3344 983f a4e6 51bf 323a 5cbf 43ac 2bbe
00000330: 7471 a53f 3853 57bf fdc5 7cbf 5d89 6abf
00000340: 9612 823f d4ad 7e3f b54d 2ebf 6cdc 943f
00000350: 4863 71bf 4fae 25bf 218b d6bf 695c 903f
00000360: dda3 72bf 17ff 86bf 8efe 8c3f 6bbb 933f
00000370: a66b 63bf dc07 79bf 8d6b 7f3f ae70 793f
00000380: d77e 823f 70ba 713f b994 753f 455c 773f
00000390: 49c8 1cbf dbab abbf 60e9 6bbf dff6 49bf
000003a0: 6cc9 80bf 1404 e5be 7ee5 853f 5ce3 923f
000003b0: 3309 6c3f d9de 863f 5e38 b73f 7072 ac3f
000003c0: 6016 803f 54c1 813f a161 9ebf a048 7c3f
000003d0: 3aca 833f dda9 81bf d528 913f 3c41 7abf
000003e0: 0f07 703f db9d 8ebf 0607 823f 4887 6e3f
000003f0: 8308 8c3f e487 81bf c6c9 bcbf 1a75 a5bf
-0.71422887 -1.0767066 0.6120124 0.45281488 0.66767156 -1.1961066 0.73694 0.7120018
0.74470764 -0.6052601 -0.58688486 0.91606545 0.85149175 -0.6511433 -0.76511467 -0.70415926
0.7389289 0.7021203 -0.49495977 0.96276635 -0.57356983 -0.7978473 -0.367392 1.3052762
-0.8357761 -0.7015333 0.91675484 0.90631306 -0.6770208 -0.9525773 0.83110726 0.764752
0.8351804 0.83084875 0.71625096 0.7857247 1.2073812 -1.286211 -0.524458 -0.9504471
-0.74871534 -1.4671856 0.63124365 0.91914326 0.60801864 0.7670879 1.5618186 0.7654796
1.044282 0.86354864 -0.94482195 0.7702378 0.86319256 -0.8813119 -0.6575935 -0.73267055
0.7612747 -0.83857334 0.9750947 0.5117861 0.8389207 -0.7061234 -1.1415503 -0.73528314
-0.7143679 -0.787051 0.8490029 -0.72496974 0.8041409 -0.6591056 0.73291737 1.0836197
0.74938506 0.8746622 -0.5404172 -0.5958043 1.5802372 -0.6718235 1.6729728 -0.7021124
-1.0819733 -0.6026876 -0.94378316 0.88353544 -0.8641554 0.7441709 -1.1682167 -0.71149755
-0.9501241 -0.65934086 -0.6339673 1.0676613 0.13606648 0.9405449 0.7608073 -0.6792135
-0.617576 -0.7530979 -0.7635391 -0.6310906 0.79725236 0.84016913 0.69358796 -0.7557329
-0.6633636 0.88933617 -0.8820855 0.70107555 0.7080038 0.22481453 0.8585502 0.79682624
0.7955785 0.65370184 0.8665765 -0.65130615 0.83573055 0.70928305 -0.70771337 -0.69596124
0.99342316 -0.7165675 -0.6504563 -0.62037534 0.8489952 0.41781744 0.90857977 -0.749568
-0.5438228 -0.7250401 0.84938073 1.5131291 -1.2520412 -0.5905078 -0.7587221 -0.64117783
-0.8008517 0.6608224 0.3184414 0.8033039 0.952681 -0.7892503 -0.90254927 0.6660344
-0.65857273 0.7986807 -1.0644554 -0.62628835 -0.969872 -0.6707127 0.7342356 0.6518666
0.80413663 -0.79894364 -1.3628895 1.0151337 -0.7212949 1.3049471 0.85728824 -0.7137778
-0.69785064 -0.81629974 -0.8677438 0.62652045 0.8883022 0.81644243 -0.73316836 0.84839207
-0.37801304 1.080862 -0.6468592 -0.2610872 -0.285761 -0.72214234 -0.5997857 -1.0751028
-0.67361796 1.0601066 -1.8298035 -0.86906147 0.48580572 -0.54268235 -0.74132466 -0.7706578
1.6291102 0.79269344 0.92298186 0.74128884 -0.6540286 0.8272773 -0.6212984 -0.6878039
-0.8813291 0.34862858 1.0506262 -1.5348396 -0.25780806 -1.5575249 0.98844504 0.9281642
1.1895813 -0.81992555 -0.860263 -0.16764931 1.2925248 -0.84111357 -0.98739606 -0.9161585
1.0161922 0.9948399 -0.6808732 1.1629767 -0.94292116 -0.647191 -1.6761209 1.1278201
-0.94781286 -1.0546597 1.1015184 1.154157 -0.88836133 -0.9727762 0.99773484 0.9743756
1.0194958 0.94425106 0.9593006 0.9662517 -0.6124311 -1.3411821 -0.92152977 -0.7889232
-1.0061469 -0.44729674 1.046066 1.1475635 0.92201537 1.0536758 1.4314077 1.3472424
1.0006828 1.0137124 -1.2373544 0.98548317 1.029609 -1.0129963 1.1340586 -0.9775579
0.9376077 -1.1141924 1.0158393 0.9317517 1.0940098 -1.0119596 -1.4749076 -1.2926362
