ctpro/Drishti/layers_weights/61_layer.npy (npy, 49280 bytes, 1 tensors)

array f4 [1, 1, 1, 192, 64]
0.23810847 0.08393715 -0.1319223 -0.034445737 0.008411322 -0.08009864 -0.060196884 0.0028399716
0.012382492 -0.02878823 0.10607304 0.03174847 0.10490738 0.13769765 -0.07665317 -0.044531744
0.03447111 -0.027884342 0.108687416 -0.048008718 -0.040359538 -0.049164847 0.04486618 -0.089661635
-0.09657537 0.04929198 -0.0041077957 -0.0055248924 -0.053993046 0.08610446 0.0071241674 -0.018167783
-0.01440778 0.07118391 0.11810817 0.005530892 -0.10540344 -0.11801972 0.016659059 -0.018881882
-0.08752077 -0.018653153 -0.079216175 0.11148123 -0.0951358 0.0056538465 -0.06587179 0.06771443
0.04797062 -0.009748927 -0.10493135 -0.16734771 0.06585548 -0.050143108 0.012221151 0.096924424
0.04770692 -0.1257119 0.102392025 0.0866836 -0.09199906 -0.031552944 -0.049482044 0.086252406
0.040516004 -0.02066942 -0.03140931 0.026561415 0.0328682 0.024298128 -0.055386733 -0.048370503
-0.07559343 0.022383198 0.04236487 -0.053695735 0.009082881 -0.013241985 -0.07588397 0.047485143
0.027816292 -0.044265453 0.054146476 -0.110583045 0.022765309 0.0858965 0.06652283 -0.030995265
-0.0343011 0.00036782984 0.15417594 -0.10694763 0.007833292 -0.05687933 0.024327867 0.08304645
-0.08276434 0.020007672 -0.010265576 0.038798522 -0.0036515025 -0.01821142 0.009866624 0.06694468
0.024960866 -0.03607473 0.07314941 -0.03313884 -0.0753056 0.028511465 -0.041155703 0.029481614
-0.061253924 -0.033712737 -0.038380865 0.0025399392 -0.044126403 -0.016653385 0.013107437 -0.04003489
-0.03361636 -0.11559737 0.06149525 0.057617024 -0.0029405123 0.037337363 -0.0067149512 0.010111426
-0.096141286 0.028073806 0.0008133084 0.076486126 -0.003413101 0.088053346 -0.06276355 0.031525116
-0.022978151 0.051174168 -0.13020794 -0.017263778 -0.051347602 0.061061125 0.008230489 -0.058758665
0.002385237 -0.05955182 0.02846679 0.0013789878 0.09011214 -0.036376294 0.024949674 0.040009815
-0.0975214 -0.1585092 -0.0072982227 0.09924053 -0.03042053 0.08952191 -0.044529885 0.063746236
-0.08733997 -0.08632725 -0.051172104 -0.084106855 -0.11579227 -0.09074555 0.06568517 -0.05709539
0.07623973 0.04657852 0.08001015 -0.25809136 -0.0997378 0.17096546 0.059821576 -0.030261988
0.019049246 0.012625865 -0.014342316 -0.32364008 0.10013905 0.057658277 0.058039665 0.0907029
-0.034155454 0.12394565 -0.19560444 -0.040377244 0.07341562 0.083677016 0.041247264 0.013251033
-0.050452523 0.0635453 -0.020134654 0.059451856 0.25309873 -0.018233601 -0.05341035 -0.012592301
0.026213204 0.08166687 -0.18682517 0.006504555 0.08399488 -0.08497238 0.009136425 -0.030082569
-0.0027644723 -0.12822762 -0.12632361 0.08518504 -0.1768176 -0.07894262 -0.032839537 -0.06215087
0.15283915 0.011017335 -0.06218153 0.022420121 0.014965727 -0.08144202 -0.015940405 0.006656315
-0.06995878 0.0050883684 0.117494866 0.01092985 -0.0473326 0.010503374 0.015467504 -0.0432835
0.038709756 0.061515298 0.074623965 0.046749745 -0.037663735 0.07902416 -0.062088754 0.051897198
0.053613015 0.08414677 0.028515479 -0.06840284 -0.025202876 -0.035885017 -0.006013917 0.078426674
0.049618203 0.08416776 0.14954886 0.06120968 -0.19025943 0.05930109 -0.039385274 -0.18783191
00000000: b5d2 733e 3ee7 ab3d a416 07be f916 0dbd
00000010: a4cf 093c c10a a4bd 0291 76bd d11e 3a3b
00000020: f0df 4a3c 4bd5 ebbc d23c d93d af0a 023d
00000030: aed9 d63d 9d00 0d3e 56fc 9cbd eb66 36bd
00000040: 9431 0d3d b46d e4bc 8297 de3d caa4 44bd
00000050: 0b50 25bd 1461 49bd 99c5 373d 85a0 b7bd
00000060: 4fc9 c5bd 63e6 493d b09a 86bb 280a b5bb
00000070: d027 5dbd 8957 b03d d971 e93b 9ad4 94bc
00000080: 9c0e 6cbc dfc8 913d b2e2 f13d 7c3c b53b
00000090: c2dd d7bd 53b4 f1bd 9478 883c 2dae 9abc
000000a0: 173e b3bd 7fce 98bc 173c a2bd 4550 e43d
000000b0: 8fd6 c2bd e743 b93b cae7 86bd ddad 8a3d
000000c0: d77c 443d f7b9 1fbc 3fe6 d6bd 335d 2bbe
000000d0: 3ddf 863d dc62 4dbd 393b 483c 5080 c63d
000000e0: 5568 433d 9fba 00be e9b2 d13d 2c87 b13d
000000f0: 016a bcbd a93d 01bd afad 4abd 1aa5 b03d
00000100: 1cf4 253d ea52 a9bc 0ca7 00bd 5397 d93c
00000110: cea0 063d de0c c73c 33dd 62bd 2620 46bd
00000120: bad0 9abd f85c b73c c986 2d3d 0ff0 5bbd
00000130: 5dd0 143c e9f4 58bc 0e69 9bbd c87f 423d
00000140: fede e33c b14f 35bd b2c8 5d3d 5d79 e2bd
00000150: 507e ba3c 81ea af3d 1f3d 883d c8e9 fdbc
00000160: 4f7f 0cbd 49d9 c039 4ce0 1d3e 5c07 dbbd
00000170: 3557 003c 4dfa 68bd 3c4b c73c 4214 aa3d
00000180: 5a80 a9bd 21e7 a33c f230 28bc 33eb 1e3d
00000190: 0c4e 6fbb 1e30 95bc 9fa7 213c 4b1a 893d
000001a0: bb7a cc3c 19c3 13bd 5ccf 953d 98bc 07bd
000001b0: d339 9abd e090 e93c e292 28bd 6d83 f13c
000001c0: 65e5 7abd 5e16 0abd 4135 1dbd 1c75 263b
000001d0: e3bd 34bd ae6c 88bc 93c0 563c a0fb 23bd
000001e0: 4fb1 09bd 50be ecbd 71e2 7b3d d4ff 6b3d
000001f0: 9cb5 40bb 10ef 183d 1809 dcbb 65aa 253c
00000200: b9e5 c4bd 0afb e53c 3434 553a c2a4 9c3d
00000210: 55ae 5fbb 5055 b43d 2d8a 80bd 7b20 013d
00000220: ad3c bcbc 019c 513d 3b55 05be c46c 8dbc
00000230: dd51 52bd 3b1b 7a3d 2cd9 063c edac 70bd
00000240: a351 1c3b 9cec 73bd 3033 e93c 27bf b43a
00000250: b78c b83d 4fff 14bd 4263 cc3c 55e1 233d
00000260: 4db9 c7bd 3c50 22be ee25 efbb 9e3e cb3d
00000270: 7a34 f9bc 4357 b73d f864 36bd 638d 823d
00000280: 4cdf b2bd 57cc b0bd d799 51bd 3740 acbd
00000290: 7f24 edbd ced8 b9bd f285 863d dbdc 69bd
000002a0: 9323 9c3d 1ec9 3e3d 5ddc a33d 8d24 84be
000002b0: 5543 ccbd 9211 2f3e 7807 753d fde7 f7bc
000002c0: 2a0d 9c3c b7dc 4e3c 09fc 6abc 27b4 a5be
000002d0: b415 cd3d 162b 6c3d 00bb 6d3d 71c2 b93d
000002e0: 97e6 0bbd 38d7 fd3d 884c 48be 9c62 25bd
000002f0: ee5a 963d db5e ab3d e4f2 283d dc1a 593c
00000300: 4ea7 4ebd 0a24 823d 6ef1 a4bc ca83 733d
00000310: 2896 813e a25e 95bc d0c4 5abd f04f 4ebc
00000320: 13bd d63c f640 a73d 194f 3fbe 2a24 d53b
00000330: 8205 ac3d 0006 aebd f2b0 153c b86f f6bc
00000340: 262c 35bb 1a4e 03be fa5a 01be 7f75 ae3d
00000350: ac0f 35be abac a1bd c082 06bd e991 7ebd
00000360: de81 1c3e 0d82 343c 0fb2 7ebd 67aa b73c
00000370: cf32 753c 13cb a6bd 7495 82bc 381d da3b
00000380: 8d46 8fbd 54bc a63b 26a1 f03d 1d13 333c
00000390: d4df 41bd 5816 2c3c 6a6b 7d3c 0a4a 31bd
000003a0: 1f8e 1e3d 77f7 7b3d 73d4 983d a97c 3f3d
000003b0: 4a45 1abd 6bd7 a13d c750 7ebd 2892 543d
000003c0: 5299 5b3d 2455 ac3d 4b99 e93c ca16 8cbd
000003d0: 4376 cebc 2bfc 12bd 6410 c5bb 2a9e a03d
000003e0: 753c 4b3d 2660 ac3d 5623 193e 00b7 7a3d
000003f0: 5ed3 42be b3e5 723d 7452 21bd 0257 40be
