ctpro/Drishti/layers_weights/62_layer.npy (npy, 1152 bytes, 1 tensors)

array f4 [4, 64]
000000 de 23 83 40 29 d4 27 40 1c 23 7c 40 c8 b7 a5 40
       4.0981283 2.6223242 3.939643 5.178684
000010 bb 20 57 40 43 31 8d 40 73 d4 15 40 4a bb 57 40
       3.3613727 4.4122634 2.3410919 3.3708062
000020 ec 75 17 40 6f 2c 6e 40 73 19 27 40 94 39 27 40
       2.3665724 3.721462 2.6109283 2.6128893
000030 09 74 8c 40 4a 56 4f 40 01 73 f8 3f 38 47 15 40
       4.3891644 3.2396417 1.9410096 2.3324718
000040 20 5e c2 40 0c f8 64 40 bf c0 16 40 e6 1a 78 3f
       6.07399 3.5776396 2.3555143 0.96916044
000050 f2 ed 61 40 13 63 58 40 3f 24 41 40 ef d7 98 40
       3.530148 3.381047 3.0178373 4.776359
000060 cb 43 7c 40 f0 1f 36 40 be 6d d3 3f a8 d0 3b 40
       3.9416378 2.8456993 1.6517866 2.9346104
000070 e2 a6 2f 40 67 93 70 40 f3 09 ec 3f 24 a2 09 40
       2.7445607 3.7589967 1.8440536 2.1505213
000080 fc 66 63 40 fb 1c 9f 40 21 37 16 40 50 c1 a9 3f
       3.5531607 4.9722877 2.3471148 1.3262119
000090 21 8f 85 40 d6 f7 48 40 6c 65 92 40 17 2a 1b 40
       4.173722 3.1401267 4.5748806 2.424444
0000a0 ef 2c 1c 40 0a 00 5f 3f c3 44 84 40 35 2d 6a 40
       2.4402425 0.87109435 4.133394 3.6590092
0000b0 ff 4e 6f 40 cd be 4b 40 39 e8 60 40 29 b9 b7 40
       3.7391965 3.1835206 3.5141737 5.7413526
0000c0 b6 a0 01 40 d9 5d 6d 40 ce 8f bb 3f a2 23 70 40
       2.025434 3.708853 1.4653261 3.7521749
0000d0 c2 e5 77 40 b3 02 04 40 e3 84 a6 40 e6 7c 2e 40
       3.8733983 2.0626647 5.2037215 2.7263732
0000e0 ac 00 ea 3f 54 78 46 40 4a 45 24 40 4f d8 c9 40
       1.8281455 3.1010942 2.566729 6.307655
0000f0 57 05 7b 40 1e b6 e0 3f 40 80 b8 40 42 c3 15 40
       3.922201 1.7555578 5.7656555 2.3400426
000100 b4 a6 35 3a f5 1e 40 3b 1f a5 d8 ba c3 d7 4c b9
       0.0006929443 0.0029315327 -0.0016528702 -0.00019535334
000110 04 60 bd bb 41 a7 e5 ba 6e 94 ef 3a 20 13 eb b9
       -0.005779268 -0.0017521159 0.0018278488 -0.00044836942
000120 5c 61 be ba ae 14 af 3b ed e2 89 ba e3 d8 4b bb
       -0.0014524865 0.0053430414 -0.00105199 -0.0031104616
000130 93 d0 ba 39 81 eb 85 ba 24 dd 09 bb b3 46 95 38
       0.00035632084 -0.001021728 -0.002103635 7.1180424e-05
000140 28 56 e2 3a ea 90 31 bb 4b b0 9d ba 45 f4 75 3b
       0.0017268108 -0.0027094432 -0.0012030689 0.003752963
000150 78 81 a3 3b 94 05 93 3a bb ef 2e 3a f9 89 99 b8
       0.004989799 0.0011216872 0.0006673296 -7.321308e-05
000160 18 9f 6a bb ec 49 71 3b 7d 29 4e 3a d4 60 4f 3b
       -0.0035800394 0.0036817743 0.00078644586 0.0031643407
000170 54 da 01 3b 64 e5 06 3b 48 95 b9 39 29 26 a8 b9
       0.0019813972 0.0020583505 0.00035397173 -0.0003207189
000180 d7 eb 08 bb 3d 82 99 3b f6 45 7f 3a 60 fe 69 3a
       -0.0020892525 0.004684715 0.0009737903 0.00089261495
000190 46 ab b2 ba 46 12 a5 39 de cd 34 bb a5 28 da 39
       -0.0013631366 0.00031484867 -0.0027588527 0.00041610483
0001a0 43 dd b6 38 fd ec 5d 3b 6b f0 4a 3b f1 75 40 3a
       8.7196495e-05 0.003386318 0.0030966054 0.00073417934
0001b0 e8 39 e5 39 ed 2a 52 ba 58 90 14 bb 56 7a 6c 3a
       0.00043721427 -0.00080172607 -0.0022669043 0.0009020915
0001c0 a5 f1 62 b9 6e 87 90 3b 5b b2 ce ba c5 54 a3 3a
       -0.00021643059 0.0044106757 -0.0015769707 0.0012461176
0001d0 d0 ec 46 39 82 af a0 39 ea fb c1 b8 8c 1a 50 bb
       0.00018970971 0.00030648342 -9.24988e-05 -0.0031754104
0001e0 d9 68 c9 ba b9 0f f3 39 6c d8 25 bb a2 0a f7 ba
       -0.001536633 0.00046360286 -0.0025306 -0.0018847773
0001f0 74 81 9b ba ac e9 53 ba c2 e6 75 bb 9d ea 7f 3a
       -0.0011864142 -0.0008083831 -0.0037521576 0.0009762438
000200 6f 7d 9d 40 3d c0 8d be 65 74 41 3f 92 bd 39 c0
       4.9215617 -0.2768573 0.7556823 -2.9021955
000210 ba 03 f1 3b 2c 56 69 40 8e 4d 2b c0 53 37 f8 bf
       0.0073551806 3.6458845 -2.6766086 -1.9391884
000220 ee ce 96 bf bf 35 4d c0 a8 a3 c1 bf 9d 88 a3 bf
       -1.17819 -3.2064054 -1.5128069 -1.2776066
000230 3e 5e 11 3f 6e e4 aa 3f 2d 23 74 be d1 f3 8e 3f
       0.5678443 1.3350961 -0.23841543 1.1168157
000240 1f 53 80 be c4 0a 87 bf 2a 8a 72 3f 03 55 07 c0
       -0.25063416 -1.055016 0.9474207 -2.1145637
000250 dc b2 c3 c0 33 37 4c c0 12 ab 7e bf 29 a5 6c c0
       -6.1155834 -3.190869 -0.9947978 -3.6975806
000260 b9 95 fd bf f7 a0 f0 3f 34 df d6 3f bc 69 f1 3f
       -1.9811317 1.8799123 1.6786866 1.8860393
000270 78 d0 10 be dc e0 20 c0 37 58 a2 3f 85 ee 35 3f
       -0.14142025 -2.5137243 1.2683171 0.71067077
000280 0f 05 43 c0 b4 95 56 c0 cb cb 08 40 23 20 31 3e
       -3.0471838 -3.3528872 2.1374385 0.17297415
000290 ed 46 ae bf 6f 42 8c c0 ba dc 01 40 46 04 8f bf
       -1.3615395 -4.3831096 2.029097 -1.1173179
0002a0 6e 3f aa 3d c3 95 ce be 17 8e 8c c0 4a 59 96 3e
       0.083128795 -0.40348634 -4.392345 0.29364997
0002b0 ea cf 77 40 84 69 15 40 85 0a f0 bf ca f4 4b 40
       3.872065 2.3345652 -1.875321 3.1868157
0002c0 b7 58 b3 bf da 61 db be 57 de 58 3f 6c 57 a1 3f
       -1.4011449 -0.42848092 0.84714264 1.2604804
0002d0 e0 49 d4 bf 28 28 ef 3e 13 b3 bf c0 de 5b e2 3e
       -1.6585045 0.46710324 -5.9906096 0.44210714
0002e0 c8 00 5b 3f f1 39 6a be 84 a6 d4 bf b4 bf af c0
       0.8554807 -0.22873665 -1.6613317 -5.4921513
0002f0 22 56 be bf 8d 10 2d 3f eb b4 60 c0 53 5a 8b bf
       -1.4870036 0.6760338 -3.5110424 -1.088694
000300 64 a7 05 40 68 ab 1a 3f 60 ee ca 3f 5a 10 91 40
       2.0883417 0.60417795 1.5853996 4.533246
000310 a0 78 74 3f 12 20 21 40 7d de cf 3e ff fe 6b 3f
       0.9549656 2.5175824 0.40599433 0.9218597
000320 60 c5 c1 3e a0 5a a4 3f 4a 18 dd 3e 13 e4 03 3f
       0.37845898 1.2840157 0.43182594 0.5151989
000330 5f 34 19 40 4a f3 60 3f e8 1f b5 3e 99 c5 aa 3e
       2.3938215 0.8787123 0.35375905 0.3335388
000340 a2 43 f6 40 ce f9 91 3f ab 4d cd 3e 4b 1d 35 3e
       7.695756 1.1404359 0.40098318 0.17686956
000350 ac a5 8c 3f a7 e3 5b 3f d7 e7 4b 3f df aa 48 40
       1.0988059 0.85894245 0.79650635 3.1354291
000360 5c 7d d4 3f 6c 23 22 3f 95 4d 80 3e ae 3d 02 3f
       1.6600757 0.633353 0.2505919 0.50875366
000370 3e ee e3 3e 30 23 a8 3f cb fc 85 3f 46 51 ac 3e
       0.44517702 1.3135738 1.0467771 0.33655757
000380 14 31 7c 3f 8d 15 87 40 d3 1f d2 3e 95 b3 3c 3e
       0.9851239 4.2213807 0.41039905 0.1842788
000390 09 ee 13 40 7a ac 3c 3f 74 81 35 40 44 eb ce 3e
       2.3114035 0.7370068 2.8360262 0.40413868
0003a0 06 7b dd 3e 33 1f a4 3e a8 25 fd 3f 1c ea 96 3f
       0.43257922 0.32055053 1.9777117 1.1790195
0003b0 e3 af aa 3f e0 ba 21 3f f1 6d 83 3f 8d 20 d2 40
       1.3334926 0.63175774 1.0267926 6.5664735
0003c0 34 73 a5 3e 70 6f a7 3f 2e 9f 78 3e cf b8 b1 3f
       0.32314456 1.3080883 0.24279472 1.3884524
0003d0 f8 5e ba 3f 73 35 ba 3e cd e2 a4 40 fd 2a 13 3f
       1.4560232 0.36368904 5.1526856 0.5748747
0003e0 ea 02 97 3e 6a 34 4d 3f fb 46 da 3e 3f d6 28 41
       0.2949441 0.801581 0.4263228 10.552306
0003f0 93 1b f1 3f 63 09 9c 3e f6 60 d2 40 1b f8 d4 3e
       1.883654 0.30475911 6.574336 0.4159554
