ctpro/Drishti/layers_weights/63_layer.npy (npy, 98432 bytes, 1 tensors)

array f4 [1, 1, 1, 64, 384]
000000 41 8e b2 3c 49 48 70 3d f3 05 0d bb 88 d8 df ba
       0.021796348 0.058662686 -0.0021518439 -0.0017078081
000010 4b 11 bf bd d0 5c 55 bd 89 26 02 bb dd 05 52 3b
       -0.0932947 -0.052090466 -0.0019859395 0.0032046952
000020 34 14 cc 3c 33 7a 87 3d 64 96 01 b9 44 b2 3a ba
       0.024911977 0.066151045 -0.00012358424 -0.00071219006
000030 e3 9f da bc 1f 4f d3 bd 9f ce bb 3c a2 c8 1f bd
       -0.026687568 -0.103178255 0.022925673 -0.039009698
000040 ef 44 fd 3c 1e 76 63 bd c6 2d 0e 3b c0 bd 3a bb
       0.03091666 -0.055532567 0.0021694764 -0.0028494447
000050 a7 b4 89 bd 79 ab 2e bd a2 cf 82 bc 81 7e 59 bd
       -0.0672391 -0.042643998 -0.015968148 -0.05309916
000060 9b 54 4f 3d 1f aa 70 3d 16 44 27 bd 8d d6 22 bd
       0.050617795 0.05875599 -0.040836416 -0.039755393
000070 af 3f 21 bd bc 30 16 bd 0b 19 78 bd e5 af 9e bc
       -0.039367374 -0.03666757 -0.060570758 -0.019370982
000080 ce 1d e6 3c 77 df 00 bc 57 24 d1 bc 8d f1 22 3c
       0.028090384 -0.007865778 -0.025530024 0.0099452855
000090 93 02 08 bc 0b b0 95 bd 0f 87 3d 3d 60 e5 cf bc
       -0.008301395 -0.07308968 0.04627138 -0.02537793
0000a0 9c 39 6e bd 45 46 cf bc 91 af 9a bc 66 21 76 3d
       -0.05816041 -0.025302062 -0.018882545 0.060090445
0000b0 12 73 b7 bd 64 f7 88 bd 72 c6 c2 3c 79 a2 86 bc
       -0.08957495 -0.06687811 0.023776267 -0.016434895
0000c0 40 43 4b bb 31 e1 6e 3d 7d 6e c2 bc c2 50 a7 3c
       -0.0031015426 0.058320228 -0.023734326 0.02042425
0000d0 31 e8 bd bc 74 21 ee bc 38 36 2c bb 2b d0 13 bc
       -0.023182007 -0.029068686 -0.0026277434 -0.009021799
0000e0 2f b2 3a 3d 73 7b ab bd 7c ed 56 bd 72 a0 ec bd
       0.045580085 -0.083731554 -0.052472576 -0.1155404
0000f0 2e 03 38 bd 0b 64 9c bd 16 13 12 3d b3 48 11 3d
       -0.044924907 -0.07636269 0.035662733 0.035469722
000100 e7 96 ac bd 08 7c ef 3c ac ed 35 3c 88 1b 56 3d
       -0.0842722 0.029233947 0.011104029 0.05227235
000110 0f a8 33 bd bb 37 db bc 50 f3 b1 bd 34 80 69 3d
       -0.043861445 -0.026759973 -0.08688986 0.05700703
000120 48 e6 b5 3d 49 07 2c bd fc e3 56 bd 6b 03 69 bd
       0.08881813 -0.041999135 -0.052463517 -0.056888025
000130 f6 e7 a6 3c b4 9f 57 3c 74 6c b3 bd 42 39 62 3d
       0.02037428 0.013160635 -0.0876092 0.055230387
000140 cb 35 77 bd 1b db d6 bc cf 7f cb 3c 34 26 01 bc
       -0.060354035 -0.026227525 0.024841217 -0.0078826435
000150 ab 4f a2 bc da e0 9b 3c 43 f1 14 bc 6d e1 96 bd
       -0.01981338 0.019028116 -0.009090724 -0.07367215
000160 8f 58 9b 3d df 65 87 3c 49 d8 01 3c e7 e8 c2 3b
       0.075852506 0.016528068 0.007925102 0.0059481743
000170 1b 1f 24 3c 06 c5 da 3c 83 1f 6a 3d 08 1f 3d 3d
       0.010017182 0.026705276 0.05715896 0.04617217
000180 04 35 cf 3c 58 80 83 bc c0 38 a5 3b a1 29 85 bb
       0.025293835 -0.01605241 0.0050421655 -0.0040638004
000190 11 32 8f 3c 4d 4d c9 bb f9 41 28 bd aa cc 80 bd
       0.017479928 -0.006143248 -0.04107854 -0.062890366
0001a0 69 09 f4 bc 5a 47 81 3c 42 b7 50 bd 0d 40 69 bb
       -0.029789643 0.015781093 -0.05095602 -0.0035591156
0001b0 a9 69 eb 3d fb ce 20 bd 99 ce 40 3d 78 6e b7 bc
       0.114947625 -0.039259892 0.047072027 -0.022391543
0001c0 e4 c5 54 3c 7f f4 cf bb 08 84 19 bd ae b3 51 bd
       0.012986634 -0.006346285 -0.03747943 -0.051196747
0001d0 1c 1b 1d bc b8 30 5c bc 18 36 05 bd 4e 87 b9 bc
       -0.009588983 -0.01343935 -0.03252229 -0.022647526
0001e0 1f c8 38 bd 29 8e 73 3d 5e 19 c3 3d 83 3f 23 bc
       -0.045112725 0.059461746 0.09526323 -0.009963873
0001f0 92 09 62 bd 24 20 19 3b 7d ee ea 3a ea 97 33 bd
       -0.05518491 0.0023365105 0.0017923858 -0.04384605
000200 4f 9b 05 bd 67 5b 19 3e e3 b8 ed 3d 26 de 68 bb
       -0.032618817 0.14976273 0.1160753 -0.0035532801
000210 cb 5e 30 3d d9 a4 22 bc c5 42 e0 3d 2c 6e 57 bd
       0.04305915 -0.009926998 0.10950235 -0.052595302
000220 e8 e8 66 3d 92 16 fc bc c7 24 55 3c 24 50 ac bc
       0.05637446 -0.030772481 0.013009257 -0.021034308
000230 2a f6 92 3c 50 17 9c bc 19 3f f0 bb fa 35 ab bd
       0.017939646 -0.019054085 -0.0073317406 -0.083599046
000240 8e e2 34 bb 0d bc 88 bd 7d 74 f1 bc 0f ea 45 3d
       -0.0027600857 -0.06676493 -0.029474491 0.04831892
000250 37 d3 6b 3d bb a8 8a bc e7 7b 0a 3e 82 95 b2 bb
       0.057574477 -0.01692616 0.13523827 -0.0054499516
000260 50 ea 67 3d fa 5a 06 bc 67 16 cb bd 64 3f 4a bd
       0.056619942 -0.008200401 -0.09916382 -0.04937686
000270 bf c6 41 3c c9 53 42 bd 5d a7 91 bc 2c d9 a1 bd
       0.01182717 -0.047443185 -0.01778 -0.079027504
000280 ab d8 20 3d 53 d4 e8 3a 91 4a 09 bd 16 2b 64 bd
       0.03926913 0.0017763473 -0.033518378 -0.055705152
000290 b6 87 e1 bc 28 67 42 3c bd 21 63 bd 28 3d af 3d
       -0.027530532 0.011865415 -0.055452097 0.085565865
0002a0 e0 16 02 bd 27 bd bb bc 60 a9 31 bc ac 38 81 bc
       -0.031760097 -0.022917343 -0.010843605 -0.015774094
0002b0 22 18 e7 bc c6 d1 19 bd 6d 35 e4 3d 4f c0 50 3d
       -0.02820975 -0.03755357 0.11143003 0.05096465
0002c0 64 63 6f bd 73 4d dd bd 37 2a 6b bc 82 b9 a8 bd
       -0.058444396 -0.10805788 -0.0143533265 -0.08238508
0002d0 e0 5f 45 3b ae 6f ac bd 11 75 66 3d fa 68 4d bc
       0.003011696 -0.08419739 0.056263987 -0.012537235
0002e0 52 bf 00 3d e7 2a b8 3d e4 b6 b0 bc b0 54 f0 bd
       0.031432457 0.08992558 -0.021571584 -0.11734903
0002f0 ac a2 ee 3c 17 29 25 bb 3d b4 4a bb 23 a2 af bd
       0.029130302 -0.0025201493 -0.0030930184 -0.08575847
000300 52 2c 45 bd 1c f1 07 bb 2f 6a 84 3d 19 2a 5b 3d
       -0.04813797 -0.0020743078 0.064655654 0.053506944
000310 62 91 5c 3d fe 09 80 bc dc e4 d5 3d d2 ba 05 bd
       0.053849585 -0.015629765 0.10444042 -0.03264887
000320 bc 1d 40 3d 5d 6a 85 bd 68 d7 d5 bd 54 68 58 3c
       0.046903357 -0.06514428 -0.10441476 0.0132084675
000330 51 61 9b 3b 63 6f 1b 3d 4c 70 2a bd c2 d3 09 bd
       0.0047418256 0.037948024 -0.041611 -0.033649214
000340 c4 8c 27 bd af dd b4 3c 12 37 c8 bc 9b e4 7a 3c
       -0.04090573 0.022078363 -0.024440322 0.015313293
000350 cf 1d 6f 3b e0 0a b3 3b b4 9a 81 bd 3a 2b f6 3a
       0.0036486273 0.005463943 -0.063283354 0.0018781193
000360 1b 41 ae bb 78 40 48 3d 81 6a 03 3d 06 03 ca bd
       -0.00531782 0.048889607 0.032083992 -0.09863858
000370 2e 1d 1d bd d5 19 18 bb 85 8f c6 3d 0b 48 d1 bc
       -0.038357906 -0.0023208756 0.09695343 -0.025547048
000380 71 1b 9c 3a 7e b7 6b bc 71 f9 5c 3d 1d 7f 62 bc
       0.0011910034 -0.01438701 0.053948823 -0.0138242515
000390 ae 25 89 3c 72 1a 6d bc 6d 94 b4 bd c8 dc 88 bd
       0.0167416 -0.014471637 -0.088173725 -0.06682736
0003a0 93 3a b1 bd 49 9c 51 bd 09 d6 eb bc 40 1c ac 3c
       -0.0865375 -0.051174436 -0.028788583 0.021009564
0003b0 39 14 b6 3c 76 54 11 bd 75 6d 0b 3c fc 45 a1 3d
       0.02222644 -0.03548094 0.008509983 0.078746766
0003c0 06 cf db 39 8a d2 1a bc 74 c8 e2 bb ea 86 f3 bc
       0.0004192518 -0.0094496105 -0.0069208685 -0.029727418
0003d0 d4 b7 75 bd 8b 7d 82 bd 0d 93 7b bd b1 9a 64 bd
       -0.059989765 -0.06371602 -0.061419535 -0.055811588
0003e0 f6 5b 92 bd 0e 84 02 bd c4 ad 43 bd 92 28 81 bd
       -0.071464464 -0.03186422 -0.047773138 -0.06306566
0003f0 6a e0 12 bc f2 a9 58 bd dc 10 9c 3c d0 27 35 bd
       -0.008964637 -0.052896447 0.019051008 -0.04422742
