ctpro/Drishti/layers_weights/69_layer.npy (npy, 98432 bytes, 1 tensors)

array f4 [1, 1, 1, 384, 64]
0.10184203 0.0288377 -0.07925635 -0.0464101 -0.037902907 -0.04858845 0.01422363 0.050328095
0.021112703 -0.0065933825 -0.060693 0.08361378 -0.028589938 0.044841647 -0.1325174 -0.024561763
-0.017469091 0.08961403 -0.07927995 -0.01875552 0.08086688 -0.08362062 -0.087601036 -0.01855294
0.013854307 0.03514283 0.0746929 0.010435334 0.06486593 0.022091625 0.037444096 0.04726954
-0.061665606 -0.10139806 -0.038072146 0.0065913014 0.04955992 0.020490238 -0.013629623 0.049164206
-0.030909767 -0.0042449217 -0.053486712 0.07791012 0.0041364743 0.027312217 -0.026123494 0.005748126
-0.017425425 -0.012890229 0.0067207054 -0.092151746 0.030872753 -0.010850069 0.06655027 -0.038563486
0.052814167 -0.008523572 0.039548207 -0.08641748 -0.022493487 -0.05495075 -0.0051453966 0.061800145
-0.10372285 0.05380546 -0.023124674 0.04586801 -0.023900885 0.109697096 0.012646255 -0.028033158
-0.006281566 0.053814635 0.0069208266 -0.050982393 0.049334936 0.018596752 -0.040145528 -0.078582555
-0.029735772 0.09095683 -0.0491569 -0.0017380338 -0.07288494 -0.0258852 0.058004007 -0.01699065
-0.0012794533 0.024223788 -0.04374923 -0.016931344 -0.0010519098 -0.043471146 -0.0009709133 -0.014032272
0.039542206 -0.03470619 -0.011412948 0.011729169 -0.0027005821 -0.026837721 0.027490303 0.021030538
-0.038662814 0.006296113 -0.054895457 -0.017127328 -0.036733 -0.0039030353 -0.019901857 -0.017108252
-0.047145102 0.0981594 -0.018659176 0.009192474 0.09144026 -0.024105586 0.03762325 -0.02973336
-0.054769497 -0.09592391 -0.048341896 0.018670399 -0.061118618 -0.043911915 0.031197837 0.0065732487
0.02493106 -0.01857927 -0.05330469 0.0046393173 -0.0369628 0.03403713 -0.043098357 0.026188856
0.027116643 -0.019450016 0.01454332 -0.034993615 0.0332138 -0.004331808 0.02924648 0.012913992
0.04306589 0.00037456106 0.013227059 0.07031387 -0.032935377 0.0074925385 0.049012147 0.006361563
-0.026772168 -0.025389438 -0.029199753 0.0030883348 -0.011757787 -0.015617676 0.12780938 -0.029361866
-0.043675683 0.029476235 -0.05325236 -0.0057434193 -0.026685081 -0.024719683 -0.02971685 0.018984413
-0.020063585 0.172071 0.021070985 -0.029867876 0.011719986 -0.02275345 0.022500006 0.017889794
0.027001468 -0.031386685 -0.10279577 -0.036923528 -0.00046242168 0.042306595 -0.04847299 0.044258017
-0.0018838551 -0.022697119 -0.0102712875 0.05147952 -0.03466482 0.07161798 -0.017948184 -0.05232419
-0.03723367 0.03693447 -0.01681468 0.014681829 0.011492319 0.039734747 0.022450522 0.0016057957
-0.01635698 -0.017805325 0.014459907 0.025533937 0.010683225 0.04607414 0.007813499 -0.020794936
0.019499248 0.04459754 0.027555961 -0.1320496 0.017498335 -0.0021025143 -0.028016476 -0.0015891526
-0.0123537015 0.0073746825 0.027146542 0.022375595 -0.012953584 0.010711341 0.062806316 0.022745471
-0.005564741 -0.012119033 0.017016422 -0.120444246 0.05865764 -0.018677555 0.032220315 -0.07763713
0.009623273 -0.037571628 0.0025062477 -0.016630111 -0.072479695 0.016285798 0.05544491 -0.01285506
-0.018608421 0.005980738 0.030819086 -0.07926668 0.0147005 0.061912324 0.0014377333 0.009839822
-0.056644388 0.02363053 -0.005434689 -0.039180342 0.0149842575 -0.034675654 -0.018853204 0.0013573266
00000000: 8e92 d03d 0a3d ec3c 2751 a2bd 8418 3ebd
00000010: 1440 1bbd af04 47bd 3a0a 693c d524 4e3d
00000020: 8cf4 ac3c 4d0d d8bb 3999 78bd b43d ab3d
00000030: 7235 eabc e0ab 373d a4b2 07be c035 c9bc
00000040: 571b 8fbc 9087 b73d 875d a2bd 2da5 99bc
00000050: 899d a53d 4a41 abbd 2c68 b3bd 56fc 97bc
00000060: 2dfd 623c eef1 0f3d 97f8 983d f7f8 2a3c
00000070: 6ed8 843d 7ff9 b43c fb5e 193d b59d 413d
00000080: 1395 7cbd c9a9 cfbd 8af1 1bbd d8fb d73b
00000090: 58ff 4a3d 25db a73c c84e 5fbc 6860 493d
000000a0: 7b36 fdbc fc18 8bbb e214 5bbd 578f 9f3d
000000b0: 438b 873b dfbd df3c f000 d6bc c75a bc3b
000000c0: c4bf 8ebc 8a31 53bc 5d39 dc3b 0eba bcbd
000000d0: dbe8 fc3c 7dc4 31bc 824b 883d bff4 1dbd
000000e0: ab53 583d 74a6 0bbc 4dfd 213d a6fb b0bd
000000f0: 4344 b8bc 0a14 61bd b79a a8bb 2622 7d3d
00000100: a56c d4bd 1d63 5c3d f56f bdbc 18e0 3b3d
00000110: cacb c3bc dfa8 e03d 3d32 4f3c cba5 e5bc
00000120: 98d5 cdbb bc6c 5c3d 1ac8 e23b ead2 50bd
00000130: 6e13 4a3d 3758 983c a36f 24bd e4ef a0bd
00000140: 6f98 f3bc 9347 ba3d bf58 49bd bdce e3ba
00000150: b344 95bd 330d d4bc 9c95 6d3d fa2f 8bbc
00000160: 54b3 a7ba f770 c63c 6532 33bd 9ab3 8abc
00000170: 3ce0 89ba cd0e 32bd e384 7eba 9de7 65bc
00000180: 02f7 213d 1428 0ebd 60fd 3abc b32b 403c
00000190: 40fc 30bb c8da dbbc 5833 e13c 3c48 ac3c
000001a0: e65c 1ebd a04f ce3b 0fda 60bd 9c4e 8cbc
000001b0: 5875 16bd 11ca 7fbb 3809 a3bc 9b26 8cbc
000001c0: 391b 41bd cc07 c93d 21db 98bc 089c 163c
000001d0: 0845 bb3d 1479 c5bc d61a 1a3d 6093 f3bc
000001e0: fb55 60bd c173 c4bd 2702 46bd aaf2 983c
000001f0: 8457 7abd fbdc 33bd 9b92 ff3c 6864 d73b
00000200: 393c cc3c 8e33 98bc 0556 5abd 6a05 983b
00000210: 4e66 17bd 856a 0b3d e787 30bd 038a d63c
00000220: b923 de3c a455 9fbc 1b47 6e3c 7755 0fbd
00000230: 320b 083d d7f1 8dbb 5096 ef3c 3595 533c
00000240: dc65 303d bc60 c439 4eb6 583c b800 903d
00000250: 3fe7 06bd f883 f53b f6c0 483d a974 d03b
00000260: 4e51 dbbc 83fd cfbc 5234 efbc a965 4a3b
00000270: bca3 40bc 48e1 7fbc 76e0 023e 4c88 f0bc
00000280: 46e5 32bd 2578 f13c 261f 5abd 4b33 bcbb
00000290: ac9a dabc ef80 cabc c070 f3bc 3385 9b3c
000002a0: 635c a4bc 6133 303e 0f9d ac3c 7aad f4bc
000002b0: 2f05 403c 7165 babc ef51 b83c 9e8d 923c
000002c0: 2f32 dd3c 538f 00bd 9786 d2bd 203d 17bd
000002d0: 3071 f2b9 ae49 2d3d 9d8b 46bd e547 353d
000002e0: b0eb f6ba 4fef b9bc e748 28bc 30dc 523d
000002f0: b3fc 0dbd 73ac 923d 1208 93bc e451 56bd
00000300: 5582 18bd 9948 173d f1be 89bc 0e8c 703c
00000310: 484a 3c3c e7c0 223d 28ea b73c 9079 d23a
00000320: 13ff 85bc 79dc 91bc 3fe9 6c3c 8c2c d13c
00000330: b108 2f3c 3db8 3c3d 3104 003c 245a aabc
00000340: e3bc 9f3c e9ab 363d 0abd e13c 0338 07be
00000350: ab58 8f3c 56ca 09bb cf82 e5bc 1d4b d0ba
00000360: 2e67 4abc 52a7 f13b 6d62 de3c 064d b73c
00000370: 453b 54bc 9f7e 2f3c 99a0 803d b654 ba3c
00000380: 6e58 b6bb e98e 46bc 0666 8b3c 79ab f6bd
00000390: fe42 703d ac01 99bc 73f9 033d 3700 9fbd
000003a0: efaa 1d3c b5e4 19bd dc3f 243b df3b 88bc
000003b0: 3c70 94bd cb69 853c 341a 633d 089e 52bc
000003c0: b070 98bc 11fa c33b 4f78 fc3c 9256 a2bd
000003d0: 5eda 703c c797 7d3d 5372 bc3a 3437 213c
000003e0: f203 68bd d094 c13c 7a15 b2bb 917b 20bd
000003f0: 8880 753c 0f08 0ebd 0972 9abc 53e8 b13a
