ctpro/Drishti/layers_weights/70_layer.npy (npy, 1152 bytes, 1 tensors)

array f4 [4, 64]
0	0x3f677a90	0.9042139
1	0x3f9076e9	1.1286288
2	0x3f4ffb25	0.8124259
3	0x3f2fd918	0.68690634
4	0x3f8f299c	1.1184573
5	0x3f31f202	0.695099
6	0x4004e65f	2.0765607
7	0x3f82c769	1.0217105
8	0x3fe9b7e4	1.8259244
9	0x3f6f12f2	0.93388283
10	0x3ffeb54b	1.9899076
11	0x3fe2dfbc	1.7724528
12	0x3f3fc235	0.7490571
13	0x3f9ab243	1.2085651
14	0x404957e6	3.14599
15	0x4016eb4f	2.358112
16	0x3f312075	0.6919015
17	0x3f7f2b99	0.996759
18	0x400a05d3	2.1566055
19	0x40a40142	5.1251535
20	0x3fa1a2b6	1.262778
21	0x3f8b35cd	1.0875794
22	0x3f9e22ac	1.2354331
23	0x3f31ab7d	0.69402295
24	0x3f6017e5	0.8753646
25	0x400ac6d1	2.1683848
26	0x400c0b36	2.1881843
27	0x3fb47840	1.4099197
28	0x3fca64bb	1.581199
29	0x3f7afe1a	0.9804398
30	0x40b70f9e	5.7206564
31	0x40233a8b	2.5504482
32	0x3f918658	1.1369123
33	0x3f2a5206	0.6653141
34	0x400218a6	2.0327544
35	0x4045efcc	3.092761
36	0x3f4f5466	0.80988157
37	0x3fec7d74	1.8475785
38	0x3f328477	0.69733375
39	0x402b02e1	2.6720507
40	0x3fe74a63	1.8069576
41	0x40a9406c	5.289114
42	0x3f502b6e	0.8131627
43	0x3f69b4d0	0.9129152
44	0x3f669dce	0.9008454
45	0x3fc2b524	1.521153
46	0x3f9c4399	1.2208129
47	0x3f1e1e22	0.6176473
48	0x40438c04	3.0554209
49	0x3f7d9777	0.9905924
50	0x405dc3f9	3.4650862
51	0x3f7305a2	0.9493047
52	0x3f76af5e	0.9636134
53	0x405f5dc0	3.490097
54	0x3f21ec20	0.63250923
55	0x4000f325	2.0148404
56	0x403bcffd	2.9345696
57	0x3fc09445	1.5045248
58	0x3fb2d3cf	1.3970889
59	0x3f2e9e4c	0.6821029
60	0x3f63691d	0.88832265
61	0x40589060	3.383812
62	0x3f2676fc	0.65025306
63	0x40138e83	2.3055732
64	0x3a4e9bb8	0.000788148
65	0x3ac940a3	0.0015354346
66	0x394da154	0.00019610423
67	0xba1876d9	-0.00058160495
68	0xbb85c1ff	-0.004081964
69	0xba41adbd	-0.0007388255
70	0x3a75babc	0.0009373834
71	0xbaf66b88	-0.0018800357
72	0xba6aa7a2	-0.0008951371
73	0x3b69b2d8	0.0035659578
74	0xbb0c1c9d	-0.002137936
75	0xbb05437f	-0.002033442
76	0xb893b676	-7.043492e-05
77	0xbb117b84	-0.0022198865
78	0xbb2a513e	-0.0025988366
79	0x39d38401	0.00040343407
80	0x39af09a0	0.00033385772
81	0xbac42407	-0.001496435
82	0xbb02d334	-0.0019962313
83	0x3b527854	0.0032115178
84	0x3b92805e	0.004470869
85	0x396440ce	0.00021767916
86	0x37b9aefd	2.2135204e-05
87	0x3a880ff1	0.0010380727
88	0xbacb4416	-0.0015507962
89	0x3b610428	0.0034334753
90	0x3abee3a4	0.0014563692
91	0x3b4c87ec	0.0031208945
92	0xb99b9831	-0.00029677295
93	0x3af0790b	0.001834662
94	0x3a4abc21	0.0007733722
95	0x3a2ee3e2	0.00066715304
96	0x389ed8dc	7.57442e-05
97	0x3ac1dc7d	0.0014790442
98	0x3a3553ff	0.00069171184
99	0x3b0aa528	0.002115557
100	0xbb0a5e10	-0.0021113195
101	0x39c628b7	0.00037795838
102	0xbb5aafaf	-0.0033368876
103	0x3acb5041	0.0015511588
104	0xb9f8ccd0	-0.00047454843
105	0x3b5e2c33	0.0033900857
106	0x3afd68c7	0.0019333594
107	0x39ca590e	0.00038594793
108	0xb9846ce6	-0.00025258138
109	0xbabb1a81	-0.0014274867
110	0xbb4a6005	-0.0030879986
111	0xb9c33d50	-0.0003723898
112	0xb96a7a12	-0.00022361454
113	0x3b9ca12e	0.0047799563
114	0xbad25379	-0.0016046605
115	0x3a6f6d15	0.0009133381
116	0x3ac94886	0.0015356697
117	0x3a0a047e	0.00052649516
118	0xba0a07a6	-0.0005265422
119	0xbb26977a	-0.0025419877
120	0xb9a1e016	-0.0003087527
121	0x3a09585e	0.0005239303
122	0xba75d61e	-0.0009377914
123	0xbad56260	-0.0016279928
124	0xb9fc96d6	-0.00048177567
125	0xba5dc733	-0.0008460164
126	0xbb88c3e0	-0.0041737407
127	0x3a9e3053	0.0012068845
128	0xbec34f3f	-0.38146397
129	0x3ea421b0	0.32056952
130	0x3df35146	0.11880736
131	0xbe87d704	-0.2653123
132	0x3c7fb6d3	0.0156075535
133	0xbe102f15	-0.1408046
134	0x3ea5fb07	0.3241808
135	0xbe35bc56	-0.17747626
136	0xbdaa5f10	-0.08318913
137	0x3e870388	0.26369882
138	0x3ef46d98	0.47739863
139	0xbe80bce2	-0.25144106
140	0xbdac4c2a	-0.08412965
141	0x3eb689fe	0.35652155
142	0x3e0a661e	0.13515517
143	0xbf34c36e	-0.706107
144	0xbe2f9c9d	-0.17149587
145	0x3eccfe3b	0.40037712
146	0xbf5fabb8	-0.87371397
147	0x3e37f290	0.17963624
148	0xbdc5f009	-0.09664924
149	0x3f89833b	1.0743173
150	0xbf008c24	-0.5021384
151	0x3e36d39a	0.17854157
152	0xbe647318	-0.2230953
153	0x3e14ccb2	0.1453121
154	0xbd6dc033	-0.058044624
155	0x3e4553bc	0.19270223
156	0xbf5d5e2b	-0.86471814
157	0xbeec45c7	-0.46146986
158	0x40219fe5	2.5253842
159	0x3f62aaca	0.88541853
160	0xbee8d9e4	-0.45478737
161	0xbd733f40	-0.05938649
162	0x3f09340b	0.53595036
163	0xbee89f48	-0.45434022
164	0x3f10d73f	0.5657844
165	0x3b9692cb	0.004595136
166	0xbf28f3a4	-0.65996766
167	0x3f1dada0	0.61593056
168	0x3e2460b0	0.16052508
169	0x3faec5dd	1.3654133
170	0xbd690a41	-0.056894545
171	0xbeed61b2	-0.46363598
172	0xbea7f35b	-0.32802853
173	0xbd34afd6	-0.044113003
174	0x3f188f6a	0.5959383
175	0x3d507f06	0.05090239
176	0x3f12a276	0.57279146
177	0x3e299ce9	0.16563763
178	0x3db0f7e6	0.08641033
179	0x3f27bcc8	0.6552243
180	0x3eab032e	0.33400863
181	0x3e5854c3	0.21126084
182	0xbef133eb	-0.47109923
183	0x3e43fa91	0.19138552
184	0xbed61d16	-0.41819066
185	0xbd22db85	-0.03976013
186	0x3f2e157c	0.6800153
187	0xbf61465f	-0.87998
188	0xbf0f5720	-0.5599232
189	0xbf066386	-0.5249561
190	0x3da1987e	0.07890414
191	0xbe056382	-0.1302624
192	0x3e25d4e5	0.16194494
193	0x3e0610ab	0.13092296
194	0x3df2ab79	0.11849112
195	0x3e10d675	0.14144309
196	0x3e19688f	0.14981292
197	0x3df7d6e6	0.121015355
198	0x3e8718ac	0.2638601
199	0x3e0be9d6	0.1366342
200	0x3e47b5a9	0.19502892
201	0x3e0d3a13	0.13791685
202	0x3e7a842f	0.24464487
203	0x3e565f7c	0.20934862
204	0x3df4741b	0.11936208
205	0x3e2f1d7d	0.17101093
206	0x3edf8ae5	0.43660656
207	0x3e63ac86	0.22233781
208	0x3e56e6be	0.20986459
209	0x3e07d049	0.13263048
210	0x3e6df40c	0.23237628
211	0x3fb5d929	1.4206897
212	0x3e3fd21f	0.18732499
213	0x3e1bf52c	0.15230244
214	0x3e30b173	0.17255192
215	0x3e08cd28	0.13359511
216	0x3e078afb	0.1323661
217	0x3e866cc7	0.26254866
218	0x3e954dd9	0.29160956
219	0x3e1b4ec7	0.1516677
220	0x3e227f40	0.15868855
221	0x3e1fb1c3	0.15595154
222	0x3fdfee29	1.7494556
223	0x3ebb68f9	0.36603525
224	0x3e202379	0.15638532
225	0x3e1c2398	0.15247953
226	0x3e7855a5	0.24251421
227	0x3ea93a34	0.33052218
228	0x3e31b321	0.17353489
229	0x3e87f38b	0.26552996
230	0x3df2253a	0.11823507
231	0x3e933dbe	0.28758043
232	0x3e59151b	0.21199457
233	0x3f9dc973	1.2327102
234	0x3e048f42	0.12945274
235	0x3df6d64e	0.12052594
236	0x3e021679	0.12703885
237	0x3e387d7d	0.1801662
238	0x3e24e8b8	0.161044
239	0x3e1ece54	0.15508395
240	0x3eb18a7a	0.34675962
241	0x3e09ebb0	0.13468814
242	0x3efc911e	0.49329466
243	0x3e17f753	0.1484044
244	0x3e13c855	0.1443189
245	0x3ef62fae	0.48083252
246	0x3e2507f3	0.16116314
247	0x3e72fb84	0.23728758
248	0x3ec3078f	0.38091704
249	0x3e3d6163	0.18494181
250	0x3e1bd945	0.152196
251	0x3e84b290	0.25917482
252	0x3e16e3fe	0.1473541
253	0x3eef35fe	0.4672088
254	0x3e3ab2de	0.18232295
255	0x3eacb436	0.3373124
