ctpro/Drishti/layers_weights/75_layer.npy (npy, 13952 bytes, 1 tensors)

array f4 [1, 3, 3, 384, 1]
0	0xbe5e9278	-0.21735561
1	0xbe8475e7	-0.25871202
2	0x3d7bd354	0.061480835
3	0xbf0f402f	-0.5595731
4	0x3de1986d	0.11015401
5	0x3e804f5c	0.25060546
6	0xbd94c067	-0.0726326
7	0x3dc1ae83	0.094571136
8	0x3e84bcaf	0.25925204
9	0x3e0e30a0	0.13885736
10	0xbf41d417	-0.7571425
11	0x3e1ee47c	0.15516847
12	0xbd9de649	-0.07709939
13	0xbef5c596	-0.4800231
14	0x3eb276dd	0.3485631
15	0x3e4c683a	0.19961634
16	0xbece5e5c	-0.40306365
17	0x3e86f3b7	0.26357815
18	0xbeb178fe	-0.34662622
19	0x3e6b74fd	0.22993846
20	0xbe44968f	-0.19198059
21	0x3eff280c	0.4983524
22	0x3e6f9d28	0.23399794
23	0x3f08a404	0.5337527
24	0x3e1755de	0.1477885
25	0x3dd28165	0.10278586
26	0x3ef0b3ab	0.47012076
27	0xbed7bc7e	-0.42135996
28	0x3e9b73a0	0.30361652
29	0xbe0fb8d0	-0.14035344
30	0xbf1bc07c	-0.6084058
31	0x3e07cbe3	0.1326137
32	0x3ead3288	0.33827615
33	0xbcb30eae	-0.021857586
34	0xbf112324	-0.56694245
35	0x3e97a72c	0.2961973
36	0x3f970076	1.1797016
37	0xbec784cc	-0.38968503
38	0xbe380ae8	-0.1797291
39	0x3eae1ee8	0.34007955
40	0x3d7d7694	0.061880663
41	0x3ec7f4bb	0.39053902
42	0xbe0c1bb0	-0.13682437
43	0x3cc22e74	0.023703791
44	0xbde17fa1	-0.110106714
45	0xbef02cd7	-0.4690921
46	0xbebf4114	-0.37354338
47	0x3e434af6	0.19071564
48	0x3e0603b1	0.13087346
49	0xbe763552	-0.24043778
50	0x3e718edb	0.23589651
51	0x3e51eb99	0.2050003
52	0xbdab9986	-0.08378892
53	0x3e38421f	0.17993973
54	0x3e985838	0.29754806
55	0x3e3bd545	0.18343075
56	0x3da55bb4	0.080741316
57	0x3f3e47df	0.74328417
58	0xbec89992	-0.39179665
59	0x3df90777	0.12159627
60	0xbeba060d	-0.3633274
61	0xbe64194d	-0.22275276
62	0x3e93aeb4	0.28844225
63	0x3e0e9745	0.13924892
64	0xbe3cc0d2	-0.1843293
65	0xbdcdd363	-0.100500844
66	0xbe30f04d	-0.17279167
67	0xbea36940	-0.31916237
68	0x3e0b0c9a	0.13579026
69	0xbf6a37b5	-0.9149125
70	0x3f032ac5	0.51237136
71	0x3b51f714	0.003203814
72	0x3ea5f08e	0.3241009
73	0x3dcc0f59	0.09963865
74	0xbd440bef	-0.047862943
75	0xbcd2c710	-0.025729686
76	0xbf16e30d	-0.589402
77	0x3def30fc	0.11679265
78	0xbf122451	-0.57086664
79	0x3eab8b4b	0.3350471
80	0x3f433d09	0.7626501
81	0xbc5e8339	-0.013581091
82	0x3e97775d	0.29583254
83	0x3e986cc5	0.29770485
84	0x3e2b1902	0.16708758
85	0xbec1bb3b	-0.37838158
86	0x3eb6eb0e	0.35726207
87	0x3e9d894c	0.30768812
88	0x3e89acc3	0.2688962
89	0x3eb73e3f	0.35789678
90	0x3dd33b11	0.103140004
91	0xbebd3bba	-0.3695963
92	0x3f5eb7dd	0.86999303
93	0x3f533337	0.8250002
94	0x3ea674d8	0.3251102
95	0xbe5b693c	-0.21426862
96	0x3f1efd54	0.621053
97	0x3e81a074	0.2531773
98	0x3e952890	0.2913251
99	0x3d62c424	0.055362836
100	0x3dfbf12a	0.12301858
101	0x3d5e9791	0.054343764
102	0xbe8b2f08	-0.2718432
103	0xbe99868b	-0.2998546
104	0x3edb3bbf	0.4281902
105	0xbe1245eb	-0.14284484
106	0x4007ba4f	2.1207464
107	0xbd8adeb3	-0.06780758
108	0xbe194beb	-0.14970367
109	0xbe869288	-0.2628367
110	0x3e08104e	0.1328747
111	0xbdf552e4	-0.11978701
112	0xbe3df1f5	-0.1854933
113	0x3de9c7bf	0.11415052
114	0xbe952fc6	-0.2913801
115	0x3f5af896	0.8553556
116	0x3f2bc724	0.6710074
117	0xbf77fb32	-0.9686767
118	0xbe25521f	-0.16144608
119	0xbc818e35	-0.01581488
120	0x3f075276	0.528602
121	0x3f9c06ea	1.218961
122	0x3e135246	0.14386854
123	0x3ee22d64	0.44175255
124	0x3c734fc2	0.014850559
125	0xbe72ece6	-0.23723182
126	0x3b38a84b	0.0028176482
127	0x3e0388ee	0.12845203
128	0x3f2d26e4	0.6763747
129	0xbf19a714	-0.60020566
130	0xbee7999f	-0.4523439
131	0xbf0d527a	-0.55203974
132	0x3dbe635f	0.09296297
133	0xbe92c0bf	-0.2866268
134	0x3eb6c1d6	0.3569476
135	0xbc722231	-0.01477866
136	0xbf355432	-0.70831597
137	0x3e548286	0.20752916
138	0xbe8c7777	-0.27434894
139	0x3e0377f4	0.12838727
140	0xbe21c0a9	-0.1579615
141	0xbeb2428c	-0.34816396
142	0xbed7d120	-0.42151737
143	0xbc119927	-0.008886612
144	0x3f047e14	0.5175488
145	0x3e3dd3c6	0.18537816
146	0x3db8a212	0.090152875
147	0x3ec90335	0.3926026
148	0xbddf2e96	-0.108975574
149	0x3f514982	0.8175279
150	0x3eb84443	0.3598958
151	0xbc905245	-0.017617354
152	0xbe5d56cd	-0.21615143
153	0x3eb57e95	0.35448137
154	0xbd72edc7	-0.059308793
155	0x3df52921	0.11970735
156	0x3eb50db5	0.3536202
157	0xbf21e1f3	-0.63235396
158	0xbdcc9501	-0.09989358
159	0xbeb4ec62	-0.35336596
160	0x3e55fb30	0.20896602
161	0x3eb014c2	0.34390837
162	0x3dd0907e	0.1018381
163	0x3cf843b3	0.030305719
164	0x3e3b077e	0.18264577
165	0x3c9d08c0	0.019169211
166	0xbf0a126a	-0.5393435
167	0x3e003948	0.12521851
168	0x3eead02d	0.4586195
169	0x3e02b6c3	0.1276503
170	0x3f3eb60a	0.7449652
171	0xbe07c049	-0.13256945
172	0x3f3187d8	0.69347906
173	0x3e37bec6	0.17943868
174	0xbf095e2b	-0.53659314
175	0x3d2042a3	0.03912605
176	0x3f4fc01b	0.81152505
177	0x3f1e757e	0.6189803
178	0x3ea37ebd	0.3193263
179	0xbf3410fd	-0.7033842
180	0x3d12e8a7	0.035866406
181	0xbd431beb	-0.047634047
182	0xbec6c164	-0.3881942
183	0xbe857324	-0.26064408
184	0x3dabb758	0.083845794
185	0x3e77e319	0.24207725
186	0x3ea52efa	0.32262403
187	0x3f22a434	0.63531804
188	0xbb893315	-0.0041869977
189	0x3e6acb89	0.22929205
190	0xbe204583	-0.15651517
191	0xbe9ad3e9	-0.302398
192	0x3f08dde9	0.5346361
193	0x3e0cd009	0.13751234
194	0xbd884258	-0.06653279
195	0xbf074546	-0.5284008
196	0x3f7eb079	0.99488026
197	0x3e99f7b3	0.30071792
198	0xbe6131c6	-0.21991643
199	0x3e4cc238	0.19995964
200	0x3e8ed48c	0.27896535
201	0x3e593873	0.2121294
202	0xbf059099	-0.52173764
203	0x3eec4caa	0.4615224
204	0x3e90e08a	0.2829631
205	0x3d7d3d39	0.061825965
206	0xbdb918df	-0.09037947
207	0x3f34b055	0.7058156
208	0x3e85176d	0.25994435
209	0xbeb0818f	-0.34473845
210	0x3e500875	0.20315726
211	0x3d487378	0.048938245
212	0xbcff4221	-0.031159462
213	0x3ea98162	0.33106524
214	0x3ee855b2	0.4537788
215	0x3eab4147	0.3344824
216	0x3f27a3c7	0.6548428
217	0x3f2498cf	0.6429567
218	0xbe9de1f5	-0.30836454
219	0x3d91c7b1	0.07118166
220	0xbf5c88e5	-0.86146384
221	0xbf819c50	-1.0125828
222	0xbdd6433f	-0.10462045
223	0x3e05afbb	0.13055317
224	0xbe8655c6	-0.26237315
225	0x3f1a6c9f	0.6032199
226	0x3f859caf	1.0438441
227	0x3f6f91ee	0.93582046
228	0xbe27e8bd	-0.16397376
229	0x3e4fe00c	0.20300311
230	0xbf230316	-0.63676584
231	0xbea0c590	-0.31400728
232	0xbcc8bf39	-0.024505245
233	0xbe90abb6	-0.28256005
234	0xbee1cf23	-0.44103345
235	0x3f755c5d	0.9584406
236	0x3dd25872	0.10270776
237	0x3e1c2cc7	0.15251456
238	0xbdfde8df	-0.12397932
239	0x3eab13fa	0.33413678
240	0xbcc9d11b	-0.024635842
241	0xbf0f2a4c	-0.55923915
242	0x3cb42b56	0.02199332
243	0x3ec1992c	0.37812173
244	0x3e309500	0.17244339
245	0x3d8f8ebf	0.070096485
246	0x3eb22a48	0.34797883
247	0x3d8ea797	0.06965559
248	0xbf2b1814	-0.66833615
249	0xbf18c546	-0.59676015
250	0xbeca3c47	-0.39499113
251	0x3d176798	0.03696403
252	0x3f09a435	0.53766185
253	0xbe962c21	-0.29330543
254	0x3e1b0d39	0.15141763
255	0x3e1f8cf3	0.15581112
