ctpro/Drishti/layers_weights/78_layer.npy (npy, 98432 bytes, 1 tensors)

array f4 [1, 1, 1, 384, 64]
00000000: aea3 91bd 8aa5 c63a fc3a 3a3d 8d02 cbbd
00000010: b813 c13b ba1f b13c ae80 233d 4008 723d
00000020: 43de c53c a15a 7b3d 1dad adbc 17b9 b53c
00000030: 2108 79bd 81b6 0cbd 09a1 393c e66c d8bb
00000040: 2455 adbc 592f 01be 3b72 363c 40e9 afbc
00000050: 4538 893c 4000 893c 7124 703c 2a00 58bd
00000060: c51b 09bd 5346 4b3d 16b7 1c3c 4bdd efbc
00000070: f7fb 0f3d 0a29 2c3d 8bc9 17bd cd08 103d
00000080: 47b8 ddbc 0847 893b b49f 68bc 9425 373b
00000090: 67de 9b3c 5868 9e3d 0dcc 8b3d 4beb 3d3d
000000a0: 7837 e6bc 8dd5 a4bc 5b2a 8bbd 6983 86bd
000000b0: bc9c fe3c 4f03 8b3c f847 93bc 6739 113d
000000c0: a380 03ba 088f 8b3c 5109 043d 02ac 2c3d
000000d0: 1a0d 963c 1fc3 2d3d aae7 4fbc 9bc1 3cbc
000000e0: ea96 9d3d 9ddf a43c 2cd3 323d 5f5f 68bc
000000f0: f739 3e3d 462b 003d b0ee 433d 918e 973c
00000100: db69 28bd 46cb 16bd ca91 cfbc a301 cdba
00000110: bfbd 5ebd 0ab9 573d 08e2 923d 7b3b 7cbc
00000120: 426f c53c 8b46 cabb 4f29 ce3c 5d9e b03c
00000130: 0400 dfbb b06f 97ba ac9e 07bd 1974 163c
00000140: e102 c7bb 31a8 16bd e963 89bd 1c3b 9abc
00000150: 7f8a 043d b31d 2dbd 1b95 3ebd 0154 9dbc
00000160: de82 e4bd 2b10 083d f02a 903b fc66 a1bd
00000170: 6edd 613b cc41 d7bb 3d87 83bc 5abd f53c
00000180: 7dce 1e3d 6a14 8dbc a226 2f3c ab1b b7bc
00000190: de23 34bc 7322 29bd 52cc f5bd aac6 393b
000001a0: 4029 8c3d ccde 06bc a852 edbc a942 45bd
000001b0: b641 ac3c 6d87 29bc b942 a93d c169 71bc
000001c0: 18fe 253c 09d6 62bc a53c a7bc 1be0 4d3b
000001d0: e2e0 04be 7894 f53b 5ae5 5cbb 6510 3abd
000001e0: 0cab ccbc 4a26 6d3d 27db 07bc 0680 1f3c
000001f0: 948c 36be 497f 6abd 1634 ca3c f019 94bd
00000200: 768f 78bc 0f23 42bb a0ef 89bb 3c48 dc3c
00000210: bcc5 2abb 9fd3 053e 4783 babd f2b4 923c
00000220: 0819 c83c a53e 81bc d981 b1bc 514e 82bd
00000230: cc30 07bc 86bc b4bd bb9b cbbc 842e c63c
00000240: b351 8e3c b705 593d c40b b13d 5cbe b83c
00000250: 779f ba3c 7252 793d a0f1 8b3d 64da d43c
00000260: 4014 6d3d 2d19 26bd f8b6 95bc 6a77 5bbd
00000270: 3be2 933d 9eed 2ebb b46e 11bd e04d 3ebd
00000280: bf2b 853c d2fc b3bc c0d2 9839 dbea e53c
00000290: 6a21 443d 21e5 35bd 3e59 043d 5c1c 38bd
000002a0: 4a3a 93bc dfa7 0fbc affe 93bd f96a a1b9
000002b0: 2eaf 20bd 92f4 8dba 538b a8bd 69f5 18bc
000002c0: 080d 99bd 7851 2b3d 48ac 18bd 58b3 1bbd
000002d0: 6229 343d aea4 993b 2596 8f3c 7ec2 babc
000002e0: 6de2 fc3c 6383 d5bd 53d9 dfbc 58e3 54bd
000002f0: 8d43 2abd 286e fa3b c9ca 49bc 97c9 01bc
00000300: 3c07 793d bf35 2cbd 3ef2 6a3d 381a 9a3d
00000310: 30d6 403d 1029 113c f445 4e3d c16a c5bc
00000320: 5511 ab3c 8c74 863d f246 493c 5ec5 d4bc
00000330: 2cf7 413c 4f0e 253b f631 4f3d f75a 983c
00000340: a9a5 56bd 48f1 fb3c 5178 4dbc b89c 8d3d
00000350: 5b4e 033d 1ddc db3c 3964 34bd 5d03 503d
00000360: 2034 cb3c acc7 32bd 7f65 0f3d 61ce ffbb
00000370: 5958 43bd 02e1 69bc 8b26 b2bd 18df 9d3b
00000380: 37b3 8b3d cf5b b23c 5e71 d6bd 2c93 08bd
00000390: 250a aebb 63f5 fd3c 227a f0bb 0df8 eb3d
000003a0: c98a ff3c 4a38 963c 33de 20bd d547 53b7
000003b0: a001 013d bee8 1c3b acdc 5d3d 851d 89bc
000003c0: 78a0 753c ac40 2ebc 2395 b43d 8e51 5c3c
000003d0: 6444 ebbb 91aa 8bbd 592c 8dbc 3c63 a7bc
000003e0: b9fd 943d 0bc5 7d3d 816c 18bc 7823 b53c
000003f0: 63a5 063d 65be 413d 2a8d e53d 0bf3 3bbd
-0.071112975 0.0015155536 0.045466408 -0.09912596 0.0058922432 0.021621574 0.03991764 0.0590899
0.024153834 0.061365727 -0.02120071 0.022182984 -0.060798768 -0.034353737 0.011329898 -0.0066047786
-0.021158762 -0.12615718 0.011135633 -0.021473527 0.016750464 0.016723752 0.014657126 -0.05273453
-0.03347375 0.049627613 0.009565135 -0.029280325 0.0351524 0.042031325 -0.03705744 0.035164643
-0.02706541 0.004189376 -0.014198232 0.0027945982 0.019026948 0.07734746 0.06826029 0.04636697
-0.028102621 -0.02012136 -0.06795188 -0.06568033 0.031080596 0.016969351 -0.017978653 0.035455134
-0.0005016422 0.017035976 0.032235447 0.042156227 0.018316794 0.04242241 -0.01268951 -0.0115207685
0.076948 0.020126158 0.04365842 -0.0141828945 0.046442 0.03129127 0.047835052 0.018500598
-0.041116577 -0.03681495 -0.025338072 -0.0015640747 -0.054380175 0.0526667 0.07172018 -0.015395041
0.024100903 -0.00617296 0.025166182 0.021559888 -0.006805422 -0.0011553671 -0.033110306 0.009182953
-0.0060733412 -0.036781494 -0.067085095 -0.018827014 0.032358643 -0.04226465 -0.046528917 -0.019205095
-0.111577734 0.033218544 0.00439965 -0.07880971 0.0034464258 -0.006569123 -0.016055698 0.029997516
0.03877114 -0.017221648 0.010690363 -0.02235206 -0.0109948795 -0.04129262 -0.12001862 0.0028347173
0.06843805 -0.00823183 -0.028970078 -0.048159275 0.021027427 -0.010347229 0.082646795 -0.014734686
0.010131381 -0.013844975 -0.02041466 0.0031414095 -0.12976411 0.0074945055 -0.003370604 -0.04542579
-0.024983905 0.057897843 -0.008291996 0.009735113 -0.17827064 -0.057250295 0.02468304 -0.0723151
-0.0151709225 -0.0029622947 -0.0042094737 0.026889913 -0.00260578 0.13069008 -0.091070704 0.017908547
0.024425998 -0.015776942 -0.021668361 -0.06362594 -0.00825138 -0.088250205 -0.024854532 0.024192102
0.017372942 0.052983966 0.08644822 0.022551708 0.022781117 0.06086964 0.06833196 0.025983043
0.05788064 -0.040551353 -0.018275723 -0.05358068 0.072208844 -0.0026691924 -0.035505965 -0.046460986
0.016256211 -0.02197114 0.0002914872 0.02806609 0.04788343 -0.044407967 0.03231167 -0.04494892
-0.01797213 -0.008768051 -0.072263114 -0.00030788014 -0.039229564 -0.0010830334 -0.08229699 -0.009335854
-0.07473189 0.04182574 -0.037273675 -0.038012832 0.04398478 0.004688821 0.01752765 -0.02279782
0.030869687 -0.10425451 -0.027325308 -0.051974624 -0.041568328 0.007642526 -0.012316414 -0.007921598
0.060797915 -0.042043444 0.057359926 0.07524532 0.047079265 0.008859888 0.05035968 -0.024098756
0.020882288 0.06565198 0.012284981 -0.025973018 0.0118387155 0.002518553 0.050584756 0.018598063
-0.05240408 0.0307547 -0.012540893 0.06914657 0.032057147 0.026838357 -0.044040892 0.050784457
0.024805129 -0.043647453 0.035008904 -0.0078065847 -0.047691677 -0.014274837 -0.08698758 0.0048178546
0.06821292 0.021772293 -0.10470842 -0.03334348 -0.005311268 0.031000799 -0.007338778 0.11521921
0.031194108 0.018337388 -0.039274406 -1.2593305e-05 0.03149569 0.0023942436 0.054165527 -0.016737709
0.014991872 -0.010635536 0.08817508 0.0134471785 -0.0071797837 -0.06819642 -0.01723306 -0.02043306
0.07274956 0.061955493 -0.009303213 0.02211164 0.03287257 0.047300715 0.112085655 -0.04588608
