ctpro/Drishti/layers_weights/79_layer.npy (npy, 1152 bytes, 1 tensors)

array f4 [4, 64]
0.9426414 2.6527674 0.7588933 0.86125976 1.6606957 0.95342976 2.3611212 1.0972152
2.227317 1.2667294 2.1088238 2.0414164 1.0058385 1.1783307 2.817789 2.3270066
0.7874273 1.2871876 3.3060904 3.5614133 1.2655826 1.1208771 2.1192317 0.90491277
0.9904806 2.3364503 2.5718086 1.2387532 1.9253658 1.2911228 2.370869 2.1163766
1.1004837 0.71822286 2.8720362 3.3280106 0.8619445 1.5252914 1.0494205 2.5317104
2.6200075 2.5230765 0.9361864 1.275491 0.8692125 1.4635192 1.27955 0.917935
2.4127598 1.0112498 3.384812 0.97174597 1.322931 2.758523 0.663257 2.0573933
3.3562062 1.5905937 2.0227253 0.781288 1.4263468 3.8811314 0.8604555 2.4590764
9.369384e-05 0.0014938889 0.0014880497 -0.00038973588 -0.004898149 0.00031975398 0.00074007135 -0.001395395
-0.0010587475 0.0027881297 -0.0016528276 -0.002949514 0.0012457852 -0.0016443498 -0.0018828231 -6.240044e-05
0.0015710545 -0.0014942124 -0.001763444 0.003773033 0.0043653282 -6.6317575e-06 0.00048744495 -0.00035783157
-0.0012858678 0.0027160964 0.0011344043 0.0023842666 -6.716067e-05 0.0023181213 6.0816175e-05 0.00027408698
-4.3215914e-05 -0.00023185294 0.0006504723 0.0013712122 -0.0010717176 0.00034033065 -0.002683919 0.0025942924
-0.0014487309 0.0028903645 0.0026820744 5.5059027e-06 -0.0005369144 -0.0009914231 -0.004032345 0.0015864114
-0.00077563454 0.003324985 -0.0013059075 0.0005533628 0.0021795277 0.00041570223 4.2044965e-05 -0.001696729
-0.00072779827 0.0004123084 -0.0012153826 -0.0011609812 -0.0007110991 -0.0001538637 -0.0025328998 0.0020613275
-0.4388765 -1.1016688 -0.3730104 0.06622051 0.3852337 -0.08695338 0.13321674 -0.2606869
-0.35022148 0.020958537 -0.8127355 0.30212912 0.6719435 -0.28259844 0.5638758 0.9678746
0.06813887 -0.08838146 -0.52078646 -0.048977662 0.635867 -0.58747655 0.18466066 0.016192744
-0.67333007 0.32109827 -0.86360013 -0.5377461 0.25313148 -0.6811672 0.8667193 0.6304282
0.14011358 0.09537765 0.4013311 -0.46961704 0.45259994 0.37184435 0.24738689 0.58646524
-0.7469316 -0.6076897 0.6321296 -0.21467863 0.010891754 -0.4144531 -0.117528416 0.09557269
0.8901365 -0.12617977 -0.15680793 -0.06347025 0.15038945 0.2749124 -0.17739989 0.34733683
0.35894972 -0.39126644 -0.40391734 -0.50138813 0.8401501 -0.28389475 0.20828384 0.40483633
0.14006773 0.36204618 0.08493361 0.13788952 0.18981922 0.14335072 0.21163371 0.10951791
0.18286265 0.14690034 0.18810292 0.17604144 0.15582544 0.122725554 0.2432469 0.16825002
0.18255238 0.14423698 0.2716515 0.49222434 0.12872936 0.10928638 0.2780869 0.14705105
0.122950144 0.20799214 0.20366722 0.099639 0.1472594 0.16321118 0.2618874 0.19625281
0.11011984 0.121147804 0.25977412 0.27545944 0.13716221 0.13789855 0.1644892 0.18753321
0.2509042 0.3050926 0.118698984 0.14488335 0.09915304 0.13702805 0.1283519 0.19935471
0.16844466 0.111163676 0.2952443 0.123322874 0.15137908 0.20496571 0.13413554 0.1955102
0.27096865 0.14939104 0.19784927 0.17964654 0.22537923 0.38590384 0.18246895 0.2366336
00000000: f250 713f f1c6 2940 d546 423f 857b 5c3f
00000010: ad91 d43f f913 743f 9c1c 1740 8c71 8c3f
00000020: 5d8c 0e40 3024 a23f f8f6 0640 91a6 0240
00000030: 51bf 803f 8ad3 963f a856 3440 aded 1440
00000040: d694 493f 90c2 a43f fc96 5340 32ee 6340
00000050: 9cfe a13f e778 8f3f 7ea1 0740 5da8 673f
00000060: 2390 7d3f 6788 1540 8398 2440 778f 9e3f
00000070: 6372 f63f 8343 a53f 51bc 1740 b772 0740
00000080: a6dc 8c3f 74dd 373f 71cf 3740 20fe 5440
00000090: 65a8 5c3f c03c c33f 6953 863f 8b07 2240
000000a0: 34ae 2740 167a 2140 e9a9 6f3f 4a43 a33f
000000b0: b684 5e3f 9954 bb3f 4bc8 a33f cafd 6a3f
000000c0: a86a 1a40 a270 813f c3a0 5840 58c4 783f
000000d0: ce55 a93f a48b 3040 36cb 293f 55ac 0340
000000e0: 15cc 5640 9398 cb3f 5574 0140 7e02 483f
000000f0: 8892 b63f 7564 7840 d046 5c3f 8261 1d40
00000100: 7f7d c438 98ce c33a aa0a c33a 7755 ccb9
00000110: a780 a0bb a7a4 a739 5901 423a b0e5 b6ba
00000120: acc5 8aba 0eb9 363b b1a3 d8ba a24c 41bb
00000130: 9d49 a33a 3987 d7ba 0fc9 f6ba fbdc 82b8
00000140: d7eb cd3a 73d9 c3ba 5d23 e7ba fd44 773b
00000150: 070b 8f3b 5d86 deb6 c18f ff39 579b bbb9
00000160: 908a a8ba 8900 323b 4bb0 943a 5b41 1c3b
00000170: 9cd8 8cb8 9feb 173b df14 7f38 55b3 8f39
00000180: bc42 35b8 8d1d 73b9 7584 2a3a 3fba b33a
00000190: e078 8cba 686e b239 b0e4 2fbb 0105 2a3b
000001a0: 58e3 bdba 456c 3d3b bec5 2f3b 58bf b836
000001b0: b7bf 0cba a4f2 81ba c321 84bb 22ef cf3a
000001c0: f453 4bba fee7 593b fc2a abba 8d0f 113a
000001d0: 68d6 0e3b 9cf2 d939 7059 3038 c764 deba
000001e0: b7c9 3eba 192b d839 794d 9fba 112c 98ba
000001f0: 0e69 3aba 7956 21b9 02ff 25bb 5617 073b
00000200: 6cb4 e0be 7c03 8dbf 38fb bebe 9e9e 873d
00000210: 5a3d c53e 9d14 b2bd f869 083e c178 85be
00000220: 3b50 b3be 3db1 ab3c 6f0f 50bf abb0 9a3e
00000230: 7d04 2c3f beb0 90be 2a5a 103f a1c6 773f
00000240: 648c 8b3d 5701 b5bd 4352 05bf cd9c 48bd
00000250: 2ec8 223f dd64 16bf af17 3d3e a5a6 843c
00000260: 5c5f 2cbf fe66 a43e e614 5dbf baa9 09bf
00000270: 739a 813e f960 2ebf 51e1 5d3f be63 213f
00000280: ef79 0f3e 5b55 c33d 457b cd3e a571 f0be
00000290: 2ebb e73e 6262 be3e fd52 7d3e 9622 163f
000002a0: e936 3fbf 8d91 1bbf 3fd3 213f b7d4 5bbe
000002b0: 5473 323c 3233 d4be bdb2 f0bd 9dbb c33d
000002c0: fcdf 633f 4535 01be 4292 20be b1fc 81bd
000002d0: b1ff 193e 51c1 8c3e 51a8 35be 22d6 b13e
000002e0: 42c8 b73e 1354 c8be 41ce cebe f95a 00bf
000002f0: 1414 573f a75a 91be 5c48 553e b546 cf3e
00000300: ea6d 0f3e 1e5e b93e acf1 ad3d e932 0d3e
00000310: f85f 423e 88ca 123e 82b6 583e ed4a e03d
00000320: 5940 3b3e 0b6d 163e 0d9e 403e 3544 343e
00000330: b490 1f3e 8957 fb3d b715 793e bc49 2c3e
00000340: 03ef 3a3e dcb2 133e e815 8b3e d404 fc3e
00000350: a1d1 033e 8ad1 df3d 6861 8e3e 8d94 163e
00000360: 49cd fb3d e4fb 543e 248e 503e 880f cc3d
00000370: 2bcb 163e d520 273e 1b16 863e 7ff6 483e
00000380: 8386 e13d 571c f83d 1d01 853e 0509 8d3e
00000390: 4074 0c3e 4735 0d3e db6f 283e b508 403e
000003a0: 8476 803e 1935 9c3e 7418 f33d 4d5c 143e
000003b0: c010 cb3d 1551 0c3e ae6e 033e a423 4c3e
000003c0: c27c 2c3e c8a9 e33d 432a 973e b490 fc3d
000003d0: 1e03 1b3e 88e2 513e d45a 093e d333 483e
000003e0: 67bc 8a3e f7f9 183e 0099 4a3e 43f5 373e
000003f0: d0c9 663e 3095 c53e 24d9 3a3e 1450 723e
