ctpro/Drishti/layers_weights/7_layer.npy (npy, 2176 bytes, 1 tensors)

array f4 [1, 1, 1, 32, 16]
-0.013353366 -0.36903164 0.5605423 -0.72427773 -0.10548825 -0.52570397 0.14243037 -0.17469126
-0.15684976 -0.2301699 0.04382712 0.136563 -0.21372402 -0.036648203 -0.0012326591 0.08745069
-0.08765596 -0.2647241 -0.18115745 -0.11972414 0.0907822 0.19314803 -0.1690113 -0.002593579
0.07743907 -0.17453204 -0.13217567 0.013539496 -0.083964445 0.4373474 -0.51160806 0.008061053
0.008536038 -0.03395431 -0.0358022 0.007442662 -0.019487083 -0.046920665 0.0046767434 0.12639247
-0.15443377 0.021370325 0.05057211 -0.037044413 -0.0052572787 0.074289 0.018075293 0.06598164
-1.4697745e-21 -1.942291e-21 -5.8379294e-21 1.4596482e-21 -1.6411213e-20 2.9435814e-21 1.0751801e-21 1.2064256e-21
-8.451336e-21 -8.864331e-21 -1.1657353e-20 1.3743264e-21 7.666386e-22 -8.599329e-21 3.7653855e-21 1.0110356e-21
-0.023759007 -0.114178225 -0.007196721 0.058069494 0.006823675 -0.014725374 -0.0021848276 -0.07029653
0.0054474636 0.009274013 -0.015684983 -0.73809344 0.010251063 -0.013425075 -0.03375454 0.8419089
0.12705746 0.100809366 -0.015854487 -0.113197185 -0.07132096 0.13193458 -0.1644637 -0.42821187
-0.3878179 0.03798456 0.12084746 -0.37356 -0.054374587 0.12461916 -0.0075757382 -0.33930078
-0.01701081 -0.11917898 -0.11727541 -0.03587755 0.18703112 0.02959357 0.052383628 0.044576496
-0.010353781 0.11446078 0.059696402 0.014786129 0.039056662 -0.03387242 -0.021079304 0.022338826
-2.1773285e-22 -5.49572e-22 -5.3558587e-22 1.0053115e-21 6.860327e-22 1.4808874e-22 -2.548242e-22 -5.3213805e-22
6.6413146e-23 6.7855245e-22 2.10456e-22 5.3192353e-22 -1.902417e-23 -3.9215752e-22 -1.5495658e-22 1.4127175e-22
-0.31198153 0.00030135253 -0.14634915 0.009170679 -0.02875164 0.07576011 0.42323172 -0.14766282
-0.12337135 -0.074429974 0.021041155 -0.05000483 0.17625822 -0.018331693 -0.029387861 -0.03435073
0.13964644 0.031753123 -0.14573306 0.24645467 -0.048267398 0.25223523 -0.024956899 0.039113972
0.019050734 -0.7447285 0.41184363 0.057542242 0.19725965 0.006178906 0.25426427 0.08981073
0.0021387131 -0.22601101 0.053619273 -0.017389573 0.13256536 -0.014429232 0.066854656 0.11847864
0.012874961 0.040702604 0.12823337 0.052869543 0.109059945 -0.041764475 0.04678955 0.0452046
-2.564208e-23 6.0443613e-22 -1.8673958e-22 4.1816093e-22 -4.5832925e-22 -2.1170722e-22 -3.0276595e-22 -5.2406946e-22
2.6846396e-22 2.4033414e-22 -3.8743186e-22 -1.7108504e-22 -4.989378e-22 8.940243e-22 -2.5873686e-22 -2.5657621e-22
-1.55123e-22 -8.501009e-22 -2.2860921e-22 -8.11916e-24 3.5811821e-22 1.4514548e-22 4.348272e-22 2.2451936e-22
5.2835137e-22 1.7944514e-22 2.3602827e-22 -4.811082e-22 -1.8513067e-22 -2.0428156e-22 6.9475997e-22 -3.9624736e-23
4.0712023e-22 -1.7851252e-22 5.564288e-22 3.7669052e-22 1.8279456e-22 -6.2588653e-22 -5.361746e-23 -3.924765e-22
-4.835513e-22 7.0513354e-23 9.530006e-22 9.233112e-22 6.2050577e-22 5.592756e-23 -4.043261e-22 1.04406435e-22
-0.05089682 0.13190617 -0.1107379 0.223061 -1.2870649 -0.056021538 -0.030647399 0.0332347
0.14265287 0.15982324 -0.28243554 0.022442678 -0.092319764 0.052456476 -0.056048468 -0.014517296
0.012708072 0.28457606 -0.19841705 -0.4474175 -0.01708272 0.21413048 0.036614873 0.26020643
0.20382293 0.18939662 0.39192748 0.17226201 -0.01629711 -0.2884371 -0.118783526 0.2058356
00000000: 14c8 5abc b7f1 bcbe b37f 0f3f 446a 39bf
00000010: 390a d8bd 8994 06bf 44d9 113e 44e2 32be
00000020: 399d 20be a9b1 6bbe 1184 333d 2cd7 0b3e
00000030: 78da 5abe 6d1c 16bd 2d91 a1ba 5919 b33d
00000040: f884 b3bd eb89 87be 5781 39be ee31 f5bd
00000050: 05ec b93d 99c8 453e 4c11 2dbe 09f9 29bb
00000060: 6098 9e3d 87b8 32be 0f59 07be c3d4 5d3c
00000070: 8df5 abbd 00ec df3e bff8 02bf 8212 043c
00000080: bdda 0b3c ad13 0bbd 54a5 12bd 93e1 f33b
00000090: 60a3 9fbc e22f 40bd 5e3f 993b 076d 013e
000000a0: e323 1ebe d210 af3c b324 4f3d e2bb 17bd
000000b0: 4045 acbb d524 983d a312 943c 6221 873d
000000c0: 261b de9c 5fc1 129d fd8c dc9d 6893 dc1c
000000d0: e1ff 9a9e 2569 5e1d 047a a21c 544f b61c
000000e0: 27a4 1f9e 4671 279e 8033 5c9e adae cf1c
000000f0: cab3 671c ce6f 229e 9340 8e1d 8cc8 981c
00000100: 40a2 c2bc 46d6 e9bd 79d2 ebbb 47da 6d3d
00000110: 2299 df3b b242 71bc 532f 0fbb a1f7 8fbd
00000120: a380 b23b 08f2 173c cb7d 80bc b1f3 3cbf
00000130: 13f4 273c d9f4 5bbc 3342 0abd 5787 573f
00000140: 5a1b 023e 2475 ce3d 45e1 81bc edd3 e7bd
00000150: b910 92bd dc19 073e 2c69 28be 963e dbbe
00000160: 1190 c6be b395 1b3d e07e f73d 4243 bfbe
00000170: e3b7 5ebd 5538 ff3d e63d f8bb d5b8 adbe
00000180: 415a 8bbc 1c14 f4bd 172e f0bd 56f4 12bd
00000190: 1685 3f3e 376e f23c 3790 563d d895 363d
000001a0: e8a2 29bc 6a6a ea3d 3784 743d 8541 723c
000001b0: e1f9 1f3d cfbd 0abd 81ae acbc eaff b63c
000001c0: 879c 839b 1319 269c f3de 219c 1beb 971c
000001d0: 3657 4f1c 3f07 331b 2308 9a9b 30d4 209c
000001e0: bf93 a01a 7414 4d1c fa6c 7e1b 97c3 201c
000001f0: 90fd b799 700b ed9b bd54 3b9b 7dc9 2a1b
00000200: 0bbc 9fbe dafe 9d39 8ddc 15be 9e40 163c
00000210: 8f88 ebbc 1e28 9b3d d4b1 d83e ec34 17be
00000220: 1eaa fcbd be6e 98bd 805e ac3c ddd1 4cbd
00000230: 097d 343e 592c 96bc d0be f0bc 5ab3 0cbd
00000240: 7aff 0e3e 900f 023d 0c3b 15be 9d5e 7c3e
00000250: 09b4 45bd fa24 813e 6972 ccbc f935 203d
00000260: 4910 9c3c 87a6 3ebf 2bdd d23e 6ab1 6b3d
00000270: 6ffe 493e 6c78 ca3b ed2e 823e b0ee b73d
00000280: a729 0c3b 6e6f 67be e29f 5b3d 9474 8ebc
00000290: 37bf 073e 9668 6cbc 18eb 883d eea4 f23d
000002a0: 80f1 523c c6b7 263d 9c4f 033e bc8d 583d
000002b0: d25a df3d 3a11 2bbd 66a6 3f3d 7528 393d
000002c0: b7fe f799 fbad 361c 1ac1 619b 45c3 fc1b
000002d0: 8285 0a9c 36f0 7f9b c302 b79b e963 1e9c
000002e0: c946 a21b e845 911b 2d30 ea9b 41d4 4e9b
000002f0: 71cb 169c e419 871c 9765 9c9b 3f17 9b9b
00000300: 3e88 3b9b b076 809c 902f 8a9b 220c 1d99
00000310: 1c78 d81b 5a78 2f1b 206b 031c b0b6 871b
00000320: 35af 1f1c 95ef 581b 9bab 8e1b f267 119c
00000330: 2bcf 5f9b 15f6 769b 73fa 511c 0c9d 3f9a
00000340: ce16 f61b f3ce 579b 982b 281c 09b2 e31b
00000350: 2dfc 5c1b a029 3d9c 9aa3 819a cc3c ed9b
00000360: f824 129c a77d aa1a 6d03 901c df86 8b1c
00000370: 4f89 3b1c 7c39 871a 6f66 f49b 7470 fc1a
00000380: 2f79 50bd 6912 073e 8dca e2bd 1a6a 643e
00000390: 8bbe a4bf d776 65bd 4110 fbbc 1c21 083d
000003a0: 9813 123e b4a8 233e 649b 90be b5d9 b73c
000003b0: 2512 bdbd 9adc 563d 1493 65bd f4d9 6dbc
000003c0: 8435 503c f4b3 913e d72d 4bbe e813 e5be
000003d0: 0ff1 8bbc 0545 5b3e 7af9 153d c739 853e
000003e0: f5b6 503e 30f1 413e b8aa c83e 7465 303e
000003f0: 8481 85bc 07ae 93be c744 f3bd 91c6 523e
