ctpro/Drishti/layers_weights/81_layer.npy (npy, 98432 bytes, 1 tensors)

array f4 [1, 1, 1, 64, 384]
-0.051961068 -0.0348101 -0.054856103 -0.024464699 -0.015015295 0.029162312 0.06197666 -0.004587178
-0.11748434 -0.008980547 -0.11201696 0.06877574 0.00507284 -0.08002055 -0.06642565 -0.10246937
-0.03628985 -0.07945252 0.019640315 0.031462587 -0.015712205 0.061563376 -0.042657204 -0.0055565704
-0.05018044 -0.010151166 -0.07573115 0.031185158 -0.03827878 0.03430352 0.04317409 0.020884205
0.03386513 0.055678714 -0.0425569 -0.001845657 0.003057753 0.010454303 -0.026520506 -0.024518408
-0.021298213 0.023171235 0.016426343 0.09261458 0.01499923 -0.0012532244 0.07999916 -0.008668731
0.010973729 -0.07422465 0.059719324 0.02210043 0.060177356 -0.00843302 -0.05913908 -0.048811335
0.047213968 -0.046772316 -0.02735275 -0.05318429 0.009405071 -0.037433084 -0.014508575 0.03483255
0.054685656 0.056149438 0.005072017 0.02696299 -0.024248574 -0.06970624 -0.032868575 0.077865355
0.036271308 -0.06941389 -0.020215489 -0.06428312 -0.020904578 0.15902574 -0.019695034 -0.0068837292
-0.037754085 -0.009483952 -0.04963286 -0.02071181 0.09141099 0.055834662 0.04249479 -0.082058325
0.04470719 0.054663096 0.067950025 0.05302489 0.07699458 0.0616273 -0.03685637 -0.026662627
0.049767118 -0.026517943 0.021052428 0.07807871 0.08306209 0.0061398405 0.03434835 -0.017914198
-0.005134927 -0.038484845 0.020101685 -0.06271092 -0.028829928 -0.008392706 0.036607247 0.041048102
-0.014947137 -0.034185454 -0.011105104 -0.0058997185 0.03253936 -0.012413718 0.018982397 0.019573266
-0.05235694 0.07275521 0.0155758755 0.037115425 0.0578457 -0.014296172 0.043322396 -0.03289401
-0.016365658 0.09574789 -0.022232683 0.026852814 -0.019530315 0.035758823 -0.036389396 -0.013865513
-0.032918364 -0.020670852 0.035736583 -0.021289648 0.032281946 -0.03138026 -0.053107888 -0.03672553
-0.010397998 -0.013194726 4.0457686e-05 -0.014623021 -0.024505964 0.10489703 -0.013166984 -0.0045437915
0.032022834 -0.04256523 0.064574614 0.01705892 -0.017209437 0.019174017 0.031501967 0.04160512
-0.028963901 -0.024553241 0.022338761 0.072310366 0.055579457 -0.0100020645 0.006896238 0.0068001254
-0.060223658 -0.062254503 0.0006088382 -0.041545164 0.025475811 -0.051185817 0.017328931 -0.02818255
0.07576031 0.012879645 0.061970565 0.011601635 0.04564122 0.00758012 -0.0052171703 0.03202518
0.11055087 -0.03323183 0.0011796107 0.060386203 0.071214885 0.019100586 -0.05122684 0.0320801
-0.04966658 0.035313696 0.025816403 -0.0072899526 0.029931804 -0.021478845 -0.017361728 0.054762304
0.038521845 0.03378533 -0.037925214 -0.071722575 0.017632164 -0.04469836 -0.04512197 0.0020615326
-0.024347985 0.08083428 0.0049177557 0.026819557 -0.047402885 0.02369691 0.05864489 0.024213573
0.0048197485 0.09223 -0.060241543 -0.010458319 -0.029748002 -0.08661177 -0.017677302 0.0630189
0.013935198 -0.016111331 -0.03920643 0.043770187 0.051496167 -0.038371775 -0.011541328 -0.078665115
0.014611293 -0.017787559 -0.0073819133 0.0017902183 0.007287001 -0.014503448 0.0976877 -0.038095135
0.054384477 -0.025803326 -0.05332331 0.009756322 0.040815167 -0.010533192 0.08630095 0.058439333
0.026729256 -0.01382041 0.08139026 0.00869522 -0.08512187 0.008169874 0.038554925 -0.032848302
00000000: 21d5 54bd 0995 0ebd cbb0 60bd 316a c8bc
00000010: b602 76bc cde5 ee3c 3ddb 7d3d 0a50 96bb
00000020: a19b f0bd 2523 13bc 2669 e5bd 4cda 8c3d
00000030: 113a a63b d0e1 a3bd 2c0a 88bd 76db d1bd
00000040: aaa4 14bd 01b8 a2bd bae4 a03c eade 003d
00000050: e2b6 80bc e129 7c3d 52b9 2ebd e413 b6bb
00000060: 018a 4dbd 1351 26bc ef18 9bbd 0478 ff3c
00000070: 36ca 1cbd d981 0c3d 51d7 303d 5a15 ab3c
00000080: 2ab6 0a3d 5d0f 643d 2550 2ebd f9e9 f1ba
00000090: 9564 483b 8648 2b3c 8841 d9bc d4da c8bc
000000a0: 9779 aebc 9ad1 bd3c 8a90 863c b7ac bd3d
000000b0: 55bf 753c 3c43 a4ba 99d6 a33d 4b07 0ebc
000000c0: 28cb 333c 1803 98bd 409c 743d f60b b53c
000000d0: 887c 763d a62a 0abc d23b 72bd 65ee 47bd
000000e0: 6f63 413d 5494 3fbd e012 e0bc c5d7 59bd
000000f0: ba17 1a3c 6f53 19bd 60b5 6dbc 93ac 0e3d
00000100: 11fe 5f3d f4fc 653d 2a33 a63b 7de1 dc3c
00000110: f2a4 c6bc 25c2 8ebd 33a1 06bd df77 9f3d
00000120: 3991 143d df28 8ebd f49a a5bc dea6 83bd
00000130: 1440 abbc a5d7 223e 7b57 a1bc e890 e1bb
00000140: 07a4 1abd 9462 1bbc d34b 4bbd d0ab a9bc
00000150: af35 bb3d e3b2 643d 040f 2e3d 320e a8bd
00000160: e31e 373d 69e6 5f3d 6229 8b3d a130 593d
00000170: 56af 9d3d e86c 7c3d b4f6 16bd 956b dabc
00000180: 9bd8 4b3d 283c d9bc 2476 ac3c bbe7 9f3d
00000190: 751c aa3d b730 c93b dbb0 0c3d ccc0 92bc
000001a0: e442 a8bb 49a2 1dbd 4aac a43c 956e 80bd
000001b0: be2c ecbc 8f81 09bc 7bf1 153d 0e22 283d
000001c0: d6e4 74bc 0c06 0cbd 2ff2 35bc 6d52 c1bb
000001d0: fe47 053d e862 4bbc f980 9b3c 1d58 a03c
000001e0: 3b74 56bd af00 953d f531 7f3c 5806 183d
000001f0: 9def 6c3d 7e3a 6abc d372 313d dfbb 06bd
00000200: 4611 86bc 7817 c43d 5121 b6bc 6ffa db3c
00000210: 0afe 9fbc d877 123d 0c0d 15bd 2d2c 63bc
00000220: 68d5 06bd eb55 a9bc 8660 123d a167 aebc
00000230: 133a 043d 9688 00bd a887 59bd 826d 16bd
00000240: 5d5c 2abc b12e 58bc 1cb1 2938 6595 6fbc
00000250: bbc0 c8bc 41d4 d63d 55ba 57bc 16e4 94bb
00000260: 602a 033d e158 2ebd b23f 843d 26bf 8b3c
00000270: cefa 8cbc d412 9d3c 3508 013d 216a 2a3d
00000280: b445 edbc e123 c9bc c7ff b63c 7517 943d
00000290: 49a7 633d b3df 23bc d6f9 e13b 96d3 de3b
000002a0: 15ad 76bd 94fe 7ebd 719a 1f3a 432b 2abd
000002b0: a6b2 d03c 38a8 51bd 67f5 8d3c 17df e6bc
000002c0: 3928 9b3d 2605 533c d9d4 7d3d c914 3e3c
000002d0: 4af2 3a3d a862 f83b ccf4 aabb d62c 033d
000002e0: 7f68 e23d 191e 08bd 2b9d 9a3a 8657 773d
000002f0: 1cd9 913d d578 9c3c 3cd3 51bd 6c66 033d
00000300: 2f6f 4bbd 18a5 103d ec7c d33c 8ee0 eebb
00000310: 8b33 f53c 67f4 afbc 2f3a 8ebc 704e 603d
00000320: 15c9 1d3d 7c62 0a3d 7857 1bbd 49e3 92bd
00000330: 5471 903c a115 37bd d1d1 38bd c71a 073b
00000340: 6d75 c7bc 718c a53d 2025 a13b b0b4 db3c
00000350: 8729 42bd 0620 c23c a035 703d 8b5b c63c
00000360: fbee 9d3b 15e3 bc3d d6bf 76bd 5f59 2bbc
00000370: 15b2 f3bc 8361 b1bd fdcf 90bc 0e10 813d
00000380: 7550 643c e9fb 83bc ec96 20bd 5e48 333d
00000390: a5ed 523d b92b 1dbd d717 3dbc 2d1b a1bd
000003a0: 3464 6f3c 37b7 91bc fae3 f1bb c2a5 ea3a
000003b0: cbc7 ee3b df9f 6dbc 7d10 c83d a509 1cbd
000003c0: 42c2 5e3d 7f61 d3bc 8b69 5abd fbd8 1f3c
000003d0: ce2d 273d 6993 2cbc 8dbe b03d 155e 6f3d
000003e0: 50f7 da3c 006f 62bc f0af a63d 6576 0e3c
000003f0: 6054 aebd efda 053c c5eb 1d3d f18b 06bd
