ctpro/Drishti/layers_weights/84_layer.npy (npy, 13952 bytes, 1 tensors)

array f4 [1, 3, 3, 384, 1]
000000 98 52 c5 3e 1a 2d 5a be ce ae af 3e 7c 45 0d be
       0.38539577 -0.21306267 0.34313053 -0.13796037
000010 7c c0 8a 3d 0a 7e 5f bd b0 b9 90 be 38 46 3b 3d
       0.06774995 -0.05456356 -0.28266668 0.045721263
000020 33 36 90 3d 17 1d 22 3e 82 2d 08 3e cd c8 08 bc
       0.07041588 0.1583141 0.1329861 -0.008348656
000030 94 f8 ff be f4 e0 91 3e 92 4c c9 3e 23 6e c4 3e
       -0.49994338 0.28491938 0.3931623 0.38365278
000040 ed 17 79 bf 2d ec 7f be 97 75 c4 3e 5f 3d 0c 3c
       -0.9730213 -0.24992438 0.38370964 0.008559554
000050 0b 31 0b 3e 0d 0d c9 3c 91 f8 38 be 70 a9 0d 3f
       0.13592927 0.024542356 -0.1806357 0.55336666
000060 9d 72 e2 3e 86 aa 0b 3f f1 62 10 3e ca cb 67 3f
       0.44228068 0.54557073 0.14100243 0.9054533
000070 82 d0 87 bf 7a 7a ec 3e fa 4c 20 bf 07 3a f7 3e
       -1.0610507 0.46187192 -0.62617457 0.4828646
000080 73 ca 0b 3f 90 a5 07 3e f7 18 81 3e 8a f4 bd be
       0.5460579 0.13246751 0.2521436 -0.3710063
000090 83 04 67 3e 39 99 31 3f 2d 6b 9b 3d 78 09 8f 3e
       0.22560315 0.69374424 0.075888015 0.27936912
0000a0 ca ac 4b 3c 75 e9 79 3e 42 61 af 3d 3f 6a 2f 3e
       0.012431333 0.24405463 0.08563472 0.17130373
0000b0 65 a3 9c bd cb 1d fd 3e be 81 3b be 5e 2e 61 bd
       -0.076483525 0.49436793 -0.18311211 -0.05497586
0000c0 1b eb 92 3e 73 68 c8 be bb 92 48 3e b8 af 6e bf
       0.28694996 -0.39142188 0.19587223 -0.93236876
0000d0 85 2f d5 3e 70 9b 87 3e 5a e0 4b 3e 0a a3 3a 3e
       0.41637817 0.26485777 0.19909802 0.18226257
0000e0 9d ef 99 bd 58 b0 44 be dc b7 71 be 46 38 d7 3e
       -0.07516406 -0.19207895 -0.23605293 0.4203512
0000f0 70 cd 32 bf 2a 63 b1 3d 87 09 a8 3d 45 35 89 be
       -0.6984472 0.08661492 0.08204942 -0.26798454
000100 2e b7 73 3e 89 84 f7 bd cf a0 ad 3e 88 a6 11 3f
       0.23800346 -0.12085826 0.3391175 0.5689473
000110 9d b3 f1 bd 4b 98 ab 3e d8 ba 39 3e 96 af b5 3e
       -0.11801837 0.33514628 0.18137681 0.35485524
000120 e2 42 be 3d 38 da 0d bf 4f ef 3c 3e 96 45 60 3e
       0.09290101 -0.554111 0.18450664 0.21901545
000130 aa 36 1d 3f e1 14 ba 3c f3 ee 80 3e ef 3e 62 3d
       0.61411536 0.022715034 0.25182304 0.0552358
000140 c8 7f 4b bd 1a e7 cb 3e 6d 3c a9 3e 7f f6 9d 3d
       -0.04968241 0.39824754 0.33053914 0.07713031
000150 f6 8a 2c bd 9e 01 b5 be 80 ed 05 bd 29 cd ae bc
       -0.04212471 -0.35352796 -0.0326972 -0.021338062
000160 52 e8 cd bd fb 19 20 3f d0 b0 64 3d 90 ff 1b 3e
       -0.10054077 0.62539643 0.055832684 0.15234208
000170 81 56 8f 3d 8e 1c bf bd b1 da a9 3d 08 20 0f be
       0.06998921 -0.09331618 0.08293665 -0.13977063
000180 53 60 a9 3d 05 69 87 3e db 6b d7 3d 23 8c 7c be
       0.082703255 0.2644731 0.10518619 -0.24662833
000190 cb 76 09 bd 38 36 54 be 14 31 7d be 80 fb 01 3f
       -0.033560555 -0.20723808 -0.24725753 0.50774384
0001a0 47 bb 7c 3e 57 76 9b be 29 6f 84 3e ba 71 0f 3f
       0.24680816 -0.30363724 0.25866058 0.5603291
0001b0 d1 10 b9 be e1 25 e4 3d 0e a4 a4 bd 49 45 8f bf
       -0.36145642 0.11140037 -0.080391034 -1.1193019
0001c0 b3 53 fa bc ef 62 36 3f 9a 4e de bb bd 63 55 3e
       -0.030557489 0.7124471 -0.0067842724 0.20838828
0001d0 e0 19 b1 3e e4 af 84 be 46 15 fd be d9 85 58 be
       0.34590054 -0.25915444 -0.49430293 -0.21144809
0001e0 f9 bf f6 3e 13 66 21 bf 79 05 48 3f b4 8e c6 3f
       0.4819334 -0.6304638 0.7813335 1.55123
0001f0 62 72 a6 3d b5 ac 15 3e bc f4 c1 3e 82 0c ce 3d
       0.081272855 0.14616664 0.3788203 0.100609794
000200 af a9 0b 3e d8 25 19 be 6f 2c eb be d6 ba 1a 3e
       0.13638948 -0.14955842 -0.45932338 0.15110335
000210 bd 38 06 3e 1e f5 8e 3e 56 8f 6c 3d 5c 84 4c bf
       0.13107581 0.27921385 0.057753883 -0.79889464
000220 84 92 86 3e 3d d0 37 bf 76 23 10 bf df 14 62 3e
       0.26283658 -0.7180212 -0.5630411 0.22078274
000230 ec 92 f9 3c 37 73 dd be a7 9d 06 bf 9e cc fa 3c
       0.030465566 -0.43251964 -0.5258431 0.030615147
000240 1f 66 dd be 83 50 43 3e 81 3b 46 3d a3 3d bc 3d
       -0.43241975 0.19073682 0.04839659 0.09191444
000250 ad ac 08 bf 13 4c 4d be 34 fb 25 be 59 b6 4f bc
       -0.5338848 -0.20048551 -0.16209108 -0.012677752
000260 a8 51 07 bf 41 8e b9 be 4f 5b 74 3e 00 8c 01 3e
       -0.5285897 -0.36241344 0.23862956 0.12651062
000270 65 f1 ba bc c6 5b 9b 3e 6f 0a f2 3d f2 4e 19 3e
       -0.022820184 0.30343455 0.11818396 0.14971521
000280 d3 e7 e4 bd 68 be 97 3e 14 a8 8d 3d 2f bb 87 bd
       -0.111770295 0.29637456 0.06916824 -0.06627499
000290 70 0c e6 3e 76 f9 3f be 58 e8 a1 3d 7a ce ba 3e
       0.44931364 -0.18747506 0.07905644 0.36485654
0002a0 43 bf 83 bd 41 95 d7 3d f6 d4 e2 3d 7e 0e 3c 3f
       -0.06432965 0.10526515 0.11075775 0.73459613
0002b0 15 60 52 bd ca 22 b9 3e b4 5a ac 3d cf dc 0d bf
       -0.051361162 0.36159354 0.08415738 -0.5541505
0002c0 93 77 be bf a0 50 fe 3c 0e 18 ab 3f e4 55 d8 3e
       -1.4880241 0.031044304 1.3366716 0.4225303
0002d0 f8 32 9f 3d 0f b3 00 3e 0b 81 a7 3e 13 ba 6f 3e
       0.077733934 0.12568305 0.3271564 0.23410825
0002e0 e6 a9 e6 3d d2 ca 18 3f f6 17 5d 3d bf d6 36 3e
       0.11262874 0.5968448 0.05397793 0.17855357
0002f0 ad 47 cf bd d2 fe ee 3e 3f 14 86 3e 69 fb 1c bf
       -0.10121093 0.46678787 0.26187322 -0.6132112
000300 b4 d5 32 bf d8 e2 53 be 6a 4a e2 3e 17 8e 33 3f
       -0.69857335 -0.20692003 0.44197398 0.70138687
000310 81 7b da be d9 63 3b 3e f2 02 01 be 31 aa 1c be
       -0.4267235 0.18299808 -0.1259878 -0.15299298
000320 6d 2e d2 be d7 58 94 3c b4 c3 ca 3e 9b 71 e4 3d
       -0.41051045 0.018108768 0.39602435 0.11154481
000330 4d 01 50 3f 96 c6 8a be 86 05 20 bc eb c2 a1 3d
       0.81251985 -0.27104634 -0.009766942 0.07898506
000340 20 e4 72 3e 74 0a 80 bd f6 95 f7 3e 25 60 8b 3b
       0.23719835 -0.06251994 0.483566 0.0042534047
000350 a4 18 37 3f 4f c8 9c be 67 8f b5 3e c6 6a 62 3e
       0.71521974 -0.30621573 0.3546097 0.22111043
000360 f2 ed 91 be f4 f9 30 3f 58 83 8e 3e ca a4 fe bd
       -0.2850185 0.691314 0.27834582 -0.12433775
000370 22 ae 9b 3e f2 02 94 bc 85 ad 5a be 39 f2 7c bd
       0.3040629 -0.01806781 -0.21355255 -0.06175444
000380 07 f2 55 3e 51 ea 01 3d ac a4 62 3f e6 de f6 3d
       0.20893107 0.031717602 0.8853252 0.12054233
000390 7a 3b 05 bf 7e 10 09 3e 41 26 f8 3e 93 80 d4 bd
       -0.5204388 0.13385198 0.48466685 -0.10376086
0003a0 20 a0 1d be 60 74 b6 3e ac f3 41 bd 53 3e 3d 3e
       -0.15393114 0.35635662 -0.047351524 0.18480806
0003b0 1f ee 20 3f 08 d8 90 be dd aa 72 be 73 6f 4a be
       0.62863344 -0.2828982 -0.23697992 -0.19769077
0003c0 27 69 91 3d e5 b6 16 bf df bc b1 be d6 1d 69 3d
       0.07100134 -0.58872825 -0.3471441 0.05691322
0003d0 b4 0b 10 be a5 9d c3 bd 54 41 7b 3e 1a d9 57 3e
       -0.14066964 -0.09551553 0.2453664 0.21078911
0003e0 8d bb 82 3e 1c f4 d7 3c 02 f6 a7 3e 51 d8 07 3f
       0.25533715 0.026361518 0.32804877 0.5306445
0003f0 e6 e9 33 be b9 a9 c7 be a6 8e 12 be dd c4 4d 3c
       -0.17569694 -0.38996676 -0.14312229 0.012559143
