ctpro/Drishti/layers_weights/90_layer.npy (npy, 98432 bytes, 1 tensors)

array f4 [1, 1, 1, 64, 384]
000000 56 46 83 bb 8a 3c 42 bd 73 68 cb 3c 50 64 42 3d
       -0.0040061874 -0.047421016 0.024830079 0.047458947
000010 a7 9a 10 be 8b e1 34 3c c3 1f d0 bd 1c 11 89 3d
       -0.14121495 0.011040102 -0.10162308 0.066927165
000020 ab 93 74 3d 2d ec a3 bd 6b 10 c0 3d 0f b1 53 3c
       0.05971114 -0.08004031 0.093781315 0.012920632
000030 05 e0 02 bd 56 f4 6d bd 7c 03 d4 3b 86 bc 1c 3d
       -0.031951923 -0.058094345 0.006470142 0.038265727
000040 0e d4 2d bd 9d 00 cb bd 18 26 84 bc 91 95 24 3e
       -0.04243856 -0.09912226 -0.016131446 0.1607268
000050 da 05 6c bd a6 27 74 bd e5 b5 35 3d dc cc fe 3c
       -0.057622768 -0.059608124 0.04436292 0.031103544
000060 80 89 aa bb e7 1d f4 bc 63 b5 bb bb f5 f2 c0 bd
       -0.0052043796 -0.029799415 -0.00572841 -0.094213404
000070 5c 40 1c be d4 b8 4b be 92 65 dd bc 82 33 0e be
       -0.15258926 -0.19894725 -0.027025972 -0.13886836
000080 a8 d6 1e 3d c5 2a 3e 3d 9c dd 96 3d 9a 92 e9 3b
       0.03877893 0.046427507 0.073664874 0.007128072
000090 a7 14 40 bc 63 5a 97 3d 36 16 23 3d de 4b 06 3c
       -0.011723674 0.07390287 0.039816104 0.008196799
0000a0 62 ef b1 bd 58 15 fe bc a1 36 6a be 7b 0a 99 3c
       -0.08688237 -0.031016037 -0.22872402 0.018681755
0000b0 81 12 f2 3c 54 44 81 3c 7c fc c9 bc 4f c3 de 3c
       0.029549839 0.015779652 -0.024656527 0.02719274
0000c0 40 05 47 3a cd 89 2d bd eb 76 01 3c 77 e0 ca 3c
       0.000759203 -0.042367745 0.007901887 0.024765236
0000d0 28 14 f7 bc a0 19 31 3e 7b c6 cf bd d2 e4 0f be
       -0.030160978 0.17294931 -0.10145279 -0.14052132
0000e0 36 39 a4 39 fb dc 08 3e 22 32 13 bc f6 77 a1 ba
       0.00031323143 0.13365547 -0.008984121 -0.0012319076
0000f0 f6 77 ee 3c 41 f3 aa 3c 38 af 78 3c c8 ce 41 3d
       0.029109936 0.020867946 0.015178494 0.047316343
000100 41 27 23 3c 2d 8d 9e 3d 95 f4 ff bd b3 3b 69 3d
       0.009958089 0.07741771 -0.12497822 0.0569417
000110 1f 0b 47 bd ee ef 2a 3d b6 ed b1 3c 2a 89 ff 3c
       -0.04859459 0.04173272 0.021719795 0.031193335
000120 bc 7e 17 3d 77 93 ad 3c 4e 00 4b 3d 29 15 5b bc
       0.036986098 0.02118848 0.049560837 -0.013371744
000130 d7 2d e2 3c 4b e7 3f be 0b de 7e bd 21 e2 aa 3d
       0.027609749 -0.18740575 -0.062223475 0.08343912
000140 5c 41 1a bd a4 0f 98 bd 89 bd d5 bc 0a 97 25 3d
       -0.037659988 -0.07424858 -0.026091354 0.040427245
000150 5c 77 15 be 19 19 7d bd cf 69 26 3d 0e 0d 74 be
       -0.14596313 -0.061791513 0.04062825 -0.23833105
000160 3e 06 78 ba 9d d5 97 bd a1 c7 91 be 75 48 8b bd
       -0.00094613794 -0.074137904 -0.28472617 -0.068009295
000170 a9 f0 8e bd bc 3b 28 3e 08 9e 48 bd 57 f9 b0 bb
       -0.06979496 0.16429037 -0.048978835 -0.0054008174
000180 93 76 e0 bc f2 4c 51 be 2d d0 4c be 9f 7a 93 bd
       -0.02740029 -0.20439509 -0.20001288 -0.072011225
000190 50 e3 58 bd 45 60 39 3e 70 de 95 3a e6 1d ab 3c
       -0.052951157 0.1810313 0.0011434089 0.02088828
0001a0 e0 88 46 3e 96 85 23 be 3d ec bc bc 66 0a 01 3e
       0.19388151 -0.15968928 -0.023061866 0.12601623
0001b0 7f 64 3c bd f9 db ee 3d 89 b7 70 bd bb 0e 68 bd
       -0.045994278 0.1166305 -0.058768783 -0.056654673
0001c0 c4 4b 4c be 90 bc 82 bc 16 fb 48 3d c8 96 e5 3d
       -0.19950777 -0.015959054 0.04906758 0.112104
0001d0 f3 7e 6c bc 52 cd bc bd c6 a1 61 3d f8 6f 1e bd
       -0.014434564 -0.09218849 0.05508592 -0.038681
0001e0 b8 0e 3e bd 91 30 3a 3d 81 16 96 3d 3d ba fa bc
       -0.046400756 0.045456473 0.07328511 -0.030606383
0001f0 d0 75 d5 3c 80 b1 2d 3d 29 93 7b bc 2a 65 08 3e
       0.026057154 0.042405605 -0.01535491 0.13319841
000200 a2 46 8b bd 8d b1 f6 3b e0 ac 65 3d 4f 25 09 be
       -0.068005815 0.00752849 0.05607307 -0.13393138
000210 92 8a 9d bc 88 3e 89 3d 6d 4d 0e 3c 8c a1 72 be
       -0.019231115 0.0670138 0.008685452 -0.23694438
000220 72 77 a0 3c 82 63 1c 3d 0e 6d 49 bd 0a 05 36 bd
       0.019588206 0.038180836 -0.04917627 -0.0444384
000230 07 ef e2 bc c6 09 32 3d 84 c6 92 3d 71 e2 55 3d
       -0.027701868 0.043466352 0.0716677 0.052217904
000240 e8 79 d1 3d 4d 55 28 3e 03 bd 49 bd 18 89 99 bd
       0.1022833 0.1643879 -0.04925252 -0.07496852
000250 85 39 f3 bd 9d 2b 97 3d 16 ec 9b 3d d4 84 06 3d
       -0.11876205 0.073813654 0.07613389 0.03284152
000260 b6 77 47 bd ab 31 59 3d 9e ef ba bb 04 55 83 bd
       -0.04869815 0.053025883 -0.005704834 -0.064127
000270 30 2d a8 3c 0c b0 75 3d 2f 05 31 3d 29 81 6b 3c
       0.02052936 0.059982345 0.043217834 0.014374056
000280 91 9d 1e bd b7 1f 52 3d 1c 0c 4f 3d 73 1f 7c bd
       -0.038724486 0.051299777 0.050548658 -0.06155343
000290 50 57 9f bd 3d 2d fc bd c9 d3 53 bc 79 25 bf bd
       -0.077803254 -0.12313316 -0.0129289115 -0.09333319
0002a0 cf a1 00 bd 02 dc 87 bd 69 39 d9 3c eb 88 34 bb
       -0.031404313 -0.0663376 0.026516633 -0.002754743
0002b0 73 7e 48 bd 2a 53 7e 3d fd 65 77 3d f6 6a 0c be
       -0.048948716 0.06209103 0.060399998 -0.13712677
0002c0 ef e6 44 bd 47 1c 42 bd 89 af 22 be 37 39 df 3d
       -0.048071798 -0.04739025 -0.15887274 0.10899585
0002d0 87 a1 e7 bc 0c 1c 4d bd 3b 43 ca 3d 1a 71 1a 3d
       -0.028275264 -0.050075576 0.098761044 0.03770552
0002e0 ce d7 37 3d 57 d3 76 bd 27 4f d7 3d 50 29 66 3e
       0.04488354 -0.060260143 0.10513144 0.22476697
0002f0 03 90 fc bb 86 7a ae 3d 1c 9e e2 3d 8e 94 cf 3d
       -0.007707597 0.08519463 0.11065313 0.101357564
000300 a1 e8 0d 3b 80 e2 27 bd b1 e2 2d 3c 26 1b 4f bd
       0.002165355 -0.04098749 0.0106131295 -0.050563
000310 d5 e9 89 3d 43 81 8c 39 13 88 79 3d 93 4c 81 bd
       0.06734053 0.00026799188 0.060920786 -0.063134335
000320 6d 49 a6 bd a0 86 25 3c c8 99 f5 3c af 20 cc 3c
       -0.081194736 0.010102898 0.029980555 0.024917929
000330 48 55 bd bd 4a ab ae 3d d4 21 b5 bd 8c 21 28 bd
       -0.09244782 0.085287645 -0.08844343 -0.041047618
000340 e2 37 a9 3d a9 33 53 3d 6e 6c aa bd 68 bc 80 3d
       0.08262612 0.05156294 -0.083214626 0.06285936
000350 af 69 05 3d da b7 a9 bc 2a 41 ed bd db 2f 13 3c
       0.03257149 -0.02071755 -0.11584695 0.008983578
000360 7f 88 c3 bc 33 a7 8a bd 74 b5 16 ba 08 bd 78 3d
       -0.023868797 -0.06770172 -0.00057490845 0.06072715
000370 56 d1 a4 3c 74 8c 96 3c 30 62 90 bd 56 dd 9b bd
       0.02011935 0.01837752 -0.07049978 -0.07610576
000380 a7 e0 83 bd 16 f9 27 3d d4 99 ef 3d 5c b5 0f 3c
       -0.064393334 0.04100903 0.11699262 0.008771267
000390 fc 96 a0 bc 2b 27 92 bb 95 0f 96 3b f5 84 b0 bd
       -0.019603245 -0.0044602356 0.0045794942 -0.086191095
0003a0 51 70 31 3a 6e 7b 04 3d c7 ce 74 bd 95 8d 1c 3d
       0.00067687506 0.032344274 -0.05976751 0.03822096
0003b0 17 e4 01 3b 16 36 98 3d c1 3c 1d 3d 3d 02 19 3e
       0.001981979 0.07432191 0.038388018 0.1494226
0003c0 2d 4d 93 3d 55 09 94 3d ce c3 9b bc fd 5c 55 bd
       0.071924545 0.072283424 -0.019014265 -0.052090634
0003d0 70 d2 4b 3a 7b 01 5a 3d d9 81 7e bb f3 cb 3a bd
       0.0007775193 0.053224068 -0.003883472 -0.045604657
0003e0 fe b4 d7 bc c1 35 2c 3d 8d 0f 70 bd ac 20 fe bc
       -0.026331421 0.04204345 -0.05860858 -0.031021439
0003f0 72 b9 83 3e 37 a6 10 bd 5e 5a f1 3c 05 9f 26 3d
       0.2572742 -0.035314765 0.029462036 0.040678997
