ctpro/Drishti/layers_weights/98_layer.npy (npy, 221312 bytes, 1 tensors)

array f4 [1, 1, 1, 96, 576]
00000000: 19b1 3dbd cdb7 213c 14c1 8dbd 38f9 2fbd
00000010: f01d ac3d f973 38bd d9ae e23c 63a6 8a3d
00000020: fe6a 9e3c 4b8d c33c 1501 e2bc 870b 953d
00000030: 95d5 8fbc a891 1abd 7e6d 603d 4f95 a3bd
00000040: ce0e 8b3c 4f6b 583c 997d 2bbc def8 843d
00000050: d853 223d 2100 2d3b 6bf1 dd3d a59b fabc
00000060: b689 173c ebdc 42bd d94a b63c 5566 483d
00000070: 9793 89bd d8a8 323c 5274 8d3c 95bf b6b9
00000080: c2bd 91bc c799 f93b 2118 053d 5152 783c
00000090: 1a60 d0bc e476 85ba 7a17 dabc 8c3e 14bd
000000a0: 3894 953d ca69 2e3c 2b51 813c f0fe 86bd
000000b0: 4e7f edbd b622 e63a e7c4 853d aa20 62bd
000000c0: cc9f 55bb c43f 04bd d0ad a3bc 9d50 50bd
000000d0: d062 1f3d ec88 a638 ca05 863d f4fb 523d
000000e0: f8ba 9c3c b139 99bb 1ae9 80bc 3577 923c
000000f0: 3898 cbbb ae6b 27bd c86d a3bc 7aea b8bc
00000100: c786 abbd 5dbd e93b db04 353d 1ff0 d03b
00000110: 204f 3bbd af48 23bd 2224 b83d 5b11 ab3c
00000120: b6c7 823c 5fad 9a3d 2a5c 2d3d 193c b6bb
00000130: 3763 28bd 4d70 0ebd 22eb 033d a176 5a3d
00000140: 55d2 c03a 892a 94bd ac43 e0bc 4e78 c83d
00000150: 69d3 f43c d810 083d f960 b63c 19b4 863d
00000160: 994e 5c3d cac4 f43c 39f2 33bd 1df0 ecbc
00000170: 053f 823c 90ae 353c 2f81 633c f51d c1b9
00000180: 8ddc 1a3d 1c0a 4fbd 6dac 02bd e69d 133d
00000190: ba33 b13d 2a4e 5bb9 d601 8abd e441 90bd
000001a0: 8bc5 c33d 62e7 523d c3d4 1f3d a70a 53bd
000001b0: d905 d63c 4a08 8abd 4cce 1b3d e95b 883d
000001c0: ef91 50bd 593f 363d e2c8 5abb 4845 6ebd
000001d0: b8cd b13c 1f06 c03c 5bde c53b 989f da3c
000001e0: 2199 63bd 91d7 a33b 91dc eb3c cf6a 6b3d
000001f0: 7a58 62bd d026 4f3c eb50 c43c 8c98 97ba
00000200: a998 32bd a28b 7539 e777 5bbd 34e4 efbc
00000210: 0690 8abd 9c01 df38 f426 69bd 8dc2 e23c
00000220: b32e e73c f978 35bd e10c b63c 9d85 cc3c
00000230: 6449 91bc 66ac 9bbd 4fa0 093d 696c ba3c
00000240: f675 c03c 3dd9 8a3c efcc 97bd 545a f0bc
00000250: bf72 073d 7fcb 7d3d 5109 acbc b9ce 14bc
00000260: 4a3f 373d 0858 af3c dccf 2b3c 4397 fa3c
00000270: 35b9 eebc a7d2 cbbc 9321 12bd 1c5d f9bb
00000280: b5b8 4a3d a0ac 953c ab73 493d 7bc9 c6bd
00000290: e977 dabc 4520 f3bd 1f91 ba3d b42a 663c
000002a0: 5dc7 c43c a83a 8c3c e12e a6bd 4fba ccbd
000002b0: e1b1 a03d 0ab1 68bd a756 d73c 3099 53bd
000002c0: 01cb eb3c 5b0d 053d 2a45 f1bc 3cd4 a3bc
000002d0: f65e f1bc 69fd c03b 2a8e d23b 41a8 8dbc
000002e0: a857 debd 8edc 993d e625 313d dd5d 47bc
000002f0: a99d f43c 0648 3d3d 2c5b 4f3d 1417 803b
00000300: 34a6 2fbc 4aa7 0a3d 86b0 75bd 3305 12be
00000310: 2285 773d 5a4d cebd 6ae4 b43c 3ed5 c73d
00000320: ee93 2cbd 8c0b 5239 8b76 c6bb 7dc2 c43b
00000330: 8650 66bb 3bd3 e33b 6ff0 a13b 2643 90bc
00000340: c2fe cebb c7da 433b 4e4c 9a3b 4122 88bd
00000350: 9e10 0e3d 755f c2bc 1f90 40bd 0df1 003a
00000360: 5f5f 87bb 9411 34bd 79f2 e4bc 7449 a63c
00000370: ef69 bcbd 065f 053b 17f4 cf3b 9101 a6bd
00000380: 7f7a 573d d7ea 783d 8ad5 773b f66b 853c
00000390: f60e 63bd 2fee 113c 1daa 2fbc e9c0 2e3c
000003a0: b1d9 543b 279b 733c bef9 933b 7f3a a13c
000003b0: 684b a8bc 3333 3a3d 92dd c7bd 24b7 08bd
000003c0: 2aa8 82bb 373e a0bd fd3a 90bd 023c a5bd
000003d0: 0a75 ec3c 7a7a dbbc bf62 8a3d 4543 cebb
000003e0: 5548 03bd 0651 c93c 3a40 26bd 7e64 833d
000003f0: d019 0e3d 5532 17bb 553c 02bd c82d de3c
-0.04631147 0.009870482 -0.06921592 -0.042962283 0.084041476 -0.045032475 0.027671264 0.06770017
0.019338127 0.023871085 -0.027588407 0.07277589 -0.017557899 -0.037736565 0.05479192 -0.07987463
0.016974833 0.013209178 -0.0104669565 0.0649278 0.03963074 0.0026397782 0.108370624 -0.030591795
0.009249141 -0.047573965 0.022252487 0.048925716 -0.06717604 0.010904513 0.01726738 -0.00034856485
-0.017790679 0.0076172086 0.032493714 0.0151563445 -0.02543645 -0.0010182527 -0.026622523 -0.03619246
0.07303661 0.010645339 0.015785774 -0.06591594 -0.11596547 0.0017557952 0.06531697 -0.055206932
-0.0032596467 -0.032287374 -0.019980341 -0.05085813 0.038912594 7.9410005e-05 0.06544073 0.051509812
0.019132122 -0.004676067 -0.015736151 0.017879108 -0.0062132142 -0.040874176 -0.019949809 -0.022572745
-0.08375316 0.0071331696 0.044194084 0.006376281 -0.045729756 -0.03986424 0.08991267 0.0208823
0.01596437 0.07552599 0.042324223 -0.0055613634 -0.041110244 -0.034775067 0.032206662 0.05333579
0.0014711121 -0.072346754 -0.027376018 0.09788571 0.029885964 0.03321919 0.022263037 0.0657732
0.053785894 0.029878993 -0.043932173 -0.028923089 0.01589919 0.011088982 0.01388578 -0.00036834148
0.03780799 -0.05054675 -0.03190272 0.036039256 0.08652444 -0.00020914586 -0.067386314 -0.07043818
0.09559163 0.051490195 0.039021265 -0.05152383 0.026125835 -0.06739862 0.038038537 0.066581555
-0.050920423 0.044494007 -0.0033383896 -0.05817154 0.02170454 0.023440419 0.0060384697 0.026687428
-0.055565957 0.0050000628 0.028791698 0.057474907 -0.05526016 0.012643531 0.023964366 -0.0011565848
-0.04360262 0.00023417038 -0.053581145 -0.02928362 -0.067657515 0.000106337684 -0.056921914 0.02768066
0.02822051 -0.04430482 0.022222938 0.024966056 -0.01773519 -0.07601242 0.033600148 0.022756772
0.023493748 0.01694929 -0.07412135 -0.029339947 0.033068415 0.061961647 -0.021000536 -0.00908249
0.04473809 0.021404281 0.010486569 0.030589705 -0.029141048 -0.02488072 -0.03567655 -0.0076099765
0.049492557 0.01827079 0.049182575 -0.09706398 -0.026668506 -0.11871389 0.09109711 0.014048267
0.024020845 0.017117813 -0.0811441 -0.09996473 0.07846428 -0.056809463 0.026286436 -0.051659763
0.028783323 0.03248344 -0.029451925 -0.019998662 -0.029464226 0.005889584 0.0064256387 -0.017292144
-0.10856563 0.075127706 0.043249033 -0.012168375 0.029860334 0.046211265 0.050624058 0.003909001
-0.010720778 0.033850946 -0.0599828 -0.14259796 0.0604297 -0.100733474 0.022081573 0.097574696
-0.042133264 0.00020031462 -0.006056612 0.00600463 -0.003514321 0.006952671 0.004941992 -0.017610144
-0.0063169906 0.002988504 0.0047088033 -0.066471584 0.034683816 -0.023727158 -0.047012445 0.0004918732
-0.004131242 -0.043962076 -0.027947651 0.020298697 -0.09199893 0.0020350828 0.0063462364 -0.081057675
0.052607056 0.060770836 0.0037816488 0.016286831 -0.05543419 0.008906885 -0.0107217105 0.010666111
0.0032478387 0.014868534 0.0045158556 0.019681213 -0.020543769 0.045458984 -0.09759058 -0.03337778
-0.003987332 -0.078243665 -0.07042501 -0.08068086 0.028864402 -0.0267918 0.067571156 -0.0062946402
-0.032051403 0.024574768 -0.040588595 0.06415652 0.034692585 -0.0023070772 -0.03179582 0.02712144
